results/c6b3818f_2025-01-09 05:43:28/model.ckpt (torch_old, 651797 bytes, 89 tensors)

encoder.latency_model.net.network.0.weight f4 [32, 1, 3]
000000 03 2b 1f 3f 4b f8 b1 be 5d 64 76 3e fe 96 76 3e
       0.62175006 -0.34759745 0.24061723 0.24081036
000010 12 bd b1 3e c2 39 1f 3f 82 b3 e2 be 21 ee 03 3f
       0.34714562 0.62197506 -0.4427758 0.5153523
000020 bf 1b 04 3f f4 9b 00 bf 28 c9 a6 3c fb 39 b1 3d
       0.5160484 -0.50237966 0.02035959 0.08653637
000030 43 ab fd 3e b6 2b 17 bf e1 63 31 3e 48 1b a8 be
       0.49544725 -0.5905107 0.17323257 -0.32833314
000040 d4 ae 01 bf 09 aa 68 be 8f 4e 08 bf 38 88 5b 3e
       -0.5065739 -0.22721113 -0.5324487 0.21438682
000050 18 57 af be b1 44 eb be 01 86 3f 3e d5 62 88 3e
       -0.34246135 -0.45950845 0.18703462 0.26637903
000060 b9 ec 02 be 6b 19 18 bf b3 0a 36 bf 63 89 f4 3e
       -0.12785615 -0.59413785 -0.71110076 0.47761068
000070 f4 33 f6 bd 52 15 ca 3e 01 3b e3 be ed 50 0b 3d
       -0.12021628 0.3946939 -0.44380954 0.034012724
000080 6e 4b 37 3e a7 fa a8 be b5 05 7c be 4d dc 14 3f
       0.17899868 -0.33003733 -0.24611552 0.5814865
000090 2a a4 3a 3e 62 b7 52 bd 64 52 07 be 59 30 b2 be
       0.18226686 -0.05144442 -0.13215023 -0.3480251
0000a0 b4 47 c0 3e c7 e1 67 3e 05 09 f1 3e 10 5c a4 be
       0.37554705 0.22644721 0.47077194 -0.32101488
0000b0 90 15 d5 be ee 5c b0 3e de de 5f 3e 54 29 0d 3f
       -0.41618013 0.344459 0.21862361 0.55141187
0000c0 86 7e b0 3d 12 ca 90 be 02 2d f6 3e 5f aa e0 be
       0.086178824 -0.28279167 0.48081213 -0.43879983
0000d0 03 ee 3c 3d ee ad bf bd a0 d3 00 3e 4e 25 8c 3d
       0.046125423 -0.09359346 0.12580729 0.06843053
0000e0 5d a1 09 bb 58 f0 d9 bd 7c e6 b3 3e 99 da 20 bd
       -0.002100072 -0.10641545 0.35136783 -0.03927097
0000f0 5d 6c b7 bc 54 1a 1d bf e8 5e 77 be d8 c3 22 bf
       -0.022390539 -0.613683 -0.24157298 -0.63580084
000100 5e f3 90 be 87 ac 64 3e cf cf 2a 3e 58 1d a1 3e
       -0.28310674 0.22331439 0.16680835 0.314677
000110 e2 05 86 3e e6 fc 65 be 12 18 a4 be b0 06 dc 3d
       0.26176363 -0.22459754 -0.32049614 0.10743463
000120 f6 89 2e bf 76 84 ea be 62 2a 8c 3e 76 46 4c be
       -0.6817926 -0.45804185 0.27376086 -0.19948754
000130 e8 46 e6 3e 60 d9 1d 3f 93 db 13 bf cd 1c f1 3d
       0.44975972 0.6165981 -0.5775692 0.117730714
000140 c4 d5 f6 bd 46 6d ac be 73 19 b5 3e 34 48 14 bf
       -0.12052491 -0.3367712 0.3537098 -0.57922673
000150 79 23 02 3f b4 fa 07 bf be 0f 9e 3c 77 de 0b bf
       0.50835377 -0.5311692 0.019294616 -0.5463633
000160 f7 0b bd 3e bf 26 43 be ee 1a c9 3e 89 ef ea be
       0.3692319 -0.19057749 0.39278358 -0.45885876
000170 99 47 7e 3d 40 bb 8c 3d e0 88 d7 be 42 f8 7e be
       0.06208 0.068716526 -0.42096615 -0.2489939

encoder.latency_model.net.network.0.bias f4 [32]
000000 29 b4 59 3e 7d 4c 00 bf c4 03 b9 be 63 59 1e 3e
       0.21260132 -0.5011671 -0.36135685 0.15463786
000010 95 87 ce bd ae 0d 1d 3c 24 cc b0 3d ae 53 00 bf
       -0.10084454 0.009585781 0.08632687 -0.50127685
000020 d1 d2 10 3e a8 d9 ad bd 1f 9e 2d be d5 cb ac 3e
       0.1414292 -0.0848878 -0.1695485 0.33749261
000030 95 74 9d bd e6 13 f0 3e 8d 65 a2 3e 62 32 c9 3e
       -0.07688252 0.4689018 0.31718102 0.39296252
000040 32 12 3d 3e 5b 42 ec be 06 e7 c2 bc 39 7b 4a be
       0.18463972 -0.46144375 -0.023791801 -0.19773568
000050 0c dc d3 bd b2 0f 61 bd eb f2 8d 3d 36 cb b8 be
       -0.10344705 -0.05494661 0.069310986 -0.36092538
000060 6f ed 5c be 75 78 ad 3e cc 19 b5 3e 80 94 cd be
       -0.21574949 0.33880964 0.35371244 -0.4015236
000070 19 c4 2a 3d bf 93 52 3e 38 6d 40 3e ac 75 82 bb
       0.04169092 0.20564173 0.18791664 -0.0039813127

encoder.latency_model.net.network.1.weight f4 [32]
000000 1a c3 65 3f 10 78 76 3f 0a 83 6b 3f bf 24 87 3f
       0.89750826 0.9627695 0.91996825 1.0558089
000010 f8 6a 6f 3f 68 a6 80 3f ae df 7b 3f eb 68 83 3f
       0.93522596 1.0050783 0.98388183 1.0266393
000020 c1 d4 7a 3f 07 85 5a 3f 80 d3 86 3f e4 86 83 3f
       0.97980887 0.85359234 1.0533295 1.027554
000030 24 04 72 3f 0c f5 77 3f e6 a5 88 3f 46 fb 6a 3f
       0.9453757 0.96858287 1.0675628 0.9178966
000040 df d3 77 3f 7b 9c 88 3f cc 2f 64 3f cc dd 55 3f
       0.96807665 1.0672754 0.8913543 0.8354156
000050 d9 41 7d 3f c4 44 81 3f 7e b7 6c 3f eb 7a 86 3f
       0.989286 1.0099111 0.92467487 1.0506262
000060 4a c9 84 3f 32 92 6c 3f 73 71 84 3f 8b a1 80 3f
       1.0373929 0.92410576 1.0347122 1.0049299
000070 51 63 92 3f eb 66 79 3f 9c 54 87 3f 13 4c 82 3f
       1.1436559 0.97422665 1.0572696 1.0179466

encoder.latency_model.net.network.1.bias f4 [32]
000000 ba 6d b4 3d c7 f1 92 3d 0a b0 8e 3d 37 75 6d bd
       0.08809991 0.071750216 0.069671705 -0.057973113
000010 46 cb 9d 3d 5e ca 52 3d f4 c6 1e 3c 6f 59 70 ba
       0.07704787 0.051462524 0.009690989 -0.00091686
000020 2e 32 5d 3c 48 35 dd 3c 59 de 0a 3e 5b 4b 00 3b
       0.013500733 0.027002946 0.13561381 0.0019576165
000030 ee 46 1c bc 1f ab 4a be 18 8f b9 3d fe cd 88 3d
       -0.009538395 -0.1979184 0.09060496 0.06679915
000040 bd 81 87 be 76 ab 8f 3d 4f fe 2f 3d 77 99 b0 3c
       -0.2646617 0.070151255 0.042967137 0.021557553
000050 63 37 f5 3c 03 a2 72 bd 9d 67 8c bd 5e 97 87 3d
       0.029933637 -0.059236538 -0.068557 0.06620668
000060 48 84 9f bd d0 db 98 3d ec 3c a2 bd 08 b7 ab bd
       -0.077889025 0.07463801 -0.07921776 -0.0838452
000070 38 76 d3 ba 60 55 8e bd 43 cc 23 bb 6b 9b b8 bd
       -0.0016133254 -0.06949878 -0.0024993576 -0.090140186

encoder.latency_model.net.network.1.running_mean f4 [32]
000000 79 d5 2f 46 de fc cb 46 09 28 44 46 4a a1 04 c6
       11253.368 26110.434 12554.009 -8488.322
000010 2a e1 cf 44 61 6f b3 c6 54 d0 60 c6 ab d8 7c c3
       1663.0364 -22967.69 -14388.082 -252.84636
000020 e7 33 f2 c6 08 66 7e 46 cb 58 98 c5 b7 62 d9 c0
       -31001.951 16281.508 -4875.099 -6.7933
000030 19 bc 21 c3 76 96 ac 45 cc 98 b0 c5 7c e3 bb 46
       -161.73476 5522.8076 -5651.0996 24049.742
000040 d2 e1 be 45 42 07 25 c6 a4 8f 7e 45 5d 4c 87 45
       6108.2275 -10561.814 4072.9775 4329.5454
000050 e8 92 94 c6 96 9b 69 c6 ac 54 7a 46 6d 05 16 c6
       -19017.453 -14950.896 16021.168 -9601.356
000060 7c ea 91 c6 77 9a 91 46 f7 4c 44 c6 6f 4a 3d c6
       -18677.242 18637.232 -12563.241 -12114.608
000070 04 5e 56 c3 25 4f fa c5 75 d7 69 c3 d3 bf 49 c6
       -214.36725 -8009.893 -233.84163 -12911.956

encoder.latency_model.net.network.1.running_var f4 [32]
000000 34 c0 10 51 6a 33 24 52 41 44 59 51 12 a5 b2 50
       3.8856245e+10 1.763093e+11 5.8322063e+10 2.39773e+10
000010 e7 79 1f 50 dc f7 fe 51 cc a5 4f 51 0f 58 05 50
       1.0702265e+10 1.3688501e+11 5.573999e+10 8.948563e+09
000020 e7 54 6b 52 4a a6 80 51 29 ed 35 50 c4 0a 54 50
       2.5268543e+11 6.906821e+10 1.2208874e+10 1.4229901e+10
000030 21 c1 bd 4e 7d 3f 67 50 23 3b a4 50 3c 9f 09 52
       1.5917754e+09 1.5518791e+10 2.2042712e+10 1.477705e+11
000040 1e 0e 58 50 33 52 e4 50 57 34 86 4f 29 fe d4 4f
       1.4499215e+10 3.0644738e+10 4.503154e+09 7.146853e+09
000050 41 30 b6 51 21 7c 80 51 c9 ee 76 51 98 fd c6 50
       9.78117e+10 6.897979e+10 6.6285507e+10 2.6708066e+10
000060 16 0e c4 51 ac f9 bb 51 f1 8b 26 51 1b 20 20 51
       1.0525624e+11 1.0091846e+11 4.4707025e+10 4.298334e+10
000070 c6 5a 18 50 c2 8b a9 50 f2 dd c3 4f 0c d3 2c 51
       1.0224343e+10 2.275607e+10 6.572205e+09 4.6392197e+10

encoder.latency_model.net.network.4.weight f4 [64, 32, 3]
000000 71 69 ab 3d ee e1 a8 bd 54 e5 99 3c d5 c5 b1 bd
       0.08369721 -0.08246218 0.01878611 -0.086803116
000010 7c 0b e5 bc 5f 99 86 bd 9c f8 2e 3b ca 79 20 3d
       -0.027959578 -0.06572222 0.0026698476 0.039178647
000020 5f 65 6a 3d e3 39 91 3c 45 10 bb 3d 25 ab 35 3e
       0.05722558 0.017727798 0.091339625 0.17741068
000030 15 a2 c1 bd c0 3d 99 3d 18 75 af 3c 28 22 89 bd
       -0.09454743 0.07482481 0.02141814 -0.06695968
000040 66 31 49 3d d1 ac 92 3d c5 5b fd bd c1 91 1c bc
       0.049119376 0.07161868 -0.12371019 -0.009556235
000050 50 8c 3d 3e 5e 20 c0 bd fe 35 75 3c 64 c3 50 bd
       0.18510556 -0.093811736 0.014966486 -0.05096759
000060 24 a1 e7 bc c1 d0 03 3d 7c 51 aa bb 78 8a 9d 3d
       -0.02827508 0.032181505 -0.005197702 0.076924264
000070 80 61 9f bc d6 e2 cd 3d f6 be b5 3c 61 20 19 3d
       -0.019455671 0.10053031 0.022185784 0.037384395
000080 75 85 66 3d 3e 88 8f bc d0 c9 9c bd 4f 5f be bd
       0.05627962 -0.01752102 -0.0765568 -0.092955224
000090 a2 be a5 3c 55 65 9d bd 9c 60 d7 bd 2e 2a ec 3d
       0.020232502 -0.07685343 -0.10516474 0.11531483
0000a0 7c b2 01 3b 1b e7 90 3d 4d 71 59 bd 0f 1e 4c bb
       0.0019790223 0.0707533 -0.053086568 -0.0031145846
0000b0 d7 8f 3a 3d 20 b7 11 bd 23 31 26 bd f7 a1 96 3d
       0.045547333 -0.035575032 -0.040574204 0.07355111
0000c0 4a ae b9 3d b0 b7 3c 3d dc 8c ff bc a4 dd 3e 3d
       0.09066446 0.046073616 -0.031195097 0.04659809
0000d0 22 a5 10 3d 4f ad 4d 3e 25 bc 33 3c 07 ba fd 3d
       0.035313733 0.20085643 0.01097015 0.123889975
0000e0 0a c0 84 bb d5 06 25 bd dc 92 6e 3d 5c 85 82 bc
       -0.004051213 -0.04028972 0.058245525 -0.015932731
0000f0 b2 33 7c bd 08 8a d1 3c a6 ec 7a bc 4b 9f 18 3d
       -0.061572738 0.025578514 -0.01531521 0.03726129
000100 5b 7d 5b 3d 5e f6 de 3d b8 ec 72 3d dd 00 d6 3d
       0.053586345 0.108868346 0.059307784 0.104493834
000110 b0 b6 ad bd 67 1d a0 bd cf 2e 76 bd 3d b4 1d 3e
       -0.084821105 -0.07818108 -0.060103234 0.15400787
000120 25 70 ae bd 02 de db bd d7 d9 0d bc 40 4a 84 bc
       -0.085174836 -0.10735704 -0.008657894 -0.016148686
000130 e9 e5 ee 3d e1 b3 5a 3c 41 3c 31 be d6 04 1a be
       0.11664946 0.013348551 -0.17308141 -0.15040907
000140 09 10 5b 3e 23 11 1c bc 6c 59 63 be 2f 27 f6 bd
       0.21392836 -0.00952557 -0.2220208 -0.120191924
000150 6e d9 0a be 49 0a 2e be 15 19 20 be 0e e2 08 3d
       -0.13559505 -0.16996111 -0.15634568 0.033418708
000160 fc d1 c3 bd dc e0 82 3c 20 37 03 be bf a5 38 bd
       -0.09561536 0.015976362 -0.12813997 -0.045079943
000170 b8 f0 28 be 2c f6 fc bd 2a d5 20 be 67 d9 c7 bd
       -0.16498077 -0.12351641 -0.15706316 -0.09758263
000180 2f 60 a2 bc fa 84 f1 bb 1f bd 69 3d 87 84 e5 bb
       -0.019821255 -0.0073705884 0.057065126 -0.007004324
000190 be fb 77 bb 2c 7f ee 3d 93 3c d4 bd bf 7f e2 3d
       -0.003783926 0.1164535 -0.10363116 0.11059522
0001a0 7a 59 cb 3c 3b b3 88 bc fd 83 86 3d 2b 13 0f be
       0.02482294 -0.016687026 0.065681435 -0.13972156
0001b0 47 41 d8 bd dc 49 ed bd d5 53 24 3c 3e b6 8d 3d
       -0.10559326 -0.11586353 0.010029753 0.069195256
0001c0 59 e6 fb bc db 96 09 be 02 0b 6d 3b 42 be 8c bd
       -0.030749487 -0.13436453 0.0036169891 -0.06872226
0001d0 c1 b2 68 be 7d c4 88 bd 02 36 1a 3d 4f 4f d0 3c
       -0.22724439 -0.06678102 0.037649162 0.025428442
0001e0 76 73 da bc 34 d7 21 be ca 9d cc ba 11 ee 89 bd
       -0.026666384 -0.1580475 -0.001561099 -0.06734861
0001f0 76 ef 04 be 51 af cc 3d 45 db 2d be 8e f9 28 3c
       -0.12981972 0.099943765 -0.16978176 0.010313405
000200 5b 2b 2e be fd dd 8b 3d cb 5c 7c 3d 0e 92 c2 3d
       -0.17008726 0.0682945 0.06161193 0.09500514
000210 c1 24 4e 3d 3e a7 16 bd c9 50 4d 3c 0e a6 96 bc
       0.05032802 -0.03678059 0.012531468 -0.018389728
000220 f1 c3 ad bb 23 7c da 3c 12 b9 34 bd 7a e8 8c bd
       -0.005302899 0.026670521 -0.04412181 -0.06880279
000230 00 58 ce bd ef fe 6a 3d 07 63 d1 bd 53 a3 03 bc
       -0.100753784 0.05737203 -0.10223966 -0.008034545
000240 06 76 a7 bb 96 d3 26 bd a8 2c 74 bd 7f e4 ae 3c
       -0.005110505 -0.040729128 -0.0596129 0.02134919
000250 95 9b 00 bd 8b c1 74 be 6e 33 43 3c e4 c2 bd bd
       -0.031398375 -0.23901956 0.011914117 -0.09265688
000260 19 b7 48 3d 0b 8f 30 3c 52 c7 99 bd 0d e6 ff ba
       0.04900274 0.010776292 -0.075087205 -0.0019523517
000270 53 0f 75 3d bf 50 92 bd 32 62 56 bd 15 20 0c bd
       0.059829067 -0.07144307 -0.05233974 -0.034210283
000280 da 29 36 bd 27 0d 3f 3c f5 9c 52 bd 7b 0d 18 bd
       -0.044473507 0.011660851 -0.051419217 -0.03712223
000290 03 b9 db bc 20 37 4d bd de 0e 04 bd 96 0a 94 bd
       -0.026821619 -0.0501014 -0.03224074 -0.072285816
0002a0 3c cc 16 3d ea ec b1 b9 a3 4f 3e 3d 0b e5 1c bd
       0.036815867 -0.00033936586 0.046462666 -0.03830437
0002b0 aa 2b a3 bc 33 ec e5 bb 0d 32 9d bc c0 aa 5a 3e
       -0.019918282 -0.0070166825 -0.019188905 0.21354198
0002c0 1b 44 04 be 75 b8 3d bd a3 50 64 3b 1d e2 98 3d
       -0.12916605 -0.04631849 0.0034838102 0.07465003
0002d0 a5 9a d3 bd 48 4d 31 3d 0b dd 83 bd ed c1 1a 3c
       -0.103322305 0.04328659 -0.06438645 0.00944565
0002e0 91 52 02 3e c4 59 0b 3d 54 8b 1f 3d 58 8e 11 3d
       0.12726809 0.034021154 0.038951233 0.03553614
0002f0 b2 7b 67 3d 97 84 13 3e 6a 80 c1 3b 79 12 95 bc
       0.05651445 0.14406048 0.0059052007 -0.018197285
000300 93 c2 a1 bc 9f 8c e1 3c f9 f3 df bd 15 e6 d7 bd
       -0.0197461 0.027532874 -0.10935206 -0.105419315
000310 9b cf 7f 3d 50 fa da 3c 06 2f 8b bc 90 75 da bb
       0.062453847 0.026730686 -0.016990196 -0.0066668466
000320 c6 70 ad bd 61 74 01 3e 23 49 67 be 14 85 41 be
       -0.084687755 0.12642051 -0.22586493 -0.18898422
000330 bf 8c 07 3d d2 02 37 3d 3b d8 ac 3c b9 a6 ac 3d
       0.03309321 0.044680424 0.0210992 0.08430237
000340 d6 79 f1 bd 1a 52 c2 bd c6 4a b7 3d 4d 1b 24 3d
       -0.117908165 -0.09488316 0.08949809 0.0400651
000350 19 03 36 3d fe 76 10 3e 08 49 b8 3d c6 01 44 3c
       0.044436548 0.14107892 0.089983046 0.011963313
000360 a0 e3 0a bd 89 71 7b 3c d6 4b 0a bd 21 0d c6 3c
       -0.033908486 0.015346893 -0.03376373 0.024176182
000370 ea b5 cf 3d 8b 58 c6 bb 4a a9 92 3b 09 e7 7c 3d
       0.10142119 -0.0060530356 0.0044757472 0.06174377
000380 9c a2 1f bd 0b 12 cd 3d c8 50 94 3c 19 86 ff bc
       -0.038973436 0.10013207 0.018104926 -0.031191872
000390 c0 2d a7 bd 3a a7 61 bd dd dd a5 bd 6a 4a 4e 3d
       -0.08163023 -0.05509112 -0.08098958 0.050363936
0003a0 c5 e0 66 ba 7e c1 a3 3d 24 ad 17 bb 44 c5 d7 3d
       -0.0008807297 0.0799589 -0.0023143971 0.10535672
0003b0 29 40 06 bd d1 17 00 be bd ca 9c bd 33 a6 70 bc
       -0.03277603 -0.12509085 -0.07655857 -0.0146880625
0003c0 1a 6c 89 bd 14 c4 58 bd 9f 20 2a bd b1 a4 ae 3d
       -0.06710072 -0.05292137 -0.041535016 0.08527506
0003d0 06 d8 4e 3d 62 36 d9 3a 47 41 34 bc 24 4e b5 3d
       0.050498985 0.0016571993 -0.011001891 0.08852795
0003e0 a8 56 0e bd e9 d1 9d 3d 0a f9 65 bd c7 88 71 bc
       -0.03475061 0.07706053 -0.056145705 -0.014742083
0003f0 ba 6e 89 3d d4 73 ba bd 33 50 35 3d e2 1e 85 3d
       0.067105725 -0.09104124 0.044265937 0.06500031

encoder.latency_model.net.network.4.bias f4 [64]
000000 ad ee f8 3d fb 6c 88 bc 34 d8 15 3d 15 4a bc bd
       0.12154899 -0.016653528 0.03658314 -0.091938175
000010 f8 3f ca bd 08 c1 21 3c 14 6e 81 3d 79 75 ce 3d
       -0.09875482 0.009872682 0.06319824 0.10081
000020 bc 0b 0a 3d cc 36 98 bd 83 ba df bd 33 41 fb 3d
       0.033702597 -0.07432327 -0.10924246 0.12268295
000030 b9 09 ec bd ba c6 cd bd a1 4a 01 3d ab 06 d1 bd
       -0.11525292 -0.1004767 0.031565312 -0.1020635
000040 17 47 c0 3c 8f af 07 3d f8 72 46 3d 6d 94 68 3a
       0.023471398 0.03312641 0.048449486 0.0008872215
000050 81 f6 a4 bd 74 a6 04 3b 3d 24 2c 3d f6 87 a5 bd
       -0.080548294 0.0020240815 0.042026747 -0.08082573
000060 4d 9a 8f 3c de 25 7c bd 78 64 35 3d 88 e6 e4 3b
       0.017529631 -0.06155955 0.044285268 0.0069854893
000070 5e 99 a8 bd b3 a4 33 bb 6d af 52 3b ac 66 72 bc
       -0.082323775 -0.00274114 0.003214802 -0.014794987
000080 2d 5d a8 bd ac 07 ca 3d fa ff a0 bc 4e f4 42 bd
       -0.08220897 0.098647445 -0.01965331 -0.04759627
000090 c7 7a 12 3e 87 14 fc 3c 12 36 42 3c ba 01 27 bd
       0.14304648 0.030771507 0.011853712 -0.04077313
0000a0 08 c7 92 bc 0c 4a 79 bd b2 90 08 3d 7c 03 95 bd
       -0.017917171 -0.060861632 0.033341117 -0.07276055
0000b0 2b bc 65 3c cd 97 81 3d d7 e4 e7 bc b9 4f ba bd
       0.0140219135 0.06327782 -0.028307362 -0.09097237
0000c0 c5 9f b9 bc 83 4e f7 bc 0b ef 02 3d a1 6d 88 3c
       -0.022659192 -0.030188804 0.03196625 0.016653838
0000d0 e9 ec 9e 3b 00 83 f5 bc 4c 16 21 be c0 da 03 bd
       0.0048500192 -0.029969692 -0.15731162 -0.032191038
0000e0 06 d2 70 bb 9c 4b 14 be 05 5a bc bb c1 a3 95 bd
       -0.0036746277 -0.14481968 -0.005748036 -0.07306624
0000f0 b1 0d cd bd 5f 3e 27 bd 44 d4 3b 3d d9 2b 89 bd
       -0.10012377 -0.040830966 0.04585673 -0.066978164

encoder.latency_model.net.network.5.weight f4 [64]
000000 1f c2 8b 3f 7b c5 81 3f fd 39 83 3f 1d 0b 89 3f
       1.0918616 1.0138391 1.0252072 1.0706517
000010 70 d7 82 3f 52 de 7a 3f ce d1 85 3f 59 7e 89 3f
       1.0221996 0.97995484 1.0454652 1.0741683
000020 f3 1e 83 3f 4f 7e 7f 3f 11 e6 83 3f 21 a1 87 3f
       1.024382 0.99802107 1.0304586 1.0596048
000030 92 03 84 3f 67 90 81 3f 91 8e 84 3f 02 8b 75 3f
       1.031359 1.0122193 1.0356008 0.95915234
000040 70 09 7d 3f 04 08 8a 3f 47 ca 85 3f be 8f 83 3f
       0.98842525 1.0783696 1.0452355 1.0278242
000050 06 b8 8d 3f fa 30 84 3f 7f db 84 3f 34 49 83 3f
       1.1071784 1.0327446 1.0379485 1.0256715
000060 13 1d 86 3f 8e 2f 85 3f ef 76 79 3f fd 45 83 3f
       1.0477623 1.0405138 0.97447103 1.0255734
000070 34 8a 77 3f f6 36 85 3f 90 89 83 3f 3f 45 81 3f
       0.96695256 1.0407398 1.0276356 1.0099257
000080 f2 57 84 3f 8d 32 8a 3f a9 ef 81 3f 0a bc 81 3f
       1.0339339 1.0796677 1.0151263 1.013551
000090 95 72 96 3f ee 5b 7a 3f d3 ff 87 3f 4f b1 83 3f
       1.1753718 0.97796524 1.0624946 1.0288485
0000a0 a4 f9 82 3f c4 14 83 3f 54 8d 83 3f 24 bc 88 3f
       1.0232434 1.0240712 1.0277505 1.0682416
0000b0 21 37 82 3f 62 b4 78 3f 23 34 83 3f 4a 0b 86 3f
       1.0173074 0.9715024 1.0250286 1.0472195
0000c0 35 fd 80 3f 98 e3 90 3f 77 23 7f 3f aa 4d 85 3f
       1.0077273 1.1319456 0.9966349 1.0414326
0000d0 7a af 6f 3f 3a bb 84 3f dd 71 7d 3f 70 f1 8a 3f
       0.9362713 1.0369637 0.99001867 1.0854931
0000e0 14 fc 89 3f 32 8e 84 3f 65 63 84 3f 0e 3f 7e 3f
       1.0780053 1.0355895 1.0342833 0.99314964
0000f0 a8 38 80 3f 77 f5 84 3f 74 9e 87 3f 75 8e 81 3f
       1.001729 1.038741 1.0595231 1.01216

encoder.latency_model.net.network.5.bias f4 [64]
000000 da 04 9e 3d fa 8b 83 3d 13 d4 4c bd 92 e5 58 3d
       0.07715769 0.06423183 -0.050006937 0.05295331
000010 38 3c af 3d 12 5e c6 3d 77 9e 5c 3d 51 4c 91 3b
       0.08556408 0.09685911 0.05386206 0.0044341465
000020 81 ae c2 3d fe 57 a6 3d 7f 42 95 3d ec d2 f5 3d
       0.0950594 0.08122252 0.07288074 0.12003121
000030 05 97 82 3d 2d ee fc 3d 3d ce 5b 3d 43 84 90 3d
       0.06376461 0.12350116 0.05366348 0.07056477
000040 c2 7a 80 3d 1e 6b 47 3d 5e b8 c3 3d 53 a0 93 3d
       0.06273414 0.04868614 0.095566496 0.07208314
000050 fb ba 33 3d bf ce 11 3e a2 78 51 3d 29 f5 82 3d
       0.04387949 0.14239024 0.051140435 0.06394417
000060 90 f5 d7 3d 74 d6 99 3d 0b fd 5a 3d 62 7b 9f 3d
       0.10544884 0.07511607 0.053463977 0.07787205
000070 16 81 bf bb 93 2c 96 3d 02 2b 55 3d 69 00 8c 3d
       -0.0058442457 0.073327206 0.05204297 0.06836016
000080 58 1e e5 3d 72 d5 92 ba 7b 33 20 3d f4 27 6e 3c
       0.11187428 -0.0011202528 0.039111596 0.014535893
000090 a1 3e d7 3d 65 fa aa 3d e3 7a 2a 3d c4 79 12 3d
       0.105099924 0.0834854 0.0416211 0.035760656
0000a0 3a e8 c4 3d 97 89 8c 3d 16 5b a3 3d a0 fb 04 3e
       0.09614606 0.06862181 0.07976358 0.12986612
0000b0 78 d0 6e 3d 00 d4 ac 3d d0 28 2f bb 69 d2 ab 3d
       0.05830428 0.08438873 -0.0026727207 0.08389742
0000c0 07 ba 92 3d 6d 6e a4 3c b3 7d b5 3d ff ef a4 3d
       0.07164388 0.020072186 0.08861866 0.08053588
0000d0 77 fc 9d 3c 84 6c 14 3e f4 23 84 3d 5b 43 36 3e
       0.019285424 0.1449452 0.0645217 0.17799132
0000e0 fc 76 29 3d 05 73 e5 3d 26 45 b7 3d c9 95 47 3d
       0.041373238 0.11203579 0.08948736 0.04872683
0000f0 26 be 28 be 09 42 a2 3d d2 35 e0 3d d4 f6 8f 3d
       -0.16478786 0.079227515 0.109477654 0.070295006

encoder.latency_model.net.network.5.running_mean f4 [64]
000000 55 0f 37 3e 67 b7 47 be fe 93 1e 3d ab 2d a0 be
       0.17876942 -0.19503556 0.038715355 -0.31284842
000010 9a 95 e9 bd a8 e3 0e bd f7 23 50 3c 01 eb e1 3d
       -0.11405487 -0.03488508 0.012703887 0.110311516
000020 86 e2 fb 3b 52 eb 42 bb e2 93 08 be eb 9c 13 3e
       0.007686916 -0.0029742313 -0.13337663 0.14415328
000030 76 5f 5e be cb e0 9c bd 2a 9c 4f bd 79 b9 0f be
       -0.21716103 -0.07660063 -0.05068604 -0.14035596
000040 7e c0 b7 bc 77 5d 92 3e bf be 5d 3d 83 27 dd bc
       -0.022430655 0.28586933 0.054136988 -0.02699638
000050 e4 b0 63 bd 5d 11 10 bc f2 0e 95 3d 85 00 fd bd
       -0.055588618 -0.008793202 0.07278241 -0.12353615
000060 3b f6 20 3d 24 cf 0d bd 7c 15 a2 3d 8b 9c 63 bd
       0.039297324 -0.034621373 0.07914254 -0.055569213
000070 96 2b 21 3d cd 57 89 bd 2f 81 08 3d fc c6 80 3d
       0.039348207 -0.067062 0.033326324 0.06287953
000080 c1 0d cc bd 54 0e 33 3d 09 a9 87 3d 72 65 f1 bc
       -0.09963561 0.043714836 0.06624038 -0.029467318
000090 38 29 91 3e f9 9f 90 bb 86 f0 87 3d c9 d8 22 bd
       0.2835176 -0.0044136015 0.06637673 -0.039757524
0000a0 8c b3 4f bd 61 61 d6 bd cb 16 9d 3d 66 39 51 3d
       -0.05070834 -0.10467792 0.07670363 0.05108013
0000b0 66 5a c0 bd b3 af 48 3d 2c cb 67 be 26 f2 42 be
       -0.09392242 0.048995685 -0.22636098 -0.19037685
0000c0 e2 a0 f9 bd 33 09 62 ba 89 b1 1d bd f0 39 2a bd
       -0.12188889 -0.00086225866 -0.03849939 -0.04155916
0000d0 13 a4 1c 3e 29 d1 f6 bc e4 69 3c be 02 d4 97 bb
       0.15296964 -0.030129032 -0.18399769 -0.0046334276
0000e0 98 0f 87 3d aa 32 7f be 89 de e5 bc c5 99 e4 3c
       0.06594771 -0.2492167 -0.028060215 0.027905354
0000f0 12 51 36 3d b3 d1 2d be 59 b8 70 bd 99 06 cd bd
       0.04451091 -0.16974525 -0.058769558 -0.10011024

encoder.latency_model.net.network.5.running_var f4 [64]
000000 50 b9 3f 3e a3 8c 41 3e 76 15 17 3e dc 0f 8f 3d
       0.18723035 0.18901305 0.1475428 0.06985447
000010 9d d5 e0 3d 90 99 16 3e 5d 4b 9a 3e 0f 9f 83 3d
       0.109782435 0.14707017 0.30135623 0.064268224
000020 c5 17 d2 3e fe 7e a3 3e 44 3b 5a 3d e7 20 9b 3d
       0.4103376 0.31932825 0.053279176 0.07574635
000030 33 54 84 3d a7 87 0c 3e f1 11 2b 3e b7 21 39 3e
       0.06461372 0.13723622 0.16706063 0.18079267
000040 9b 6e 9b 3e 0f ad 8c 3d 7d ad e5 3d 8a af 2c 3e
       0.30357823 0.06868946 0.11214731 0.16863838
000050 10 0f 54 3e 59 5e 93 3e 15 a4 00 3f 3a 45 1f 3f
       0.20708871 0.2878292 0.5025037 0.62215006
000060 23 7c 9d 3d 21 ff 9e 3e 0a 01 4d 3e 54 f3 42 3f
       0.07689693 0.31054023 0.20019928 0.7615254
000070 d9 15 5d 3f 96 63 39 3e 31 e9 31 3f ec f2 c0 3e
       0.8636146 0.18104395 0.69496447 0.37685335
000080 be 78 e6 3d 0e 48 fa 3d 70 03 24 3f 7f ea 92 3e
       0.112534985 0.122207746 0.64067745 0.2869453
000090 79 69 c6 3d 67 26 cb 3d 44 28 82 3e c8 30 37 3f
       0.09688086 0.09919434 0.25421345 0.7155881
0000a0 bd 54 51 3d f4 88 53 3e e2 7e 8a 3e 5c a9 1b 3e
       0.051106203 0.20657712 0.2704993 0.15201324
0000b0 58 20 84 3d 54 f9 9c 3e dd 53 c0 3d 70 8e 2a 3d
       0.064514816 0.30658972 0.09390996 0.041639745
0000c0 6f c3 55 3e 4e 38 ae 3d a8 90 ad 3d d0 2c dc 3d
       0.20875333 0.08506833 0.084748566 0.10750735
0000d0 88 da 46 3f 21 ef 33 3f f1 e5 1c 3e f2 a7 21 3f
       0.776772 0.70286757 0.1532209 0.6314689
0000e0 f0 51 a2 3e a5 8f 99 3e 23 8f c7 3d 3f 9e f9 3e
       0.31703138 0.29992405 0.09744098 0.48753545
0000f0 4e 11 a7 3e 9b a7 2e 3e db 04 70 3e 1c ef eb 3d
       0.3263039 0.17056124 0.23439352 0.11520216

encoder.latency_model.attn_layer.atten_w f4 [20, 64, 1]
000000 f8 fc 8e 3e e4 54 00 be 1c 0c 01 3e b2 12 cb be
       0.27927375 -0.12532383 0.12602276 -0.396627
000010 f3 4f 30 3d eb 82 ea bd c3 86 bf 3c af 37 ac be
       0.043044996 -0.11450752 0.02337969 -0.33636233
000020 42 b1 d1 bd 28 59 0a bd 7a 89 aa 3d ff f9 31 3d
       -0.10238887 -0.033776432 0.08327003 0.043451305
000030 1b bd 09 be 34 1c 77 be d2 4c 43 3e 74 33 2d be
       -0.13451044 -0.24131852 0.19072273 -0.16914159
000040 eb 56 33 3e fd ca 57 be 23 aa 04 be 2c 00 ae be
       0.17513625 -0.21073528 -0.12955527 -0.33984506
000050 77 87 99 3e 9f 99 1f bd 20 1e bf be 0c f0 90 be
       0.29986164 -0.038964864 -0.3732767 -0.2830814
000060 17 88 2a be 09 db c2 bd d0 70 a9 bd d8 22 d2 bb
       -0.16653477 -0.09514434 -0.082734704 -0.006412845
000070 74 55 86 3d 88 a0 8e be 63 d8 9d be 9d 8d f7 3d
       0.06559268 -0.2785685 -0.30829152 0.120875575
000080 3d 29 c9 bd b8 56 a3 3d 0b ba 00 3e ef 2e 85 3e
       -0.09822319 0.07975525 0.1257097 0.2601237
000090 fd 35 e6 3e db 8f 27 3e 39 09 9a 3e 39 fa 34 3d
       0.44963065 0.1636347 0.3008516 0.044183943
0000a0 99 b4 33 be d0 26 ef 3c bf 97 fe 3c a0 54 74 3e
       -0.17549361 0.029193312 0.031078218 0.23860407
0000b0 5d 1f e9 3c d7 f0 7d be c5 6c 9e be 15 be 08 bd
       0.028457338 -0.24798904 -0.3094236 -0.0333844
0000c0 6e 5f 81 3e 7a 0a a7 bd d1 66 da 3d 47 f7 72 be
       0.2526812 -0.08156295 0.10664142 -0.23727141
0000d0 62 72 9e bd 4c cd 70 3e 07 ce a5 bd c9 e6 46 3e
       -0.077366605 0.23515815 -0.08095937 0.19423975
0000e0 bf 0d 33 bd 40 18 d4 3d a6 ac fe be 09 42 19 bd
       -0.04371428 0.10356188 -0.49741095 -0.03741649
0000f0 23 0b f8 bd 7e b2 d0 bd 85 2e 89 3e 5e b7 1f be
       -0.12111499 -0.10190295 0.26793304 -0.15597293
000100 0b 4b e1 3e 8a 32 bb be 6a cd 61 be 73 c7 e4 3d
       0.44002566 -0.36561996 -0.22051015 0.111708544
000110 2d b5 89 be 6d 32 d3 bd 4f d8 98 be 30 4f ed 3d
       -0.2689604 -0.10312352 -0.2985253 0.115873694
000120 61 a4 6d 3e 11 46 d7 3d bc 52 4b 3e 4c 19 48 3e
       0.23207237 0.10511411 0.1985578 0.195409
000130 60 c9 8b be db a1 56 3e 40 8d e9 3d f5 d5 f0 3d
       -0.27302074 0.2096018 0.114038944 0.11759559
000140 91 7a 10 3c 68 7a 83 bd 5c 00 94 bd b5 14 05 be
       0.008818285 -0.064198315 -0.07226631 -0.1299618
000150 03 95 17 3e ee ca a7 bd 74 03 5b be 8d a4 84 3e
       0.14802937 -0.08193003 -0.21388036 0.25906792
000160 df 2a 83 be cb 4e 9c be b7 e2 2e be 04 cb bf 3d
       -0.25618646 -0.30528864 -0.17078672 0.09364894
000170 22 11 64 bc cd ba bf be 09 45 37 3e 73 2a 9a bd
       -0.0139201 -0.37447205 0.17897429 -0.07527628
000180 b6 d8 97 ba ee d1 24 bd b2 72 b0 3d 9f 9d 9b be
       -0.0011584971 -0.040239267 0.086156264 -0.30393693
000190 f8 90 60 3d e2 14 94 3c d6 05 68 bc 66 00 47 3e
       0.054825753 0.018076364 -0.014161548 0.19433746
0001a0 cb 76 55 3e 46 d0 c8 bb fc a6 ba be 5c 23 df 3d
       0.20846097 -0.0061283438 -0.36455524 0.10895416
0001b0 be b7 f6 bd 0e 08 97 3d b8 17 94 bd 88 ca 7e 3e
       -0.12046765 0.07374583 -0.072310865 0.24881947
0001c0 5b c3 81 3e 9f 9d 1d 3e 13 65 bd 3d d0 da 72 3e
       0.25344357 0.15392159 0.09247794 0.23716283
0001d0 41 86 11 3e 06 63 5b bd d2 2d 8b be 59 58 9c 3c
       0.1421137 -0.053561233 -0.27183396 0.019085096
0001e0 2d e6 cd 3c cc 9c 83 3e ca 02 b7 3c 8b 90 1f be
       0.02513417 0.25705564 0.022340197 -0.15582483
0001f0 29 e6 33 3e f4 25 96 3d 2c b1 7a be 37 30 46 3d
       0.17568268 0.07331458 -0.24481648 0.048385825
000200 d1 5f a8 3e 15 d8 34 3e 55 0f d3 bd e7 7f 7d 3e
       0.32885602 0.17660554 -0.10305659 0.24755822
000210 82 99 6f 3e 9b 37 59 be 6b 6a 3f 3e 7b 7d a6 3e
       0.23398402 -0.21212618 0.18692939 0.3251761
000220 bc 31 3a 3e a1 06 37 3e 8b b7 23 bc 2a 90 77 be
       0.18183035 0.17873622 -0.0099924905 -0.24176088
000230 b7 d8 b1 be 65 93 f3 bd c8 ae 1e be 5b 33 21 3e
       -0.34735653 -0.11893348 -0.15496361 0.15742247
000240 6a 68 96 be 1f c3 40 3e 03 3c 7b 3e fe be 40 3e
       -0.29376537 0.18824433 0.24534611 0.18822858
000250 96 c2 ee bd 38 1d b2 bd 54 2f bc bd 2b ed 8e 3e
       -0.11658208 -0.08696979 -0.091887146 0.2791532
000260 2d 2b 9a be 79 0b aa bb f8 62 b5 bd 04 b8 86 3e
       -0.30111066 -0.005189356 -0.088567674 0.26312268
000270 e1 23 c3 b9 69 23 13 3d c0 57 28 bd c9 fc 5c be
       -0.0003722003 0.03592244 -0.04109931 -0.21580805
000280 4e 73 ae be b9 74 18 3d a8 5d 77 3e f3 ca 1b 3e
       -0.34072345 0.03722069 0.24156821 0.15214138
000290 cf 57 c3 3d c7 15 36 be 39 6e 00 3e df ac 96 3d
       0.095382325 -0.17781745 0.12542047 0.07357191
0002a0 fc 6a 96 be fd e5 9c be 56 43 8e 3d 83 29 39 be
       -0.29378498 -0.30644217 0.06946437 -0.18082242
0002b0 e0 cf 22 be b8 3c 2f be 30 e3 b1 3d 82 b4 28 3e
       -0.1589961 -0.17113006 0.08685911 0.16475108
0002c0 28 63 2c be cc e9 89 bc 4c da 9e be 7f 60 9d be
       -0.168347 -0.016835116 -0.31025922 -0.30737683
0002d0 84 b8 f4 bd b7 78 5a 3e 0d 08 64 be 6a f2 75 be
       -0.11949256 0.21335112 -0.22268696 -0.24018255
0002e0 2e ef 97 3e 01 9a 1e 3e 2e 09 34 3e d0 04 e4 bd
       0.29674667 0.15488435 0.17581627 -0.111337304
0002f0 3a 6d 63 3e bd 5d 07 be 18 9f 7c 3e bc 21 01 be
       0.22209635 -0.13219352 0.24670064 -0.12610525
000300 06 c4 a7 3b b6 c1 82 be 3b 3d 9b be 95 43 9e be
       0.0051198034 -0.25538415 -0.30320153 -0.30910936
000310 e8 42 0a be 6e 3a 92 be fe 95 c1 bd 6f fb e3 bd
       -0.13502085 -0.28560203 -0.09452437 -0.111319415
000320 9a 37 ff 3d eb 1e 0b be 89 5c ac be e8 f7 7f 3d
       0.12461777 -0.13586013 -0.3366435 0.06249228
000330 e4 78 21 be 97 8f ed 3d 47 46 d2 be 70 91 be 3c
       -0.15768772 0.11599653 -0.41069242 0.02326271
000340 89 b1 a9 3d 2c 1f 42 3e 9d 2d 86 3e 5e ff 15 be
       0.08285815 0.18957204 0.26206675 -0.14648196
000350 c7 37 c2 3d da dc 9b 3e 23 0b fe bd f5 6c a2 3e
       0.09483295 0.30441934 -0.12404468 0.31723753
000360 1c 34 80 3e 39 ca ae 3d e4 35 a7 be 95 fb 04 3d
       0.25039756 0.08534665 -0.32658303 0.03246649
000370 57 84 35 bd c0 7b 30 3e de e9 8b be 41 d4 a6 3b
       -0.044315662 0.17234707 -0.27326864 0.0050912206
000380 61 05 bf 3d 75 2e a4 bd 8a 85 99 bd fa fc 3d 3e
       0.09327198 -0.080166735 -0.07496174 0.18553534
000390 fd 11 d8 3e 9c 2e b1 be c2 3a 87 3e 33 ab 38 3e
       0.42201224 -0.34605873 0.26412016 0.18034057
0003a0 2c f2 81 be 9c b7 59 be df 4e 14 3d 41 8a 45 3e
       -0.25380075 -0.21261448 0.03620803 0.19291021
0003b0 f5 f8 5e bd b3 cc bf be b4 77 42 bc 9f 58 13 bd
       -0.054436643 -0.3746086 -0.01186936 -0.035973188
0003c0 4e 10 ad be 0b f5 93 3e 39 0d 27 be 67 db 27 be
       -0.33801502 0.2889789 -0.16313638 -0.16392289
0003d0 57 8c 91 be dd 5b d9 bd 8c 0b 24 3e a5 ba 97 3d
       -0.28427383 -0.10613225 0.1602003 0.074086465
0003e0 24 4c 39 bb 05 b1 de bd af 45 a5 be 11 48 89 bd
       -0.0028274143 -0.108736075 -0.32279727 -0.06703199
0003f0 ef e4 88 be cd 35 40 bc 7e 59 46 be eb 99 f5 be
       -0.26737162 -0.011731577 -0.19370076 -0.47968993

encoder.latency_model.attn_layer.atten_bias f4 [20, 1, 1]
000000 7b cc df 3b 3f 57 da b9 34 cf 08 bd 01 05 82 bb
       0.006829796 -0.00041645204 -0.03340073 -0.0039678817
000010 ab 32 bc bc 5e b7 41 bd e7 6b 44 bd 64 88 43 bd
       -0.02297338 -0.047294013 -0.047954466 -0.047737494
000020 10 0d 5d bd f8 47 63 bd 9a 5f 68 bd fd 29 69 bd
       -0.053967535 -0.055488557 -0.056731798 -0.05692481
000030 46 eb 54 bd 5a e7 3b bd a4 96 41 bd 3e 91 52 bd
       -0.051982187 -0.04587493 -0.047262803 -0.051408045
000040 b9 21 53 bd 24 44 5e bd 37 57 46 bd 04 59 4d bd
       -0.051545832 -0.054264203 -0.04842302 -0.05013372

encoder.cpu_model.net.network.0.weight f4 [32, 1, 3]
000000 6f dc b3 be 21 72 5b be 0f a6 c8 be d7 ec 15 3f
       -0.35129115 -0.21430255 -0.39189193 0.58564514
000010 91 18 0e be 1f a6 a7 3e 63 1f 0b 3f 0b a9 a5 be
       -0.13876559 0.32743928 0.5434477 -0.32355532
000020 af 9a 28 3e 1c 16 86 3e c7 8e 8c be a5 b4 57 be
       0.16465257 0.26188743 -0.2745268 -0.21065004
000030 fe af 91 3e 31 e0 1a 3d 5c 59 18 be b6 d2 ae be
       0.28454584 0.03781146 -0.14877838 -0.34145135
000040 95 08 dc 3e 94 4a a8 be 9d a6 5e 3e 15 96 08 bf
       0.42975298 -0.328694 0.21743245 -0.53354007
000050 7d 00 2f bd 87 07 98 3e 88 bb 19 bf 31 c5 cf be
       -0.042725075 0.29693243 -0.60051775 -0.40580133
000060 07 82 4f 3e 2a 29 a3 be b8 48 76 be ac 75 1e 3d
       0.20264445 -0.31867343 -0.24051178 0.03868644
000070 f7 88 d7 3e b3 d9 76 bd 65 7e 09 3f ec 7e e0 3c
       0.42096683 -0.060266208 0.5370849 0.027404271
000080 2e 6f bb be bb 64 d2 3e 78 c2 f5 be e9 b6 8d bd
       -0.3660826 0.41092476 -0.4799993 -0.06919653
000090 e9 f4 09 3f 00 13 8f 3a 92 f0 ee be c0 5f ed be
       0.5388933 0.0010915697 -0.46667916 -0.46362114
0000a0 06 d2 e7 bd 7a 45 cf be 34 e4 08 bf 87 1e 45 be
       -0.11319356 -0.40482694 -0.5347321 -0.19249927
0000b0 43 25 94 3e 6f bf 1c bf a1 67 27 3e d0 e2 c7 bd
       0.28934678 -0.61229604 0.16348125 -0.09760058
0000c0 2e 8d d3 3e 7a 49 74 3e 10 9a 4c 3d 7d a0 a8 3a
       0.4131865 0.23856154 0.049951613 0.0012865212
0000d0 f4 10 09 3f 04 1f dd 3e 98 a7 a8 3d 1b e0 f2 3e
       0.53541493 0.43187726 0.08235091 0.47436604
0000e0 88 e6 7f 3e 69 49 06 3f c4 24 93 be 48 91 c3 be
       0.24990284 0.52455765 -0.28738987 -0.38196778
0000f0 53 e5 aa 3e dd 6e e7 3e 2d 48 b3 3d 1a 4c 0f 3f
       0.33378085 0.4520177 0.08754001 0.55975497
000100 09 05 e0 be 37 b8 8a be 01 5f e3 be 49 30 01 3f
       -0.43753842 -0.2709367 -0.4440842 0.504643
000110 e6 85 db 3e 7a 61 95 ba e4 c3 7e be e8 64 9b be
       0.42875594 -0.0011396848 -0.24879414 -0.30350423
000120 ad 20 05 bf 45 32 fd 3e 56 45 a8 3e aa 9e a1 3e
       -0.52002984 0.49452415 0.328654 0.31566364
000130 83 7c e8 be a4 3e 1f be 0a 56 f1 3e 1c 15 16 bf
       -0.45407495 -0.15551239 0.47135955 -0.5862596
000140 72 c4 06 be 6f 91 9a 3e ec 03 24 bf ac 59 d1 be
       -0.13160875 0.30189082 -0.64068484 -0.40888727
000150 dc 5f 8d be 3c fa 33 bd f1 a8 3a 3e 33 06 05 be
       -0.27612197 -0.043939814 0.18228509 -0.12990646
000160 1c 7f cb be 0e 5d d3 be e8 43 bc be b8 6f 79 3e
       -0.39745414 -0.41281933 -0.36770558 0.24359024
000170 2e d5 ca 3e 82 7e a9 be c8 77 57 be a7 3a 58 be
       0.39615768 -0.3310433 -0.21041787 -0.21116124

encoder.cpu_model.net.network.0.bias f4 [32]
000000 5f f4 ae 3c 97 8a 93 bc ab f2 02 3d 9d b9 7d be
       0.02135676 -0.01801042 0.031969707 -0.24777837
000010 2c 2a be 3e 2d 55 32 be ce 50 a3 3e 8f 67 d2 be
       0.3714155 -0.17415304 0.31897587 -0.41094634
000020 d6 bd 94 be 0d 50 f1 be 73 e3 b6 3e 5f a8 d7 bd
       -0.29051083 -0.47131386 0.35720405 -0.10530161
000030 77 0d 10 bf c2 af c5 3e 5d c4 22 bd 27 34 5d 3e
       -0.56270546 0.38610655 -0.039738048 0.21601926
000040 8b 3f a8 3e f5 e7 f1 3d 42 c9 3b be 08 1a d1 3e
       0.3286098 0.118118204 -0.18338493 0.40840173
000050 30 f4 01 be dc 52 9d be 31 93 d9 3e df ec 02 bf
       -0.12690806 -0.3072728 0.4249511 -0.51142687
000060 48 b6 71 be fb e3 82 3e 20 d7 05 3f 47 25 86 be
       -0.23604691 0.2556456 0.5228138 -0.26200315
000070 17 2e d6 3e fd 92 27 3e b8 4f 08 3f 88 b3 84 be
       0.4183204 0.16364665 0.5324664 -0.2591822

encoder.cpu_model.net.network.1.weight f4 [32]
000000 3e 2e 78 3f 3f 5a 83 3f 04 1c 76 3f 26 94 76 3f
       0.9694556 1.0261916 0.961365 0.96319807
000010 b4 b0 79 3f 8d 39 80 3f c9 0f 7d 3f 4d 1f 82 3f
       0.9753525 1.0017563 0.9885221 1.0165802
000020 c0 f8 7b 3f f9 64 7a 3f c2 9e 81 3f 35 b0 78 3f
       0.9842644 0.9781032 1.0126574 0.9714387
000030 c8 dd 7d 3f 76 4c 7c 3f 4d e6 87 3f ab 3c 89 3f
       0.99166536 0.9855417 1.0617157 1.0721639
000040 bc b0 83 3f 89 c4 86 3f 7e 33 82 3f ec 05 7f 3f
       1.028831 1.0528728 1.0171964 0.9961841
000050 65 08 82 3f 87 04 80 3f 28 35 7f 3f 0f 26 80 3f
       1.0158812 1.0001382 0.99690485 1.0011615
000060 1d 88 7f 3f 18 2e 7c 3f 0e 12 7b 3f 81 9d 82 3f
       0.9981707 0.98507833 0.98074424 1.0204316
000070 48 f7 81 3f 53 1c 83 3f 93 0e 7c 3f fc 1b 86 3f
       1.0153589 1.0243019 0.9845974 1.047729

encoder.cpu_model.net.network.1.bias f4 [32]
000000 b1 e3 02 bd ba c6 6a 3b d6 64 f1 bb da fe 3b bd
       -0.031955425 0.0035824017 -0.007366757 -0.045897342
000010 80 9f 27 bc ac 77 c6 bc 31 11 a1 bc 04 da 96 3a
       -0.010230899 -0.024226986 -0.019661518 0.0011509066
000020 7b fb ec bc a7 a6 2c bc 17 c3 7a bb 6d 44 ae bc
       -0.028928509 -0.01053778 -0.0038263255 -0.021272862
000030 09 02 a8 bc 33 5b ea bc 29 92 63 ba c9 c8 18 3d
       -0.020508783 -0.02860794 -0.00086811424 0.03730086
000040 51 43 13 3c 88 3c 81 bc eb ec f5 bc f5 24 62 bc
       0.008988217 -0.015775934 -0.030020198 -0.013802757
000050 39 e8 4c bb d5 82 cf bc ca 09 ef bb 7f a3 89 bc
       -0.0031266345 -0.02533094 -0.007294868 -0.016801594
000060 8d 5b 8d bb 22 25 a4 bc 6e 94 92 bc 50 fc ea ba
       -0.004313892 -0.020037238 -0.017893042 -0.0017927978
000070 64 10 26 3d c1 4f 74 bc 5e 5b 37 bc da ae 82 bc
       0.040542975 -0.014911593 -0.011191217 -0.015952516

encoder.cpu_model.net.network.1.running_mean f4 [32]
000000 ef 99 89 c3 45 19 5f 43 bd ea dd 42 51 67 81 c2
       -275.2026 223.09871 110.95847 -64.70179
000010 4a 9f 49 42 da c7 8b c2 f6 bf d0 c2 05 fa 4c c3
       50.405556 -69.890335 -104.37492 -204.97664
000020 71 d5 ce c2 03 d0 e5 42 d2 dd 64 42 82 d3 1c c2
       -103.41688 114.90627 57.21662 -39.20655
000030 eb 3d aa 41 f0 29 8d c3 4a f3 fd c2 bd d7 1d c3
       21.280233 -282.32764 -126.975174 -157.84273
000040 1e c5 4a 43 78 a1 8b 43 88 5f 68 43 65 18 23 c2
       202.76999 279.26147 232.37317 -40.773823
000050 cc c0 7b 43 2c a5 2b c2 d7 82 0d 43 e5 41 20 c3
       251.75311 -42.9113 141.5111 -160.2574
000060 41 9e ae 42 b8 fc a8 c2 80 49 8d c2 86 ed 57 c3
       87.30909 -84.49359 -70.643555 -215.92783
000070 83 40 1e c2 fb 77 87 c3 d2 5e 9e 42 4c 5d 59 c3
       -39.563 -270.93735 79.185196 -217.36444

encoder.cpu_model.net.network.1.running_var f4 [32]
000000 13 b9 af 48 b6 4e 68 48 70 d4 7b 47 a1 4f d4 46
       359880.6 237882.84 64468.438 27175.814
000010 a7 bc 81 46 ba f7 d7 46 33 68 6d 47 2b 7c 56 48
       16606.326 27643.863 60776.2 219632.67
000020 58 f0 61 47 32 4b 84 47 f2 e6 0b 47 3a ea 92 46
       57840.344 67734.39 35814.945 18805.113
000030 60 0e d8 46 53 01 b9 48 82 28 b8 47 45 53 f5 47
       27655.188 378890.6 94289.016 125606.54
000040 d7 22 42 48 95 f6 b9 48 46 27 80 48 56 28 f0 46
       198795.36 380852.66 262458.2 30740.168
000050 e4 f0 95 48 ec 14 f0 46 58 f5 e9 47 70 86 f3 47
       307079.12 30730.46 119786.69 124684.875
000060 53 70 6c 47 bb e2 2e 47 5c 17 23 47 72 91 6d 48
       60528.324 44770.73 41751.36 243269.78
000070 ac 7b 49 46 b1 d9 ac 48 e5 82 31 47 91 69 5b 48
       12894.918 353997.53 45442.895 224678.27

encoder.cpu_model.net.network.4.weight f4 [64, 32, 3]
000000 50 69 f3 bc e5 27 1a 3d b4 d0 cb 3d 53 26 0b bd
       -0.029713303 0.037635703 0.09951916 -0.033972096
000010 a4 cd 24 bd 86 73 b0 bb ac 0c 9f 3b a6 af 1c 3d
       -0.040235177 -0.005384865 0.0048538055 0.03825345
000020 34 d9 8e 3d f5 c5 4e 3d ef fd 43 3d 47 6d 81 3d
       0.06975022 0.050481755 0.04784959 0.06319671
000030 b5 a5 93 3d 6f 29 5a bd 97 cc c7 3d 9f 97 2e bd
       0.072093405 -0.05326217 0.09755819 -0.042625066
000040 25 ec 53 3d 6a 26 e5 3d fe b4 96 bb 8f d5 c0 3d
       0.051738877 0.111889675 -0.0045992127 0.09415733
000050 ce b4 8b bc f6 dd e8 3d e0 5c 03 3e 4a e7 df 3c
       -0.017053988 0.11370461 0.12828398 0.027331967
000060 de 57 7f bc e3 e1 00 3d e2 b1 0e 3d 4d f5 3b bb
       -0.015584914 0.031465422 0.03483761 -0.0028680146
000070 ff 17 1a 3d 25 91 80 3d 1b 83 b1 3d c0 ea bd 3d
       0.03762054 0.06277684 0.086675845 0.09273291
000080 cd b4 a5 bd d0 76 75 3c c3 da 1d 3d fa 22 a4 3d
       -0.08091126 0.01498194 0.038538706 0.08014484
000090 d1 bf 7e bd 74 67 88 bd 4c 8a 8d 3d 01 43 f7 3d
       -0.06219465 -0.06660357 0.06911144 0.12073327
0000a0 02 45 7c bd 6f bb 0a 3d c4 a2 01 3e 6a 10 a1 bd
       -0.06158925 0.033870157 0.12659746 -0.07864459
0000b0 1b c3 99 3d 20 32 1b 3e 6a 12 79 3d 8e 35 0e bd
       0.075079165 0.1515584 0.060808577 -0.034719042
0000c0 53 b8 5f bd 7e 79 0a bd 0f 14 b4 bd 17 1a b1 bd
       -0.054619145 -0.03380727 -0.087928884 -0.08647554
0000d0 60 7c 89 3d 5d 62 ce bd 47 78 07 3c 23 a8 f2 3c
       0.06713176 -0.10077355 0.008268422 0.02962119
0000e0 e3 17 a5 bd db 71 cd 3d e4 a8 0d 3e 4b 28 02 3e
       -0.08061197 0.10031482 0.13833958 0.12710683
0000f0 aa d8 a7 3d d9 16 48 3d aa 41 c8 bd f5 08 d6 3d
       0.08195622 0.048849914 -0.097781494 0.10450927
000100 75 6c 16 3e 4c aa 87 bd 3a bf 90 bc 5b 61 98 bc
       0.1468981 -0.066242784 -0.017669309 -0.01860111
000110 89 b5 90 39 f9 c2 4b bb e4 02 e5 3d f2 ba e8 3c
       0.00027601075 -0.0031091555 0.11182192 0.028409455
000120 59 c4 9b 3d 7f 19 01 bd 33 02 f8 3c 9d 9d 28 bc
       0.0760581 -0.031518456 0.030274486 -0.010291484
000130 7f 31 95 3d b9 f2 34 bd 33 a4 19 3d 04 cd 42 3b
       0.07284831 -0.04417679 0.03751011 0.002972425
000140 4a 06 db 3d 42 0b bb 3d 3f f7 66 3c b1 54 09 3e
       0.10694559 0.09133007 0.014097034 0.13411213
000150 75 09 57 3d 32 b5 36 3d 9c 74 cc 3b 14 ba 66 bc
       0.052499253 0.044606395 0.006239487 -0.01408245
000160 af 48 d6 bc 10 9f e4 3d fa 5d 86 bd 43 67 cf 3c
       -0.026157705 0.11163151 -0.06560893 0.025317794
000170 54 35 f0 bc 77 65 18 3d dd 63 27 3d 89 86 b6 3c
       -0.029322304 0.03720614 0.04086672 0.022280948
000180 4c 4f dc 3c 20 6b bf bd 33 89 80 bc c8 8e 6a 3d
       0.02689328 -0.09346604 -0.015690422 0.057265073
000190 e1 7e 1b bd 41 73 f2 3c 21 1c d8 bd de 13 be bd
       -0.037962798 0.029595973 -0.1055224 -0.09281133
0001a0 f5 61 44 bd b7 2a ac 3d 50 01 73 3c ce f6 a6 bb
       -0.04794498 0.08406585 0.014831856 -0.0050953394
0001b0 84 17 a1 bd f2 8a 85 bd 3c e3 7a bd 71 6a 2a bc
       -0.078658134 -0.06520642 -0.061251864 -0.010401354
0001c0 21 ae ed 3d f5 66 87 3d f4 8a a0 bd e6 b8 21 3b
       0.11605478 0.06611434 -0.07839003 0.0024676858
0001d0 c0 70 a0 3d 92 c1 94 3d 0b b1 8e bd d1 f0 bb 3a
       0.07834005 0.07263483 -0.06967362 0.0014338737
0001e0 57 5a a7 3d 15 02 bb bd 47 0c af 3d a8 28 14 bd
       0.08171528 -0.091312565 0.085472636 -0.036171585
0001f0 43 af 9f 3c 91 b1 8a bd 09 1a a1 3c 78 85 12 bd
       0.019492751 -0.06772149 0.019665735 -0.035771817
000200 98 ec 64 bd 5d 3d 57 bd 0c 01 81 3c 54 47 4d 3d
       -0.055889696 -0.052548755 0.01574757 0.050116852
000210 f1 d6 66 3c 37 c2 6e 3d 12 c5 ac 3d bc d8 87 3b
       0.014089332 0.058290686 0.08436026 0.00414571
000220 f6 8f ac 3d db ac a2 bd fd 1e 3f 3c 1e 18 19 3c
       0.08425896 -0.07943126 0.011665103 0.009344129
000230 23 81 b4 3c 1c b3 65 bc 32 80 14 bc 25 bd c2 bb
       0.022034233 -0.014019754 -0.009063767 -0.005942958
000240 c9 8e d7 bd da 45 dc bc d5 82 d4 bd 97 f8 a2 bd
       -0.10525281 -0.026888777 -0.10376517 -0.07957571
000250 ab 23 af bd c3 4c 9c bc 0d ea f1 bd 8f 7f ca bd
       -0.08551725 -0.019079572 -0.1181222 -0.09887611
000260 da fb 1f bc 02 0d 17 bc fa 9f 02 3c 82 d1 56 3c
       -0.009764636 -0.00921941 0.007972712 0.013111474
000270 d4 90 8d 3d 28 f8 42 bd 48 59 da bd 3e 68 84 bd
       0.069123894 -0.04759994 -0.1066156 -0.06465195
000280 40 bd 9f bd d1 5e b2 3c 96 3f 71 bc dc 30 88 3b
       -0.077997684 0.021773728 -0.014724633 0.004156215
000290 22 fe 32 3d e2 95 4d 3d c4 6e 51 3a e9 0d fa bc
       0.04369939 0.050191768 0.00079892226 -0.030524211
0002a0 9d 3a 76 bd 30 15 92 bc 37 17 0c bd 34 63 5f bc
       -0.06011449 -0.017832369 -0.034201827 -0.013634492
0002b0 a6 2a 21 3c ee c5 df 3d c5 09 41 3b ec db e1 3c
       0.009836828 0.10926424 0.0029455286 0.027570687
0002c0 60 07 5c bd 21 08 90 bd 05 5a 85 bd f7 59 76 3b
       -0.05371797 -0.070328005 -0.065113105 0.0037590244
0002d0 d6 d4 a5 bd d2 ce bc bc 2a ec 29 bd 43 37 c7 bd
       -0.08097236 -0.023047838 -0.04148499 -0.09727337
0002e0 00 66 cb 3d fd 1e 6c bd fb 22 f0 bd 26 6b e1 bb
       0.09931564 -0.05764674 -0.11725422 -0.006879228
0002f0 75 a6 15 3d 68 b5 aa bd aa e0 13 3d 46 3b 20 3c
       0.0365357 -0.08335382 0.03610293 0.009779757
000300 9f ec 61 bd 9d f4 da 3c 05 35 ca bd fa 9d b1 3b
       -0.0551573 0.026727969 -0.09873394 0.0054204436
000310 77 e1 94 3d ac 68 2b bc ad 22 b9 3b 0a 62 1e bd
       0.072695665 -0.010461967 0.0056498856 -0.038667716
000320 57 52 25 3d b2 46 90 bd 7e ba 0b bd 8b 5e 8f 3c
       0.04036173 -0.07044734 -0.0341134 0.017501136
000330 0e 63 0a bd c2 74 b0 3d 47 4f d9 3c 33 92 7f bd
       -0.033785872 0.0861602 0.02652706 -0.062395286
000340 a4 e1 b4 bc 3c 49 22 be 31 dc 4f 3c 4a fa f5 bd
       -0.02208025 -0.15848249 0.012686775 -0.120106295
000350 44 d0 10 be ca 78 86 bd 59 e7 de bd e7 c9 e7 bd
       -0.14141947 -0.065660074 -0.1088397 -0.11317807
000360 3f be c1 3c 6f 23 ae bd 8a 39 14 bc 4d 60 c9 3c
       0.023650287 -0.08502852 -0.0090469215 0.024582053
000370 c1 18 50 bc 64 66 f6 bc 73 61 a3 bc 7c 08 94 bd
       -0.012701214 -0.03007812 -0.019943928 -0.07228181
000380 da bc a6 bd 0d 62 ff bd 98 d9 ed bd b6 51 10 bd
       -0.08141489 -0.124698736 -0.11613768 -0.035234176
000390 65 62 b8 3b 7c 79 73 bd f4 a4 c9 bd b3 c0 a8 bd
       0.005626964 -0.05944203 -0.098459154 -0.082398795
0003a0 c7 e5 95 3d 92 f6 f5 bd 2a e0 c1 3c 2b f8 0c 3d
       0.07319217 -0.1200992 0.02366646 0.03441636
0003b0 d4 fa 13 bc 25 da 45 bd fc 52 ab 3d 16 ed 44 be
       -0.00903197 -0.048303742 0.083654374 -0.19231066
0003c0 62 78 44 3d ed 2f 43 bd 20 6b 5a bc 1c 47 5d bd
       0.04796637 -0.047653127 -0.013331205 -0.054022893
0003d0 dc c5 cc bd 93 bb 1c 3c e3 12 94 3d ae d4 bd bd
       -0.09998676 0.009566206 0.07230165 -0.09269081
0003e0 b9 07 f5 bd 19 59 a0 bd 48 29 87 bd 4a be d5 bd
       -0.119643636 -0.07829494 -0.06599671 -0.104366854
0003f0 fd dd b3 3b ef 34 e6 3c 89 21 11 bd 23 ef 1a 3d
       0.0054891095 0.028101413 -0.035432372 0.037825715

encoder.cpu_model.net.network.4.bias f4 [64]
000000 d1 66 f7 3d e3 49 8f 3c 2b 28 a5 bd 9f 2a a5 3c
       0.120801575 0.017491287 -0.08064302 0.020161925
000010 1c 0c ab bd ac be fa 3d b1 0e b9 bc d6 cb a5 3d
       -0.08351919 0.12243399 -0.022590013 0.08095519
000020 05 11 8b bc 05 c4 57 3c 28 b3 b2 3d 43 7f 74 3d
       -0.016975889 0.013169293 0.087255776 0.05969168
000030 65 58 a6 bb 81 9b ce 3c a2 93 20 bd dd ff 72 3c
       -0.0050764554 0.025220634 -0.039203294 0.01483151
000040 de 86 9d 39 ba e7 6e 3d 6c bf ca 3d cc 33 12 bb
       0.00030045857 0.05832646 0.09899792 -0.0022308705
000050 81 58 1a 3d fb 11 2d 3d fa ca b0 3d da 9d 68 3d
       0.03768206 0.042253476 0.08632465 0.056791164
000060 46 b0 c4 bd 3d 92 c0 bd d9 8b ef 3c 9f 6e 2c 3d
       -0.09603934 -0.09402893 0.02924149 0.042097684
000070 0f 0d c3 3b e4 ee f0 3c d2 bc 09 3c fb 80 bb 3d
       0.0059524844 0.029410787 0.008406835 0.091554604
000080 97 e5 16 bd 8e 40 89 3d fe 83 9c 3d 51 52 d0 bd
       -0.036840048 0.06701766 0.07642363 -0.101719506
000090 6a 87 7c 3d 18 8c 26 bd 98 40 03 3c be 3e 9d 3d
       0.06165258 -0.040660948 0.008011006 0.07677983
0000a0 5e 41 83 bc 41 07 68 bd 73 6f 2a 3d 38 44 c6 3d
       -0.01602238 -0.056647543 0.041610193 0.096809804
0000b0 45 a0 9e 3d d7 c2 43 bc d4 c7 01 3d 63 81 92 bd
       0.07745413 -0.011948309 0.03168471 -0.07153585
0000c0 45 2f a0 bc 2c e6 5d bd 1c 32 93 3d be d1 92 bb
       -0.01955379 -0.054174587 0.07187292 -0.0044805696
0000d0 bf 8b 48 bc af 37 91 ba 69 5a bd bc ca a5 4c 3c
       -0.012240349 -0.0011079217 -0.0231144 0.012490699
0000e0 ec 5d 56 3c 71 e3 8d 3c 92 99 96 bd 92 64 08 3c
       0.013083916 0.017320367 -0.0735351 0.008324759
0000f0 08 03 aa bb e0 71 78 3d 36 aa 20 bd 4e 22 8a 3d
       -0.0051883496 0.060655475 -0.039224826 0.06744824

encoder.cpu_model.net.network.5.weight f4 [64]
000000 15 c8 7f 3f 38 cc 73 3f 7f 9c 84 3f 4a 2b 74 3f
       0.99914676 0.9523349 1.0360259 0.95378554
000010 fe 17 89 3f 5e 2b 83 3f f6 5f 7e 3f d6 ed 82 3f
       1.0710447 1.024761 0.99365175 1.0228832
000020 39 e9 7f 3f b4 4e 77 3f df 6d 7f 3f 94 15 75 3f
       0.99965245 0.96604466 0.99777025 0.9573605
000030 22 6e 81 3f 3a 49 8a 3f 40 3f 83 3f 0b 46 8a 3f
       1.0111735 1.0803597 1.0253677 1.0802625
000040 86 90 91 3f 8c 8a 7a 3f fb 78 80 3f 4b 18 7c 3f
       1.137223 0.97867656 1.003692 0.9847457
000050 78 4d 7d 3f ad a8 8b 3f 16 d7 7c 3f 39 f5 84 3f
       0.9894633 1.0910851 0.98765695 1.0387336
000060 8b 0d 7b 3f 6f f9 7f 3f 6f 4b 7a 3f dd e5 7d 3f
       0.9806754 0.9998998 0.9777135 0.9917887
000070 36 e8 74 3f 3e 17 7c 3f 56 b1 6f 3f 3f 64 8d 3f
       0.95666826 0.98472965 0.9362997 1.1046218
000080 3a 70 83 3f ae 5a 80 3f cb c7 7b 3f 42 72 77 3f
       1.0268624 1.0027673 0.98351735 0.9665872
000090 04 cc 80 3f a7 31 85 3f de de 77 3f fc 72 74 3f
       1.0062261 1.0405778 0.96824443 0.9548795
0000a0 72 cb 82 3f 43 9c 80 3f 81 2a 7d 3f 8c e6 7f 3f
       1.0218337 1.0047687 0.9889298 0.9996116
0000b0 ee 6c 78 3f 8f aa 94 3f c6 a8 82 3f a3 8f 81 3f
       0.97041214 1.161455 1.0207756 1.012196
0000c0 f2 4e 80 3f 21 4c 8a 3f cc 84 7b 3f e2 14 83 3f
       1.0024092 1.0804483 0.98249507 1.0240748
0000d0 b5 b1 85 3f 16 15 89 3f 8e cf 93 3f c2 75 74 3f
       1.0444857 1.070956 1.1547716 0.95492184
0000e0 b1 65 81 3f ef 48 80 3f 85 d6 7f 3f 67 8d 81 3f
       1.0109159 1.0022258 0.99936706 1.0121278
0000f0 1b ae 75 3f af ea 76 3f 58 ea 7d 3f ee ee 79 3f
       0.9596879 0.9645185 0.99185705 0.976302

encoder.cpu_model.net.network.5.bias f4 [64]
000000 04 1d 89 bc e6 49 96 bd 9a c4 8f 3c f7 6a 08 bd
       -0.016737469 -0.07338314 0.017549802 -0.033305135
000010 f6 60 c6 bb 40 76 b4 bc 89 5c 57 bc 39 cc 7c 3d
       -0.006054039 -0.022029042 -0.013144621 0.0617182
000020 5c 9f d6 bb c4 73 95 bc d2 53 4c 3c 27 70 78 bd
       -0.006549759 -0.018243678 0.012471156 -0.06065383
000030 bd f0 db 3c 17 ae 5a 3c 81 ee c6 bc bd d7 ee 3c
       0.026848191 0.01334717 -0.02428365 0.029155606
000040 16 c0 a2 3c 2e 4d 61 bb c9 0f 97 bc 95 dc 00 bc
       0.019866984 -0.0034378278 -0.018440144 -0.007865091
000050 89 25 a2 3b f8 93 bb 3c 12 9c 75 3b e0 9a 09 3b
       0.004948322 0.022897705 0.0037477058 0.0020996854
000060 a2 78 86 3b 05 27 f1 3c 87 1d 30 bc 8c 16 a5 3c
       0.004103736 0.029437551 -0.010749227 0.020152353
000070 2d cd 83 bc bc cf bf bc e6 71 9b bc 2f 61 a8 3d
       -0.016089046 -0.023414485 -0.01897521 0.08221661
000080 34 1b 63 3c 0d 4b a9 bc 5d d8 10 3c 7e 28 67 bc
       0.013861466 -0.02066567 0.0088406475 -0.014108775
000090 3e cf da bc 6f e2 08 bd 87 c8 19 3c 26 3f 9b bc
       -0.026710149 -0.03341907 0.009386188 -0.01895101
0000a0 fa 02 a8 bc 0e 52 31 3c 9b 21 a0 bc 29 b9 44 3c
       -0.020509232 0.010822786 -0.019547274 0.012007036
0000b0 0a 93 12 bc e9 fe 36 3c 80 57 58 bc 6e f4 26 3d
       -0.00894619 0.011169174 -0.013204455 0.04076045
0000c0 50 65 be ba 66 3b c0 3c 8e 57 2e bd f9 94 13 bd
       -0.0014526043 0.023465823 -0.042563967 -0.036030743
0000d0 2a ef a0 3c 92 f8 0b bb d6 aa f3 3c a7 6f 03 bd
       0.019645292 -0.0021357876 0.029744547 -0.0320889
0000e0 18 20 0b 3d bf 7b 2d bd 5c 9b 7e 3c 70 5b 2d 3d
       0.033966154 -0.04235434 0.01553997 0.04232353
0000f0 af ad 47 bd 58 37 84 bd c7 46 5b bc e0 28 26 3c
       -0.048749622 -0.064558685 -0.013383574 0.010141581
