results/c2d4beb8/model.ckpt (torch_old, 651955 bytes, 90 tensors)

encoder.latency_model.net.network.0.weight f4 [32, 1, 3]
000000 cc 22 f3 bd 26 5a 30 3d d3 6a 6e 3d 60 98 48 be
       -0.11871871 0.043054722 0.058207344 -0.19589376
000010 f2 73 dd 3d 70 b5 dd 3e aa 29 e4 be ad 8f b9 be
       0.108131304 0.43302488 -0.44563037 -0.36242428
000020 7d 76 e7 3e f3 70 dd 3e cd e6 62 be 81 55 ea 3e
       0.45207587 0.43250236 -0.22158356 0.4576836
000030 53 f0 be 3e d0 be 14 3f 57 e0 0f 3f 21 03 05 bf
       0.37292728 0.58103657 0.5620169 -0.519579
000040 72 fe 19 3e 62 da d2 3c 42 09 32 3e 87 d4 d2 bc
       0.1503847 0.025738899 0.17386344 -0.025736107
000050 17 54 b7 3e 9f 25 14 be a2 6b 10 3f 25 e1 b1 be
       0.35806343 -0.14467476 0.56414235 -0.34742084
000060 96 aa f9 bd 1a f0 54 bc 38 52 99 ba fc f5 a6 be
       -0.1219074 -0.012996698 -0.0011697477 -0.32609546
000070 2c e9 e9 3e 73 37 b7 be aa 51 87 3e 0c 2d 0e be
       0.4568571 -0.35784492 0.26429492 -0.13884372
000080 25 57 ad 3e 62 e6 e9 be e9 ae c7 3e 83 d6 a3 3e
       0.33855549 -0.4568358 0.39000633 0.31999597
000090 28 c3 2b 3d 33 ca 55 3e 22 f5 0c 3f b4 07 b5 3e
       0.041934162 0.20877914 0.55061543 0.3535744
0000a0 50 d2 b4 be 0e 8c 8a 3e c7 d4 b5 bd 03 ff c7 be
       -0.35316706 0.27059978 -0.08878475 -0.39061746
0000b0 af 91 3c be 77 9b 8f be 48 3d 72 3d bc 48 e9 bd
       -0.18414949 -0.28048298 0.059140474 -0.11390826
0000c0 4b 4a 9b be c2 34 03 3f 78 55 a0 be bd 14 f2 be
       -0.3033012 0.5125238 -0.31315207 -0.47281447
0000d0 e8 05 ef be 8e 23 de 3e 8a 3c 6e 3d 3c dc fa be
       -0.46684194 0.433865 0.058163203 -0.4899615
0000e0 9f 91 da 3e ff a8 c7 be 0a 80 f9 bc 58 d9 d3 3e
       0.42689225 -0.3899612 -0.030456562 0.41376758
0000f0 76 75 fb 3d 9b 0b 71 be 9a c8 c4 3d f7 f5 9b be
       0.12278263 -0.23539583 0.09608574 -0.30461094
000100 d0 f2 48 3d ab 8b 74 3e 43 43 c6 3e fa 81 b3 be
       0.04905969 0.23881404 0.38723192 -0.35060102
000110 2b 0a 03 3f 42 24 a9 3e a6 fe 17 be 02 9f 21 be
       0.5118739 0.33035475 -0.14843234 -0.15783313
000120 19 37 35 be 61 30 10 3f e1 32 c9 be 33 90 02 3f
       -0.176968 0.5632382 -0.3929663 0.5100128
000130 db 59 91 3e 1d cd 8d 3e 83 60 12 3f 72 bb 03 be
       0.28388867 0.27695552 0.57178515 -0.12864473
000140 13 39 8b 3e 25 68 a1 3e 3a 47 cb be 4e 65 83 be
       0.27191982 0.31524768 -0.3970278 -0.25663227
000150 e5 42 e0 bd 5b fa 93 3e 39 ac bb 3e b7 96 7f be
       -0.10950259 0.28901944 0.36654833 -0.24959837
000160 91 7a e3 3e f1 cf 8b 3e 6d c7 f5 be 02 03 bc 3e
       0.44429448 0.27307084 -0.48003712 0.36721045
000170 f4 0f a5 3e a9 b1 a8 be 56 0a d2 3e 05 77 72 be
       0.32238734 -0.32948044 0.4102351 -0.23678215

encoder.latency_model.net.network.0.bias f4 [32]
000000 79 46 79 be 58 37 0b 3f 10 e0 ea 3e 68 c7 df be
       -0.2434329 0.5438132 0.4587407 -0.43706822
000010 96 3a 01 be 58 83 91 3e 80 65 2b 3e 71 5d 1f 3d
       -0.12620005 0.2842052 0.16737938 0.038907472
000020 91 7f ca 3c 51 c6 fe 3d 0a f7 92 be f5 94 05 3f
       0.024719032 0.124401696 -0.287041 0.52180415
000030 9a d7 f7 be 1f 3b a1 be 74 98 75 3e 01 82 c3 be
       -0.48406678 -0.31490418 0.23983938 -0.38185123
000040 2a 64 74 3d 7a ae 09 3e 86 ed d6 3e 88 ae d6 be
       0.059665836 0.13445464 0.4197809 -0.41930032
000050 7f 8f 75 3d bf e6 aa 3e ce 32 58 bd b3 6b 47 bb
       0.0599513 0.3337917 -0.052782826 -0.0030429184
000060 62 00 ea 3d 66 2a 15 3e 91 d4 bf 3e 9e 5e 0b bf
       0.11425854 0.14566955 0.37466863 -0.5444125
000070 94 99 81 3e 46 0f f3 3e 0e 06 03 bf 4a fd e9 be
       0.25312483 0.4747259 -0.51181114 -0.45701057

encoder.latency_model.net.network.1.weight f4 [32]
000000 d5 5a 7e 3f a8 52 78 3f 19 00 84 3f 97 d9 75 3f
       0.9935735 0.97001123 1.031253 0.9603514
000010 b5 a1 7d 3f 87 d4 81 3f e2 ea 7d 3f 6f 8f 72 3f
       0.9907487 1.0142983 0.9918653 0.9475011
000020 e9 39 82 3f da 8c 7e 3f ff c8 7e 3f af 1d 77 3f
       1.0173923 0.9943367 0.99525446 0.9652967
000030 c1 ac 7f 3f c2 73 77 3f 81 b4 80 3f 17 95 80 3f
       0.99872977 0.9666101 1.0055085 1.0045499
000040 5a fc 7d 3f 7d 4f 80 3f 82 4b 84 3f 1e 09 80 3f
       0.9921318 1.0024258 1.0335543 1.0002782
000050 91 b5 86 3f 85 88 79 3f 7f f0 7b 3f 73 81 7e 3f
       1.052416 0.9747394 0.9841384 0.99416274
000060 a4 f0 85 3f 65 db 7a 3f a9 ab 80 3f f3 28 7f 3f
       1.0464063 0.9799102 1.0052387 0.9967186
000070 09 e9 77 3f 9b fe 79 3f 71 cf 81 3f 2f 8f 7c 3f
       0.9683996 0.9765412 1.0141431 0.9865598

encoder.latency_model.net.network.1.bias f4 [32]
000000 9d 37 36 bc 5f 15 57 3d c8 13 e4 bc e3 61 66 3d
       -0.011121658 0.052510615 -0.027841464 0.056245696
000010 38 d7 8a bd 26 68 1d bd 56 7b 72 bd 23 a8 31 3c
       -0.06779331 -0.0384294 -0.059199654 0.01084331
000020 a8 71 38 bd b4 fa be 3d ba e1 81 3d 2f a3 2b 3d
       -0.045030266 0.093251616 0.06341882 0.04190367
000030 77 15 4a 3d 23 16 ab bd 75 12 68 bd 32 a2 62 bd
       0.049336877 -0.083538316 -0.056658227 -0.055330463
000040 2a ff 97 bc 8b 33 7c 3d a3 01 81 bb f6 7e c8 bb
       -0.018554289 0.061572593 -0.0039369627 -0.0061186505
000050 65 0f 3d bc bd c3 a5 bb 56 88 64 3d 48 18 21 bc
       -0.011539315 -0.005058734 0.055794083 -0.009832449
000060 17 69 2c 3b 4c 11 08 bd 8b f7 85 3d 93 a0 84 3d
       0.0026307756 -0.03321962 0.06541356 0.064759396
000070 5c 13 40 3d 62 66 53 3d 6e fd ce bd 24 2e e0 bc
       0.046893463 0.05161131 -0.101069316 -0.027365752

encoder.latency_model.net.network.1.running_mean f4 [32]
000000 57 02 d6 c3 58 6d 0d 46 32 e8 11 c6 3a e5 87 46
       -428.01828 9051.336 -9338.049 17394.613
000010 86 73 1a 47 3c c0 0a c6 af a8 4f 46 0d 71 ef 44
       39539.523 -8880.059 13290.171 1915.5328
000020 ae 7c 5b c5 b6 e7 bd c5 c6 1a 3c 46 da c6 cb 45
       -3511.7925 -6076.964 12038.693 6520.8564
000030 8a 2e a3 46 aa 73 e3 45 87 8c 86 c6 da 8c 06 c6
       20887.27 7278.458 -17222.264 -8611.213
000040 03 16 2a c5 a7 2c 51 c6 a9 e7 4d c3 d5 75 72 c3
       -2721.3757 -13387.163 -205.90492 -242.46028
000050 a4 79 d9 c3 4b 0c e2 c3 62 88 5f 46 e0 e8 c9 43
       -434.95032 -452.09604 14306.096 403.81934
000060 e6 be 68 c3 97 86 da 46 aa e7 90 46 73 f3 0d c6
       -232.7457 27971.295 18547.832 -9084.862
000070 79 9c 5d 46 19 7f 3c 46 bc e5 b1 45 dd 05 7c c5
       14183.118 12063.774 5692.717 -4032.3665

encoder.latency_model.net.network.1.running_var f4 [32]
000000 f1 d6 bf 4d 11 e5 8a 50 91 3e bd 50 70 b8 4b 51
       4.0231683e+08 1.8642143e+10 2.5399953e+10 5.4685794e+10
000010 d7 c4 80 52 36 95 83 50 3f 6d ea 50 cb 3b ac 4f
       2.7652912e+11 1.7660752e+10 3.1464225e+10 5.7791995e+09
000020 be b6 0a 4f f2 13 17 50 3e 1d c3 50 ce 46 6c 50
       2.327232e+09 1.0138667e+10 2.6187788e+10 1.5856253e+10
000030 31 f7 93 51 6f ed 2d 50 84 61 47 51 d2 a0 49 50
       7.943842e+10 1.1672075e+10 5.352091e+10 1.353104e+10
000040 c3 28 a6 4f 9f 95 1e 51 df 63 99 4f 3f 85 cf 4f
       5.5753784e+09 4.256969e+10 5.1469184e+09 6.9632323e+09
000050 46 21 50 4e 3e b5 41 4f c5 1d 11 51 3b c5 30 4f
       8.729604e+08 3.2498806e+09 3.8954357e+10 2.9657157e+09
000060 de 90 a0 4f 25 87 00 52 d6 d2 67 51 9e 79 93 50
       5.387697e+09 1.3800579e+11 6.2229668e+10 1.9793768e+10
000070 8d fa 0e 51 d2 4c e4 50 54 52 55 50 fe f2 ad 4f
       3.8380556e+10 3.0641918e+10 1.431577e+10 5.836766e+09

encoder.latency_model.net.network.4.weight f4 [64, 32, 3]
000000 94 fa ca bc df 53 93 3d f8 2c 81 bc 20 b7 a7 bd
       -0.024777688 0.071937315 -0.015768513 -0.08189225
000010 ca bb 4a bd 83 3a 4f bd d1 23 c0 3d d0 70 c8 3c
       -0.049495496 -0.05059291 0.093818314 0.024467856
000020 29 df 75 3d f2 ba 88 3d 0c b1 8e bd e7 1f 98 3d
       0.060027275 0.06676282 -0.06967363 0.0742796
000030 94 a1 81 bd 60 dd 9a 3d 58 fe 81 3d af 55 b7 bc
       -0.06329647 0.07561755 0.0634734 -0.022379724
000040 95 44 20 3d 3c 6f 9d bc de b1 ba bd 1d 35 25 3d
       0.039127905 -0.01921808 -0.09115957 0.040333856
000050 62 4a ff 3c 24 be c2 bd 62 68 a5 bd e0 38 00 bd
       0.031163398 -0.09508923 -0.0807655 -0.03130424
000060 42 c3 db 3d ec 81 c6 3d b7 58 ae bd 88 6b 97 bd
       0.10730602 0.096927494 -0.08513015 -0.07393557
000070 a3 b6 94 bd ce c7 0f 3c 57 d1 97 3d 55 40 c2 bd
       -0.07261398 0.0087756645 0.07412975 -0.094849266
000080 3a 9d 07 3c 9c 24 b5 bd 42 4f 6e 3a 42 fb be bd
       0.008277232 -0.08844873 0.000909079 -0.093252674
000090 d3 9d 34 bd 83 be 98 3d c2 98 62 3d 2e 4c e3 3c
       -0.044095825 0.07458212 0.055321462 0.027746286
0000a0 7a 63 be bd c6 fe 9c bd 3b 1b 16 bd de 2f f5 3d
       -0.092963174 -0.07665782 -0.036647063 0.119720206
0000b0 bc 8c 89 3d 5b a2 0f 3e a1 6e ad 3d 8d 3e fd bd
       0.06716296 0.14026777 0.084683664 -0.12365446
0000c0 70 3e c8 3d 5e 16 98 bc ff bf a0 bc 36 d6 eb 3d
       0.09777534 -0.018565353 -0.0196228 0.11515467
0000d0 27 6b 2a 3c c1 51 b4 3c ee 1d a5 3d de b2 db bd
       0.010401524 0.02201164 0.08062349 -0.107274756
0000e0 f3 7d 67 bd a8 69 8a 3d 45 c0 b5 3c fe f1 7e bb
       -0.0565166 0.067584336 0.022186408 -0.0038901563
0000f0 f6 02 d5 bd b8 69 4b 3d ce 4c 31 3c aa 12 53 bd
       -0.104009554 0.049661368 0.010821534 -0.05153147
000100 35 23 94 bb 35 ba 8e 3d 97 4d 93 3d 4e 38 a8 bd
       -0.0045207986 0.0696911 0.071925335 -0.08213864
000110 23 8b c7 3d cb 56 03 bd b7 fa 2a 3d 6e 3d 55 bd
       0.09743335 -0.032065194 0.041743007 -0.052060537
000120 b8 ef 84 3d dc 5a bd 3d ce d3 a3 3d 3c 01 b0 3c
       0.06491035 0.09245846 0.07999383 0.021484964
000130 27 88 90 bd e1 fd 0c 3d 03 10 05 be 03 c6 e0 bd
       -0.07057219 0.034421805 -0.12994389 -0.10975268
000140 77 c5 e6 3d 1d 00 36 bd 9c 66 f9 3a 39 c4 a4 3d
       0.11268132 -0.0444337 0.0019027772 0.08045239
000150 50 46 c1 bd 00 6a a0 3c bf 81 00 bd e8 d6 22 bd
       -0.09437239 0.019581795 -0.031373736 -0.03975573
000160 74 88 09 3d 58 22 03 bd 64 b7 3b 3a 24 a4 a3 bd
       0.033577397 -0.032015175 0.0007160811 -0.07990292
000170 53 dc a5 3c 8e 3b 5d 3c c6 81 aa bd 22 72 fe 3c
       0.02024666 0.0135029685 -0.083255336 0.031060282
000180 2f b9 4f bd 55 49 d1 3d 46 e7 6e 3d de 80 cf 3d
       -0.050713714 0.10219065 0.05832603 0.10132001
000190 07 70 df bc c0 f4 d0 3d 77 91 7e bd a4 7b 97 3d
       -0.027275098 0.10202932 -0.062150445 0.073966295
0001a0 cc 0d cb 3c 13 f0 fa ba b6 16 c2 3d 4a fa b8 bc
       0.024786852 -0.0019145034 0.09476988 -0.022580285
0001b0 f7 d7 a8 3d 35 e7 d6 bc b0 e9 ba bd 9b c7 14 3c
       0.08244317 -0.026233295 -0.091266036 0.009080793
0001c0 68 07 4c 3d 04 d7 df 3b 4e 7b f5 bc b7 1f 89 3d
       0.04981175 0.006831052 -0.029966023 0.06695502
0001d0 59 22 5f 3d e1 c0 94 3d 2d a1 89 bd 40 ea 91 3d
       0.054476116 0.07263351 -0.06720195 0.07124758
0001e0 8a d2 91 3d 6d b5 0a be 1f a2 73 3d f4 8b c1 bd
       0.07120235 -0.13545771 0.059480783 -0.09450522
0001f0 72 62 31 bd 56 a8 8b 3d 25 7c 04 3b 04 97 cf bc
       -0.043306775 0.06819217 0.0020215597 -0.025340565
000200 61 fd 8a bd d5 00 52 3d 9f 2e 1b bc 7d 80 ce 3d
       -0.067866094 0.051270325 -0.009471565 0.10083101
000210 61 7e 63 bd 0b 99 82 3d 07 92 34 3d 09 f4 ce 3d
       -0.055540446 0.06376847 0.044084575 0.1010514
000220 67 d9 91 bc 17 f8 31 bd ec 89 f0 ba 5e b5 5e bd
       -0.01780386 -0.043449488 -0.0018351651 -0.054372184
000230 fc ae aa 3d ea 98 52 bb 1d aa 8e bd 7c 7c 74 bd
       0.08334157 -0.00321346 -0.0696604 -0.05968903
000240 a3 ac 3d 3d ac 5c 9c 3c cb 6e c9 bd f5 88 9d 3d
       0.046307217 0.019087158 -0.09835585 0.07692138
000250 ba e3 af bd 1f b2 8d 3d ca 4c b5 3d f7 14 e1 3d
       -0.08588357 0.069187395 0.08852537 0.10990327
000260 d3 0d 86 bc 68 50 b9 bd a5 5e 94 bd bb 74 bb 3d
       -0.016364014 -0.090485394 -0.072446145 0.09153124
000270 bc b6 83 bd 5b 29 e6 3d 96 8f 82 3d 46 ed c5 bb
       -0.06431338 0.11238357 0.06375043 -0.006040248
000280 cf fb 1c 3d 35 b9 67 3d a3 de 9d bd e6 30 8e bc
       0.03832608 0.05657311 -0.0770848 -0.017357301
000290 e9 51 52 bd 8f 24 05 3d 99 60 c7 bc e0 a9 dd 3d
       -0.051347647 0.032505568 -0.024338054 0.10823417
0002a0 27 d6 01 bd ec 4e 9d bd 20 a3 17 bd 25 fe 9b bd
       -0.031698372 -0.07681069 -0.037020802 -0.076168336
0002b0 52 3c 9b 3d 5f 5c d2 3d 86 b9 40 3d 63 23 2f 3d
       0.075798646 0.10271525 0.04705193 0.042758357
0002c0 c0 c5 7b bb 7b f6 b7 bd 70 c4 30 3d 92 59 b2 ba
       -0.0038417429 -0.08982559 0.043156087 -0.0013607016
0002d0 1a 49 1a bd 14 c8 85 bd 49 6a d8 3d a2 57 07 3d
       -0.03766737 -0.065323025 0.10567147 0.033042558
0002e0 1b bb df bc de 5b 33 3d 54 78 c5 bd 73 e9 62 3c
       -0.027310899 0.043788783 -0.096420914 0.013849604
0002f0 ac 78 97 bd 96 18 8e bc 40 e9 a6 bd bd 3d 95 bc
       -0.07396063 -0.017345708 -0.08149958 -0.018217916
000300 f3 52 b6 bd 27 13 bf bc a4 39 cb bd 43 42 08 bd
       -0.0890254 -0.023324562 -0.099231035 -0.033266317
000310 82 82 12 3d 06 c7 87 3c 8f fe 2e bd 5e a2 bf bd
       0.035768993 0.016574394 -0.042723235 -0.09357141
000320 d4 a7 0b bd 9f 20 1f 3d a8 3e 76 bd 76 0b 97 bd
       -0.0340956 0.03884947 -0.060118347 -0.07375233
000330 e5 58 0a 3d b8 06 9b bd 57 58 c8 bc 4e 93 bc bd
       0.033776183 -0.07569641 -0.024456186 -0.09207784
000340 c9 ab b2 bd fb 39 79 3c 44 22 97 3d 3c 3c af 3d
       -0.08724172 0.0152115775 0.073795825 0.08556411
000350 82 15 bc 3d 62 b2 b1 bd d4 80 2b bd a9 fd b6 3c
       0.0918379 -0.08676602 -0.041870907 0.022337751
000360 4e 6c 4e 3d 05 8e 57 bd 6c c1 a7 3d d9 04 9c 3c
       0.050396256 -0.052625675 0.08191189 0.01904528
000370 59 98 90 3d 40 b0 1a bd 2b ce 8d 3d 9d 59 94 bd
       0.07060308 -0.03776574 0.06924089 -0.07243655
000380 57 50 80 3d 91 48 15 bd 40 d2 99 3d 96 59 a1 3d
       0.062653236 -0.036446158 0.07510805 0.07878415
000390 09 60 d2 3d 87 84 a0 3d 71 c7 31 3d d5 1f cd 3d
       0.102722235 0.078377776 0.043403093 0.10015837
0003a0 1e f3 91 bd f5 8b fe 3a df 1f 3e 3d 48 ce ee 3c
       -0.07126449 0.0019420373 0.046417113 0.029151097
0003b0 ab e5 9a 3d 34 4f 8c 3d 45 61 3a 3d 4f 37 79 3c
       0.07563337 0.06851044 0.04550292 0.0152109405
0003c0 97 f4 85 bd 83 ac d9 bd 77 4e 67 bd 49 82 aa bc
       -0.065407924 -0.10628607 -0.056471314 -0.020814078
0003d0 c1 87 d1 3c 6b bc 4f bd 1c 29 11 bc e9 1a a8 bc
       0.025577428 -0.0507168 -0.008859899 -0.020520644
0003e0 83 a4 6d bd e3 4e 4d bc 3a f8 b4 3d ee b7 bc bb
       -0.05801822 -0.012531015 0.08836408 -0.005759231
0003f0 47 2e 11 bd 92 74 3d bd 2b a3 22 bd 1b 8e 69 3d
       -0.035444524 -0.04625375 -0.03970639 0.057020288

encoder.latency_model.net.network.4.bias f4 [64]
000000 14 f5 11 bb c3 b0 8e 3d 78 90 97 bd c6 88 b5 3c
       -0.0022271322 0.06967308 -0.07400602 0.022159945
000010 88 26 c7 3c 8f 90 ab 3d a2 60 df bd a9 30 b9 3c
       0.024310365 0.08377182 -0.10907103 0.02260621
000020 75 35 69 bc 4d 10 8b bd 65 f6 a9 3d 9e f9 a9 3d
       -0.014233937 -0.067902185 0.08298949 0.08299564
000030 6a b6 91 bd a1 f6 50 3d 92 ea 16 3c cc 04 ba bd
       -0.07114871 0.051016454 0.009211199 -0.09082946
000040 6f 63 8a 3d e0 fc 08 3c 2b 0b 09 3c cb 23 ab bd
       0.06757247 0.008361071 0.008364479 -0.08356436
000050 db e6 dd bd a3 4e 44 3d d2 6f 28 3d 41 86 55 3d
       -0.10835048 0.047926556 0.041122265 0.052129988
000060 20 28 c8 3d b7 e6 04 bd 2f cb 99 bd 3d ba 76 3d
       0.09773278 -0.03244659 -0.07509457 0.060236204
000070 e1 93 4e 3d 19 5f b4 bc 5a 2c 72 bd 9d a0 8a bd
       0.050433997 -0.022018002 -0.05912433 -0.06768916
000080 60 85 c8 bd 8c c4 dd bd 62 28 53 bd 10 e4 f9 bd
       -0.09791064 -0.10828504 -0.051552184 -0.122017026
000090 92 6d 27 bd e0 63 85 bd f7 79 73 3d a2 2a 2a 3c
       -0.04087598 -0.0651319 0.059442487 0.010386141
0000a0 a3 17 c9 3c 3a 39 9d 3c ac 19 83 bd 3c 4f 7a bd
       0.024547404 0.019192327 -0.06401381 -0.06111072
0000b0 7f da db 3d cb 63 9d bd 17 45 e7 bc 8d e7 a7 bd
       0.10735034 -0.076850496 -0.028231187 -0.08198462
0000c0 98 03 22 3b 3d 5d 48 bd f8 bb 99 3d 8f de dc 3c
       0.002472138 -0.048917044 0.07506555 0.026961593
0000d0 e2 79 d5 bd 6a 49 44 bd f0 4e 3e bd a8 d9 e1 bc
       -0.10423638 -0.047921576 -0.046462 -0.027569607
0000e0 f9 8f 4b 3d 54 da e1 bd bd 91 46 3d 4e 5d 87 3d
       0.04969785 -0.11027971 0.04847883 0.06609593
0000f0 3d 0f d4 ba 13 f1 e8 bd 24 53 2e bc 11 ab 98 3c
       -0.0016178858 -0.11374106 -0.010639939 0.018636258

encoder.latency_model.net.network.5.weight f4 [64]
000000 ca 3a 7e 3f 03 75 7f 3f a7 61 80 3f 55 db 8a 3f
       0.99308455 0.9978792 1.0029801 1.0848185
000010 de 5e 83 3f 5e b8 82 3f 2a 37 83 3f 13 be 77 3f
       1.0263326 1.0212514 1.025121 0.96774405
000020 b0 24 83 3f ff 75 85 3f 0d 57 84 3f e2 72 88 3f
       1.0245571 1.0426635 1.0339066 1.066006
000030 16 fe 7d 3f 7c 6c 81 3f 1a e3 80 3f ed 63 7f 3f
       0.9921583 1.0111232 1.0069306 0.9976185
000040 20 54 83 3f 30 46 81 3f 4e 02 82 3f a0 54 80 3f
       1.0260048 1.0099545 1.0156953 1.0025826
000050 60 82 7d 3f 43 3a 82 3f 86 e1 7d 3f dc f7 81 3f
       0.9902706 1.017403 0.99172246 1.0153766
000060 53 78 84 3f e7 4e 81 3f d3 2a 83 3f bd 87 87 3f
       1.034922 1.0102204 1.0247444 1.0588299
000070 a2 a7 82 3f 4f 5e 80 3f 9f 84 85 3f db 15 84 3f
       1.0207407 1.0028781 1.0431098 1.031917
000080 1c a9 83 3f 79 92 81 3f 7b a5 82 3f 06 c3 84 3f
       1.0285983 1.0122825 1.0206751 1.0372016
000090 3b 6f 7e 3f e0 34 81 3f 7a 77 85 3f c3 f9 84 3f
       0.99388474 1.0094261 1.0427086 1.0388721
0000a0 ea 05 82 3f 50 96 80 3f ed a7 7b 3f d2 b8 8d 3f
       1.0158055 1.0045872 0.9830311 1.1072028
0000b0 8d 46 81 3f 7f f1 83 3f 4c 40 83 3f d2 04 7f 3f
       1.0099655 1.0308074 1.0253997 0.9961673
0000c0 64 f3 82 3f bd b6 81 3f b6 f1 87 3f 47 cf 7f 3f
       1.0230527 1.0133892 1.0620639 0.99925655
0000d0 0b cd 7e 3f 02 19 81 3f 1f a5 83 3f 5e d0 83 3f
       0.9953162 1.0085757 1.0284766 1.0297964
0000e0 0c 9d 84 3f f3 98 81 3f 4b 91 7f 3f e8 d4 82 3f
       1.0360427 1.0124801 0.99831074 1.0221224
0000f0 e6 4d 89 3f c0 1a 82 3f d2 0e 80 3f 73 b7 83 3f
       1.0726898 1.0164413 1.0004523 1.0290359

encoder.latency_model.net.network.5.bias f4 [64]
000000 31 bb d1 3c e2 1f d9 3c 6d 5b 8f 3c f4 b9 8d 3d
       0.025601955 0.02650446 0.01749965 0.06920233
000010 09 cf b5 3d ad 26 8e 3a 72 ad a6 3d 88 29 23 bc
       0.088773794 0.0010845267 0.08138551 -0.009958632
000020 a4 42 54 bc 04 a6 9f 3d d1 7b 5c 3d aa b8 1f 3d
       -0.0129553415 0.07795337 0.053829018 0.03899447
000030 1b a7 99 3d f3 97 6a 3d 5b 45 86 3d aa 30 95 3d
       0.07502576 0.057273816 0.06556197 0.072846726
000040 c9 81 9e 3d d4 49 83 3d fc a2 85 3d 0d 1f 27 3d
       0.07739598 0.06410566 0.065252274 0.040801097
000050 64 19 99 3d 3a 17 a0 3d fe 78 7a b8 dc 76 81 3d
       0.07475546 0.0781693 -5.9717328e-05 0.06321499
000060 7b 12 4f 3c 92 73 ac 3d 90 d7 99 3d 31 57 6c 3c
       0.012638683 0.08420481 0.075118184 0.014425085
000070 aa b0 b1 3a 51 64 95 3d a3 a2 15 3c 26 fe 82 3d
       0.0013556678 0.072945245 0.009133014 0.06396131
000080 08 5d b7 3d b7 58 42 3d 3d 48 48 3d 6b c5 9f 3d
       0.08953291 0.047447886 0.048897017 0.07801326
000090 8d 25 8a bc ad e4 88 3d 85 cd a8 3d 3f b3 11 3d
       -0.016863609 0.066842414 0.08242325 0.035571333
0000a0 20 79 33 3d e1 f4 a8 3c 83 0a ba 3a e0 9e cc 3d
       0.043816686 0.02062458 0.0014193807 0.099912405
0000b0 a7 9f 27 3d e2 3a 72 3d 40 4b 98 3d fb a2 e3 bb
       0.04092374 0.059138186 0.07436228 -0.006946919
0000c0 5e 26 7a 3d fd f5 d5 bc 8d 07 41 bc 7d 14 21 3d
       0.061071746 -0.026118273 -0.011781585 0.03932618
0000d0 1f a7 89 3d ef 1f b7 3d fd 17 47 3d e2 ad 74 3d
       0.06721329 0.08941638 0.04860686 0.05973614
0000e0 ac 54 9e 3d 37 36 9d 3d 86 15 8b 3d 88 34 f4 bc
       0.07730994 0.07676356 0.06791215 -0.029810205
0000f0 c4 54 8c 3d fa 20 bf 3d fc fb ef bc ee 68 98 3d
       0.06852105 0.09332462 -0.02929496 0.07441889

encoder.latency_model.net.network.5.running_mean f4 [64]
000000 06 36 be bc 9f e3 ca 3d 9f dc a0 bd 63 fd 06 bd
       -0.02321912 0.099066965 -0.0785458 -0.032956492
000010 88 78 1f 3d 66 9c 8e 3d 58 10 10 be 51 b4 7c 3c
       0.038933307 0.069634244 -0.14068735 0.01542385
000020 39 77 1d bd 6e 59 d0 bd f2 71 d4 3d 68 20 e6 bc
       -0.038443778 -0.10173307 0.10373296 -0.028091624
000030 1f 4f 40 bd 01 51 81 3d 79 0b b6 3d 36 01 69 bc
       -0.046950456 0.063142784 0.08888907 -0.01422148
000040 bf 78 8c bd 26 5c f0 3a 55 fe 24 3d 49 02 c4 bd
       -0.06858968 0.0018338009 0.040281612 -0.09570748
000050 4b b7 06 bd ab f9 17 3d c9 1b ca 3d 6f 03 af 3d
       -0.032889646 0.037103336 0.09868581 0.08545577
000060 e3 4d 0b bc d8 34 83 bd a9 e7 56 bd 0a 0f 01 3d
       -0.008502456 -0.064065635 -0.052467022 0.031508483
000070 85 41 fb 3c 1f 2a 87 bd 7d e6 16 be 53 41 5e bd
       0.03067089 -0.06599831 -0.14736362 -0.054261517
000080 ac 63 0f be 19 e2 6b bd 96 b3 65 bc 0f ad 1c be
       -0.14002866 -0.05758867 -0.014019867 -0.15300392
000090 1d 21 69 bc 4f 81 18 be b4 18 9b 3d 93 86 dc bc
       -0.014229086 -0.14893077 0.07573071 -0.026919639
0000a0 32 f4 c1 3c d5 62 90 3b 4d dd f7 bd 0d 88 12 be
       0.023676012 0.004406313 -0.12102757 -0.14309712
0000b0 b0 6a c2 3d f7 78 98 3c 70 26 ce bc 7e 4a dd bd
       0.09493005 0.018612368 -0.025164813 -0.10805224
0000c0 9f e1 6c 3d 72 4d c6 bd 2c 1a d8 3c 66 cc 9d 3d
       0.057832357 -0.0968274 0.026379667 0.077050015
0000d0 f4 f6 a5 bd 99 45 f7 bc 9d b6 f8 3b 10 d8 a6 bc
       -0.08103743 -0.030184554 0.0075901286 -0.020366699
0000e0 7d f8 a0 bd 4b ab e2 bd 2d f2 21 3d 00 a4 84 3d
       -0.078598954 -0.11067828 0.039537597 0.06476593
0000f0 7a 49 03 be 8d 56 c6 bd 30 70 e4 3b 85 a5 16 3d
       -0.12820998 -0.09684477 0.0069713816 0.036778945

encoder.latency_model.net.network.5.running_var f4 [64]
000000 14 3a 90 3e d6 9b 53 3e d0 13 04 3e 4b 3e 85 3e
       0.2816931 0.20664915 0.12898183 0.26024088
000010 a3 b4 25 3d 18 1f 71 3e 94 19 d0 3c d8 6f 01 3e
       0.04045547 0.23547018 0.025402822 0.12640321
000020 76 ea 0b 3e d7 a2 36 3e f1 e2 72 3e bb 65 4c 3f
       0.13663658 0.17835556 0.23719384 0.7984273
000030 e0 2e e1 3d fc 00 2c 3e a8 e2 54 3f fd e9 15 3f
       0.10995269 0.1679725 0.8315835 0.5856016
000040 d0 09 9c 3f cf 39 b6 3e d6 c7 59 3e a5 fd 30 3d
       1.2190495 0.3559098 0.21267638 0.043210644
000050 bd 14 f1 3e 3e 56 18 3d 13 7f 15 3f 26 08 fa 3d
       0.47086135 0.037191622 0.58397025 0.122085854
000060 f2 ff 1b 3f da 3a b9 3d 0f 1c 77 3d cc 6c 04 3e
       0.60937417 0.09044428 0.060329493 0.12932128
000070 4a 1b 32 3e 22 d3 42 3e b9 b7 d1 3e 6d ce 47 3e
       0.17393222 0.19025853 0.40960482 0.19512339
000080 59 47 cb 3d c5 6b bb 3d 5f 08 02 3f 66 7f 13 3e
       0.09925718 0.09151415 0.50794023 0.14404067
000090 f1 82 a6 3e ef e3 20 3f 64 4f 85 3d 5a 2a 59 3d
       0.32521775 0.628478 0.06509283 0.053018905
0000a0 4f 52 4e 3e 0a 3c c1 3d 52 ca 57 3e d8 f6 20 3e
       0.20148586 0.0943528 0.21073273 0.15719163
0000b0 83 7a 81 3d f6 28 97 3e 03 c2 d1 3d a4 3d 44 3e
       0.063221954 0.29523438 0.10242083 0.19164139
0000c0 3e 7b 99 3e 48 fc 54 3e c7 e7 21 3e 8c 98 56 3e
       0.2997684 0.20799363 0.15811072 0.2095663
0000d0 4d f9 1c 3e 2e 03 d6 3d 79 54 13 3e 15 68 91 3d
       0.15329476 0.10449825 0.14387693 0.0709993
0000e0 76 16 93 3f a2 68 06 3e 0b b1 d0 3d 30 a3 b7 3e
       1.149123 0.13125852 0.10190018 0.3586669
0000f0 9b 70 0f 3f a8 4d 69 3d 0b 74 f1 3d 7c f4 80 3d
       0.560312 0.056958824 0.117897116 0.06296632

encoder.latency_model.attn_layer.atten_w f4 [20, 64, 1]
000000 8b a6 2a 3e 0a 9f 94 3e 3f 73 6f 3e 98 60 c0 be
       0.16665094 0.29027587 0.23383807 -0.37573695
000010 7f 9a 52 3c 76 29 76 be a5 8d 1e 3e 1f a8 5e bd
       0.012854218 -0.24039254 0.1548372 -0.05435955
000020 34 2a 3e bd f3 fb a1 be bf be fa 3d 5a 24 d7 bd
       -0.046426967 -0.31637534 0.12243413 -0.105049804
000030 38 a0 9b 3c 6e b0 0e 3d 55 ef f1 3c b5 01 f8 3d
       0.018997297 0.034836225 0.029533068 0.121097006
000040 f9 49 b3 bd d5 21 32 bd a5 7c db bd 22 a6 37 3e
       -0.087543435 -0.043489296 -0.107171334 0.17934468
000050 87 2f 37 bd 97 d5 e7 bd 69 f0 83 be 5f 5e 6a 3d
       -0.04472306 -0.11320036 -0.25769356 0.057218906
000060 3f f2 9a be 85 6b 88 be 36 55 6a be 18 fc 11 be
       -0.30262944 -0.2664453 -0.22884068 -0.14256322
000070 ee 27 4a be 7e ed 85 3c 1c ae c1 be 69 0b 77 3d
       -0.19741794 0.016348597 -0.37828147 0.060313616
000080 2e 3b 95 be 4c e1 c3 3e 4d 79 a4 3e c5 6f 9c 3e
       -0.29146713 0.38257825 0.32123795 0.30554023
000090 0e a3 43 be 50 3a df bd d1 06 c5 bd 77 fd 59 3e
       -0.19105169 -0.10899794 -0.09620441 0.21288095
0000a0 23 5e c7 3c e0 43 a9 3d d4 4a 9d bd 94 37 9f 3d
       0.02433688 0.08264899 -0.07680288 0.077742726
0000b0 b6 64 12 be 9e 0a 85 3e 4c 34 20 bc a7 b7 05 3e
       -0.1429623 0.25984663 -0.009778094 0.13058339
0000c0 4c 37 49 3e 87 3e 9f be 85 bc 60 3e e5 64 96 3e
       0.1965 -0.31102392 0.21946914 0.2937385
0000d0 5a ab 0a be da 54 4d be 97 00 a3 3e 80 e9 b9 3e
       -0.13541928 -0.200519 0.31836388 0.3631096
0000e0 29 e5 bb 3d f2 3c 9f bd 8d 72 64 3d 00 3b ce bd
       0.09174568 -0.07775296 0.055773307 -0.10069847
0000f0 bd 32 6d 3e fe ed 5c bd 83 cd 41 3d e1 a5 6f 3d
       0.23163886 -0.053937905 0.047315132 0.058507804
000100 17 99 7f 3e ba 6b 8a be 81 f2 37 3d 28 c3 b0 3d
       0.24960743 -0.27035314 0.044909004 0.08630973
000110 d6 7e 81 be 66 4f 13 3e 0a d8 33 be b0 b7 96 bd
       -0.2529208 0.14385757 -0.17562881 -0.07359254
000120 cc 99 4d 3c 35 90 a1 be c9 5b 2a 3e 46 59 4a be
       0.012548875 -0.31555334 0.16636576 -0.19760618
000130 ac be e4 bd 1e 67 0c 3e f0 b6 e7 3c d0 41 56 be
       -0.1116918 0.13711211 0.028285474 -0.20923543
000140 64 cd fb 3d 26 bb ef 3d 83 ae 2b 3e 6c be 2f be
       0.122950345 0.117056176 0.1676579 -0.17162484
000150 24 7b 55 be c7 55 07 3d 76 67 44 3e 63 4e 61 bd
       -0.20847756 0.033040788 0.19180092 -0.055006396
000160 09 40 d5 3d 4f 27 12 3e cc 96 12 3e b3 11 db bd
       0.10412604 0.14272808 0.14315337 -0.10696735
000170 13 a9 70 be d7 5b 65 bd 7d cd 4b bc b0 e9 8d 3e
       -0.23501997 -0.05599579 -0.012439129 0.27717352
000180 d9 9b 96 bd 84 86 bc bd 55 7d a1 3e 15 18 ab 3e
       -0.07353944 -0.09205344 0.31540933 0.3341681
000190 26 f3 94 3e 1b 90 a3 3d da b4 8d 3b e4 48 25 3e
       0.29091758 0.0798647 0.0043245377 0.16141087
0001a0 c3 d6 8c be e4 cc 8a 3e ae 2e 21 be 54 86 07 bd
       -0.275076 0.27109444 -0.15740463 -0.03308709
0001b0 f2 8c 9d be 86 3e 99 3e 01 b2 ea 3d 91 61 53 be
       -0.30771595 0.29930514 0.11459733 -0.20642687
0001c0 fe 7f 77 3e 7d 9f 93 3e ec 00 1c 3d 44 1a ca 3d
       0.24169919 0.28832617 0.038086817 0.09868291
0001d0 33 80 66 be fb ec b9 3e 6e 25 db 3c b8 2a fc 3d
       -0.22509842 0.36313614 0.026751246 0.123128355
0001e0 61 b3 53 3e 4c 2c 30 be 66 fd c4 bd 21 ba cb 3d
       0.20673896 -0.17204398 -0.096186444 0.09947611
0001f0 91 2e c8 3d d6 c8 36 3e df 19 e5 3d c5 6f 4e 3e
       0.09774507 0.1785005 0.11186575 0.20159824
000200 6c 1d c4 3d 2d 03 0e be 84 e5 dd 3d 87 ca 36 be
       0.09575924 -0.13868399 0.10834792 -0.17850696
000210 57 57 b3 bd aa 16 03 be 53 12 94 3e fb e1 ac 3e
       -0.08756893 -0.12801614 0.2892023 0.3376616
000220 90 f3 99 bd 38 90 17 be f2 f8 34 3e 9b fc cb bc
       -0.07517159 -0.14801109 0.1767309 -0.024900725
000230 c4 76 ec bc 96 42 01 3c 8c 81 3b 3e 85 d1 8b 3d
       -0.028865226 0.0078894105 0.18311137 0.06827072
000240 71 dc 05 bc 04 7f 28 be a1 96 a0 3e 11 88 3a 3d
       -0.008170233 -0.16454703 0.3136492 0.04553992
000250 ec 51 a1 3e 1e 95 92 3c ff 8f ac 3e 2c da b5 3e
       0.31507814 0.01789337 0.3370361 0.35518014
000260 f9 f1 8c bd 6b c5 f6 bd 72 52 1e be 6a ec 25 3e
       -0.0688209 -0.12049373 -0.15461138 0.16203466
000270 3b b4 a6 3c ee 15 64 3c 3b d5 94 be 2c 44 8f 3e
       0.020349612 0.013921244 -0.29068932 0.279817
000280 96 ed 56 3d c6 9a 1c bc c8 34 20 3e a0 5e 5a 3e
       0.052472673 -0.009558385 0.15645134 0.21325159
000290 5e 8f 5d be 48 55 3e be 25 74 b8 3e 5f c1 73 3d
       -0.21636721 -0.1858722 0.3602611 0.059510585
0002a0 a3 be 97 3d 7e 82 48 be 4f a3 77 bd 92 a8 48 be
       0.07409408 -0.19581029 -0.060458478 -0.19595554
0002b0 76 31 79 be e0 5b 47 3d 1a 02 59 bc 3b f6 f9 bc
       -0.24335274 0.048671603 -0.01324513 -0.03051292
0002c0 8e f2 cd 3d ee 3f 3f 3e 37 4d 82 be 8f a3 24 3d
       0.10056029 0.18676731 -0.25449535 0.040195044
0002d0 35 0b 2d bc 8f 81 a7 3e 88 cb 91 3c b9 3d 98 bd
       -0.010561754 0.32716033 0.017797247 -0.07433648
0002e0 d9 9e 85 be 23 a3 b6 3b 3a 5d ef 3d 3f d5 84 3e
       -0.26097754 0.0055736466 0.116877034 0.25943944
0002f0 25 52 af be e3 0c 20 3e ac 53 09 be 23 de e3 3d
       -0.3424236 0.15629916 -0.13410825 0.111263536
000300 90 07 de bd 58 c3 8a 3e 15 2a 44 3e 30 e4 bf be
       -0.10841286 0.2710216 0.19156678 -0.3747878
000310 6c e8 5f be a9 52 8c bc 5d e4 a7 bd d9 e7 3a bd
       -0.21866006 -0.01712926 -0.08197854 -0.045631263
000320 8e a8 c8 3d cf e4 66 3e a1 9b 21 be 52 d3 90 be
       0.09797774 0.22548221 -0.15782024 -0.28286225
000330 03 23 ae bd 71 36 bd 3d e3 89 2f bd 99 95 9b 3e
       -0.08502772 0.092388995 -0.04285611 0.3038757
000340 4e 61 b9 bc 3b e7 1a be aa cc ad 3d 12 f4 b6 3b
       -0.022629406 -0.1512727 0.08486302 0.0055832947
000350 18 11 91 3e da 9e a7 3e 69 7b 8c 3d 5f 4f c8 3d
       0.28333354 0.32738382 0.06859476 0.09780764
000360 74 01 a7 be b5 de f5 bd d1 fb a3 3e 5f 1a 4d 3e
       -0.32618296 -0.120053686 0.32028058 0.20029591
000370 3f d9 26 3d 52 86 45 be dc 20 47 3e 0d 7a 64 3d
       0.040734526 -0.1928952 0.19446129 0.05578046
000380 51 45 81 bb 9f 21 af 39 23 ea b4 3d 8b b5 23 3e
       -0.0039450307 0.0003340365 0.088337205 0.15987222
000390 f9 53 bf bc 6a b4 c4 3d b3 95 64 3d b3 c3 9b be
       -0.023355471 0.09604724 0.055806827 -0.30422744
0003a0 0f bd 8f 3d 24 d0 56 bd 78 06 b9 3d 08 0f c0 3d
       0.07018482 -0.052444592 0.09034437 0.09377867
0003b0 9e 6b 66 3e 0a d7 0c 3e 4e c8 cb bc 60 c2 45 3e
       0.2250199 0.13753906 -0.024875786 0.1931243
0003c0 34 f7 96 3e 7a a4 39 3d 40 b6 73 be 4d 6d 5f bc
       0.29485476 0.045322873 -0.23799992 -0.013636899
0003d0 f7 3e a3 3e d6 e8 29 be d6 1b 5f 3e a4 5d 95 3c
       0.31883976 -0.16592726 0.21787962 0.018233128
0003e0 b3 01 59 be 35 f5 7f be 65 62 64 be d9 5f 3e 3e
       -0.21192054 -0.24995883 -0.2230316 0.1859125
0003f0 bf ed 87 be 29 33 a7 3d a3 77 50 3e 23 32 59 3e
       -0.26548573 0.08164055 0.20358138 0.21210532

encoder.latency_model.attn_layer.atten_bias f4 [20, 1, 1]
000000 3e db 0a 3c 8b 8c b3 3c 7b 16 40 3d 90 e3 06 3d
       0.008475123 0.021917602 0.04689644 0.032931864
000010 25 e4 37 3d cb c3 2e 3d 85 90 26 3d 16 bc 1a 3d
       0.04489531 0.04266719 0.04066517 0.03777703
000020 48 8d 40 3d 1f f3 21 3d cd 1c 60 3d 05 83 46 3d
       0.047009736 0.0395385 0.054714967 0.048464794
000030 6c e1 37 3d 01 e1 45 3d 75 a5 4d 3d 5e 13 55 3d
       0.044892713 0.048310284 0.05020662 0.052020423
000040 2c fb 48 3d e4 f1 80 3d 61 f0 69 3d 60 90 19 3d
       0.04906766 0.06296137 0.05711401 0.037491202

encoder.cpu_model.net.network.0.weight f4 [32, 1, 3]
000000 c5 6a b0 be d4 b7 bf 3e c0 ec ed 3e 1a 6b 29 be
       -0.3445646 0.37444937 0.46469688 -0.16544762
000010 ee 93 a5 3a 35 ed 77 be a4 fc a0 3e 65 d0 bc be
       0.0012632587 -0.24211581 0.3144275 -0.36877742
000020 81 1f b3 3e 21 d8 2e be 99 1d c6 3e 0f 46 f3 3e
       0.34984973 -0.17074634 0.38694456 0.47514388
000030 d1 00 99 3e f6 54 17 3e f7 01 fe 3d c9 65 83 bc
       0.29883435 0.14778504 0.124027185 -0.016039746
000040 4e 15 01 bf 92 3d dc 3e e0 19 df 3e 70 37 4e 3e
       -0.50423133 0.43015724 0.4357443 0.20138335
000050 ce 92 e9 be 50 e8 54 be 79 25 36 3e bc 11 e9 be
       -0.45619816 -0.20791745 0.17787732 -0.45521343
000060 6e ac 92 3d b2 cb bd bd 49 ab 63 be df 5e ac be
       0.071617946 -0.092673674 -0.22233309 -0.3366613
000070 8f 67 0e be 3e 09 a0 3c 6f 4c cf be 95 6b 05 3f
       -0.13906692 0.019535657 -0.40488002 0.5211728
000080 1c 8f fd 3e 26 c1 b4 be d2 02 31 bd d0 94 ec 3e
       0.49523246 -0.3530361 -0.04321558 0.46207285
000090 9d e0 e4 3e bc f1 6f 3e 76 92 2a bd 3d 88 87 be
       0.44702616 0.23432058 -0.041643582 -0.2647113
0000a0 1a d3 ba 3e fa 71 de 3d 6c f6 b4 bd 8c 11 62 bd
       0.36489183 0.10861583 -0.08836064 -0.055192515
0000b0 30 ea b0 3d 43 25 ec be ac 11 d3 3d a6 6a bf 3d
       0.08638418 -0.46122178 0.10306105 0.093465135
0000c0 cc ae 9e be 72 94 ba be a5 fa 78 be 80 04 c3 3e
       -0.30992734 -0.3644138 -0.24314363 0.3808937
0000d0 09 6f 3d 3e 31 b7 09 3f bb d0 17 be 15 8f e3 3d
       0.18499388 0.5379515 -0.14825718 0.11111275
0000e0 dd a6 ad be ab 80 56 be 33 dd 67 3e 01 64 8e be
       -0.3391637 -0.2094752 0.22642975 -0.27810672
0000f0 64 b6 e8 bd 39 f4 f2 3e 4e 98 ca be 05 80 89 be
       -0.11362913 0.47451952 -0.39569324 -0.26855484
000100 f9 a1 a8 be cd 5d fc 3e 4b 70 a3 bc 90 eb 0a 3f
       -0.32936075 0.49290314 -0.019951006 0.5426569
000110 46 8b 11 bc 14 cc 02 bf ad 13 d6 be 17 fa 36 3e
       -0.008883303 -0.5109265 -0.41811886 0.17868839
000120 32 49 cf 3e ad aa a2 be 30 76 9e bd d8 fc 71 3e
       0.4048553 -0.3177084 -0.07737386 0.23631608
000130 f0 c3 e6 be 27 8b 9c be 84 08 00 bf c4 97 75 3e
       -0.45071363 -0.30574915 -0.50012994 0.23983675
000140 58 d1 e9 be 43 d9 b1 3e 39 73 8f 3e 5b b8 50 3e
       -0.4566753 0.3473607 0.28017595 0.20382826
000150 bc 29 76 be 4e 88 5a 3e 50 ad 81 3e 08 32 78 bd
       -0.24039358 0.21341059 0.2532754 -0.06059459
000160 7b bc fe be e6 5a d5 3e 0b 72 a1 3e ee b5 05 bf
       -0.49753174 0.41670913 0.3153232 -0.5223073
000170 81 4c 21 3e 0a 94 4f be 10 a1 1e bf 83 ab 1a bd
       0.1575184 -0.20271316 -0.6196451 -0.037761223

encoder.cpu_model.net.network.0.bias f4 [32]
000000 c1 55 22 3e 8a b8 10 bf ad 43 4d 3e dd 34 a3 3e
       0.15853025 -0.56531584 0.20045348 0.3187627
000010 e7 70 9d be df 9a 03 bf 42 09 0c 3f 4d e0 3b 3d
       -0.307502 -0.5140819 0.54701626 0.045868207
000020 24 0a d7 be 33 66 6d 3e 9e 10 f3 3e 9b f0 bf 3e
       -0.41999924 0.23183517 0.47473615 0.37488255
000030 d3 82 86 b9 ec 6a c4 3d 27 f4 26 be 37 b5 f3 3e
       -0.00025655943 0.09590706 -0.16304074 0.47599193
000040 4c a0 11 bf d0 af c6 be 1e d4 49 b6 a4 35 92 bd
       -0.5688522 -0.3880601 -3.0074802e-06 -0.071391374
000050 f0 b3 8e be 23 45 04 bf 4a 42 e0 be ad 23 87 3e
       -0.27871656 -0.51667994 -0.43800575 0.26394406
000060 1c 63 a9 be 29 86 51 3d 3d 33 a9 bc b9 24 e9 3e
       -0.33083427 0.051153336 -0.020654315 0.4553583
000070 5f 3d 39 3d d5 96 03 3e 55 54 d4 be 14 80 ea 3e
       0.045224544 0.12850507 -0.4147059 0.4580084

encoder.cpu_model.net.network.1.weight f4 [32]
000000 81 44 7f 3f 62 3c 85 3f 66 14 7d 3f c1 a1 7c 3f
       0.99713904 1.0409052 0.9885925 0.98684317
000010 5b b5 82 3f b4 34 7e 3f 8e ec 7c 3f 9c 9a 84 3f
       1.0211595 0.9929917 0.98798454 1.0359683
000020 ca 23 82 3f 66 d6 80 3f 98 97 7e 3f 56 80 80 3f
       1.0167172 1.0065429 0.99450064 1.0039165
000030 c5 b1 7b 3f bb 51 82 3f 91 bb 7c 3f a5 00 81 3f
       0.9831813 1.0181192 0.98723704 1.0078322
000040 20 de 81 3f ca 7e 81 3f e1 d2 84 3f cb 57 81 3f
       1.0145912 1.0116818 1.0376855 1.0104917
000050 75 39 7c 3f 37 d4 7c 3f cc d8 80 3f 2e 36 80 3f
       0.9852517 0.98761314 1.0066161 1.0016534
000060 2a af 76 3f 80 c5 81 3f 6f d1 7d 3f 6f c1 80 3f
       0.9636103 1.0138397 0.99147695 1.0059031
000070 29 a6 7f 3f fe 91 79 3f bf 3c 7b 3f d3 58 80 3f
       0.99862915 0.9748839 0.98139566 1.0027107

encoder.cpu_model.net.network.1.bias f4 [32]
000000 01 3a 04 bd 48 76 50 3c d3 46 78 bc bd 8e 85 bb
       -0.03228188 0.012723513 -0.015153605 -0.0040758536
000010 d7 18 44 3b 3c cf b7 3b 1c e9 f9 bc 48 3d 64 3c
       0.0029922032 0.005609421 -0.030506663 0.013930626
000020 d3 10 48 bb 4b 58 fc ba 61 6b 89 bc ca 44 07 bc
       -0.0030527606 -0.0019252388 -0.016774835 -0.008256147
000030 f2 5e 03 bd 6d f6 25 bb 4f 85 73 b8 b2 d9 c7 3b
       -0.03207297 -0.0025323883 -5.8059868e-05 0.0060989494
000040 58 69 a5 3c 74 05 c3 bc c5 64 83 3c b9 3c bd 3b
       0.020191833 -0.023806311 0.016039262 0.005775061
000050 5c 6c 98 bb 43 f9 bd 3a 85 19 a1 bc 6d 0b 11 bb
       -0.0046515893 0.0014493841 -0.019665489 -0.0022132054
000060 69 1d c5 bb d6 bb 78 3b 04 41 5f 3c dc e9 11 bd
       -0.006015469 0.0037953756 0.013626341 -0.035623416
000070 ea bc 93 bc 2d 1d d8 bc 48 1d 21 bc e4 66 86 bb
       -0.018034417 -0.0263811 -0.009833641 -0.004101621

encoder.cpu_model.net.network.1.running_mean f4 [32]
000000 96 1d 0c 43 cf 94 e6 c2 6f eb a5 42 d2 24 42 43
       140.11557 -115.29064 82.95983 194.14383
000010 8a ec 20 43 31 12 cb c1 da fd 4f 42 68 e5 08 c3
       160.92398 -25.383883 51.997902 -136.89612
000020 c0 b7 87 c2 a5 05 01 c3 87 6b 2d 43 53 d8 92 41
       -67.85889 -129.02205 173.42003 18.355627
000030 f2 d8 34 43 7c a6 67 42 db 3c 83 c1 2a 8c 96 c2
       180.84744 57.912582 -16.404715 -75.27376
000040 48 e4 81 c3 00 e0 9b 43 9f 97 d3 c2 c6 d8 93 c2
       -259.78345 311.75 -105.796135 -73.923386
000050 f7 af 37 c1 ef b6 ed c1 86 4d 0f 43 83 c9 53 c3
       -11.48046 -29.714323 143.30283 -211.78716
000060 ae 1d 56 40 3e b4 12 c3 18 51 4a c3 ab 8a 6b 43
       3.3455615 -146.70407 -202.31677 235.54167
000070 79 f3 7d 42 c8 26 1e c2 20 ee 6d c1 43 8a 72 c3
       63.487766 -39.537872 -14.870636 -242.54008

encoder.cpu_model.net.network.1.running_var f4 [32]
000000 3e 99 dd 47 5e 76 77 47 25 a1 0d 47 b1 b6 3d 48
       113458.484 63350.367 36257.145 194266.77
000010 e4 52 f6 47 96 11 5b 46 4b 61 01 47 3f 5c b4 47
       126117.78 14020.396 33121.293 92344.49
000020 78 bf bc 46 2f 98 a3 47 9a 0d 26 48 f2 30 8b 46
       24159.734 83760.37 170038.4 17816.473
000030 72 5c 20 48 00 37 b1 46 3f 73 02 45 29 f6 09 47
       164209.78 22683.5 2087.203 35318.16
000040 67 2d 9f 48 e8 2a e5 48 7d b6 56 47 e1 49 d7 46
       325995.22 469335.25 54966.49 27556.94
000050 69 f5 f9 45 08 57 a3 46 f3 b4 cf 47 a6 54 62 48
       7998.6763 20907.516 106345.9 231762.6
000060 c3 e6 ff 45 b9 b9 e1 47 41 58 41 48 c9 c3 82 48
       8188.845 115571.445 197985.02 267806.28
000070 df 1f ce 46 60 9f 95 46 89 76 01 46 fe 5c 8f 48
       26383.936 19151.688 8285.634 293607.94

encoder.cpu_model.net.network.4.weight f4 [64, 32, 3]
000000 71 86 bc bd 44 c7 1d bd 74 17 3d bd d8 27 7c 3d
       -0.0920533 -0.038520113 -0.046164945 0.061561435
000010 ee 24 a6 bd fa 24 ff bc cb 98 98 3d 72 4e 16 bd
       -0.081125125 -0.031145561 0.07451018 -0.036695905
000020 68 0f b7 bd 71 34 6e 3d 55 88 c9 bd 1f ae 88 3d
       -0.089384854 0.05815548 -0.098404564 0.06673836
000030 7d 8d 9f bd c3 df 1c bd 25 be c4 bd 0c 4d 91 bd
       -0.077906586 -0.038299333 -0.0960658 -0.07094774
000040 6e 43 91 bd 46 13 be bd 33 28 9b bd 7a 1e 07 3d
       -0.07092939 -0.0928102 -0.07576027 0.03298805
000050 eb c8 9d bd 3a 38 61 bc 80 a0 36 bd d9 d1 9e bd
       -0.07704338 -0.013746316 -0.04458666 -0.07754869
000060 04 6a b7 bb 4d 18 4d 3d 59 6b b2 bd 00 93 b9 bd
       -0.005597355 0.050072003 -0.08711881 -0.09061241
000070 b2 a0 d7 bd 18 0c b7 bd 60 dd c8 3d 64 b1 a0 3d
       -0.10528697 -0.089378536 0.09807849 0.078463346
000080 fe cc 68 bd 49 b3 1d bd 70 16 b6 bd 2f fe 6e 3c
       -0.05683612 -0.038501058 -0.08890998 0.014586969
000090 ef cd 32 bd 1c 21 24 3c d1 98 4f bc 4a c2 75 bd
       -0.043653425 0.0100176595 -0.012670712 -0.05999974
0000a0 01 3a 5a 3d 9f 52 37 3d fa cf 1b 3d 88 0c 9c 3d
       0.053277973 0.044756528 0.03804014 0.07619578
0000b0 15 a1 94 bd eb c1 9a bd 55 6d 9e 3c 1a c6 a0 bd
       -0.072572865 -0.07556518 0.019339243 -0.07850285
0000c0 21 87 db 3d 8e 6f 67 bc ab 28 24 be f3 82 57 bd
       0.10719133 -0.014125718 -0.16031139 -0.052615117
0000d0 ea b0 80 bd d8 80 ca bd db 7e 52 bd 54 fe 31 3b
       -0.06283744 -0.09887856 -0.05139051 0.0027159648
0000e0 b4 c3 af bd d9 96 d8 bc f3 b6 3c bc f9 6d 24 bd
       -0.08582249 -0.026439117 -0.011518228 -0.04014394
0000f0 68 90 00 bd 6e a0 b4 bd 91 dc d1 bd 75 e9 e6 3b
       -0.031387717 -0.08819662 -0.10247148 0.007046873
000100 d2 4f 6d bc fa 3a 9f 3b 59 be b8 3d 22 84 5d bd
       -0.014484363 0.0048593255 0.09020681 -0.05408109
000110 6d b3 ba bd e1 de 1c 3d 67 8b a7 bd b8 05 53 bd
       -0.09116254 0.03829849 -0.08180886 -0.051519126
000120 73 1f c2 bd 91 56 82 ba e6 fd a2 3d e7 45 6e 3d
       -0.09478655 -0.0009944012 0.079585835 0.058172133
000130 54 a6 de bc 6b b5 9c bd b8 1d aa 3d 0c 80 7e 3d
       -0.02717892 -0.0765179 0.0830645 0.062133834
000140 c9 5b 08 be 5c 77 a7 3d f3 36 23 3c a2 0f a8 3d
       -0.13316263 0.08177063 0.009961831 0.08206107
000150 f5 ee 9c 3c 43 fb ec bb 6d 05 b4 bd a3 7a 0e bd
       0.019156912 -0.007232101 -0.087900974 -0.034784924
000160 3b a6 2e bd 73 50 b5 bb 87 ef 97 bc 26 2b 88 bd
       -0.042639 -0.005533272 -0.018546833 -0.06648855
000170 7a 1c bc 3c df 7e 90 3c ba 23 df ba ea cf e6 bc
       0.022962797 0.017638622 -0.0017024197 -0.028175313
000180 95 85 af bd bd 7d 44 bd 45 3f d9 3c 60 3b a9 bd
       -0.085704006 -0.047971476 0.026519427 -0.08263278
000190 c6 a5 8a 3c f9 68 66 bd 40 19 29 3d 80 da f9 bc
       0.01692475 -0.056252453 0.041283846 -0.030499697
0001a0 1f a9 af 3d 23 ee c3 3c 43 88 74 bd 8e 44 0c 3d
       0.08577179 0.023917263 -0.05970026 0.034245066
0001b0 c3 36 b1 3d 91 05 be 3d ec c0 a4 3d 95 47 a3 3d
       0.08653023 0.092784055 0.080446094 0.079726376
0001c0 8f 5d 02 3d 0e 45 5d 3c b3 33 33 3d 72 ac 80 bd
       0.031827506 0.013505233 0.043750476 -0.06282891
0001d0 db 5a 0c bd fd a9 cf 3d 70 07 2f bd ef a8 22 bd
       -0.034266334 0.101398446 -0.042731702 -0.03971189
0001e0 9c 21 9e bd 4e 78 d3 3d a7 c5 27 3d 89 0b 96 3d
       -0.07721254 0.10325681 0.04095998 0.07326419
0001f0 83 94 bd 3d 70 cb df 3d 1e e6 ca bc 12 4b c0 3d
       0.09256842 0.109274745 -0.024767932 0.093893185
000200 2d ca f7 3c 63 23 2e 3c ee 24 7a bd 04 b2 ab bd
       0.030247772 0.010628554 -0.061070375 -0.08383563
000210 eb 2b 4d 3d b3 33 9a bd eb 4d 48 3d fa d0 ae bc
       0.05009071 -0.07529392 0.048902433 -0.021339882
000220 13 99 c0 bd 58 f5 b0 3d ae c9 ec bc 51 58 4e 3d
       -0.094041966 0.086405456 -0.028904762 0.050377194
000230 1b e7 d7 bd 86 a0 5c bc aa 47 2c bd 1f f7 99 3d
       -0.10542127 -0.013466006 -0.04206053 0.07517838
000240 42 23 2b 3d fc cf 35 bd 60 b4 c6 3d 78 68 a5 bd
       0.04178167 -0.044387802 0.097023726 -0.080765665
000250 85 e5 1f 3d 96 56 d8 3c 97 bd 3b 3d 0d 37 b9 bd
       0.039037246 0.026408475 0.045835104 -0.09043703
000260 8b 05 9d bd 7f b2 3a bd 6c 2d 5d 3d fd 6d 18 3d
       -0.07667073 -0.045580383 0.053998396 0.037214268
000270 f0 3a aa 3d 38 ec 45 bd fe ff 67 bd 25 98 7d 3d
       0.08312023 -0.04832098 -0.056640618 0.061912674
000280 e1 cf c7 3d 0c 51 2f 3d 91 13 c5 bd dd 6f 6e 3d
       0.09756447 0.0428019 -0.096228726 0.05821215
000290 a1 2e 86 3d c2 cf d4 3d 41 c1 ca 3c 94 9b c6 bc
       0.065518625 0.10391189 0.024750354 -0.024244107
0002a0 be 7e bc bc 2f e6 0c 3c ad 2c cb 3c 09 fb 5f bc
       -0.023009654 0.008599802 0.024801577 -0.013670691
0002b0 14 63 e6 bb a8 43 11 3d f7 58 0b bd 06 91 50 3d
       -0.007030854 0.035464913 -0.03402039 0.050919555
0002c0 a7 40 dc bc 62 2d 69 3c c0 de 55 3d d6 34 ad bd
       -0.026886297 0.0142320115 0.052214384 -0.08457343
0002d0 34 3a 17 bc e5 31 ba 3d 03 0f ae bd f9 c1 ab 3d
       -0.009230185 0.09091548 -0.08498957 0.08386607
0002e0 40 20 05 3d 96 7a 0b bd 22 91 5b bd 11 b5 7f bb
       0.03250146 -0.034052454 -0.053605206 -0.0039017836
0002f0 57 dd 8e 3d 0b 52 94 bd 8e 6f 9c 3c 81 47 95 bc
       0.06975811 -0.07242211 0.019096162 -0.018222572
000300 94 28 92 3c 6a b0 f6 bc c4 8f dd 3d 71 62 c7 bd
       0.017841615 -0.030113418 0.10818437 -0.09735573
000310 be c0 d2 39 d2 74 4c 3c 30 e4 0b 3d 2d 7a de 3d
       0.00040197925 0.012479024 0.034153163 0.10863147
000320 6d 34 8b bd b2 25 c3 bc 2f 82 72 3d 15 f2 2c 3d
       -0.06797109 -0.023821685 0.059206184 0.042223055
000330 e8 1e 86 bd d9 2a aa 3d 91 1c 9e 3d 7a 81 74 bd
       -0.06548864 0.08308954 0.07720292 -0.05969379
000340 99 73 af 3d b8 48 43 3c 4b b5 ab 3d 64 fc a3 bd
       0.085669704 0.011919193 0.08384188 -0.08007124
000350 bb 26 98 3d 91 3e 69 3d 5c ca a9 bc 8d 4d 9f bd
       0.07429262 0.056944434 -0.020726375 -0.077784635
000360 dc b4 86 bb 61 70 e0 3c 53 b6 89 3d 08 cb 7f 3d
       -0.0041109156 0.027397336 0.06724229 0.062449485
000370 a0 b0 41 3c 98 f2 a7 3d 8b a9 0f 3d 51 1a 56 3d
       0.011821896 0.08200568 0.0350738 0.05227119
000380 71 8b a2 3c 86 6e 6c bd 5e b6 9e 3d 1b df 46 3d
       0.019841881 -0.05772259 0.077496275 0.048552614
000390 8f 10 b7 3d ad d4 a2 3d 42 38 a9 bd 69 de 7a 3c
       0.08938705 0.07950721 -0.082626835 0.015311816
0003a0 3c f8 4c 3d fd 91 c7 3d 9c 06 4c bd 6d 08 a5 bd
       0.050041422 0.09744642 -0.04981099 -0.08058248
0003b0 79 3f 29 3b 38 45 0c 3c 21 20 ce 3c d7 9c 95 bd
       0.0025825186 0.008561425 0.025161805 -0.073053055
0003c0 b7 37 98 3d 37 de e7 ba c9 b0 b9 bd 90 cb 91 bd
       0.07432502 -0.0017690127 -0.09066922 -0.071189046
0003d0 4b 8d 10 3c 61 ad 1a 3b b6 2d 7e 3d e5 90 89 bd
       0.008822749 0.0023601877 0.062055312 -0.067170896
0003e0 0f 91 85 bc 63 d0 8c 3d 69 25 27 3d 64 28 66 3d
       -0.01630452 0.06875684 0.04080716 0.056190863
0003f0 d1 e9 ab bd 94 83 60 3b 44 eb d1 3d 36 7e 87 bd
       -0.08394206 0.0034258114 0.102499515 -0.0661587

encoder.cpu_model.net.network.4.bias f4 [64]
000000 97 e2 e3 bc 74 ff ba bd 00 ab b6 bc bb 47 39 3d
       -0.027818007 -0.09130755 -0.022298336 0.045234423
000010 66 77 93 3d ee 5e 67 bd 07 8f 55 3d 9a 10 b7 3d
       0.07200508 -0.056487016 0.052138355 0.08938713
000020 b4 c6 a8 bd 5d 8a de bd 1c fe 61 bd 51 fd bd 3c
       -0.082410246 -0.108662345 -0.05517398 0.02319208
000030 52 00 a7 3c 2f 1c 1d 3d b1 d9 16 bd 01 bb 5a 3d
       0.020385895 0.038356956 -0.0368287 0.053400997
000040 50 d6 4e bc 63 77 cf 3d b4 dc e1 3c 75 d7 75 bd
       -0.012624338 0.10130193 0.02757106 -0.06001993
000050 46 83 2b 3c 0b 1e ae bd bf 40 a5 bd 7a c0 ad bd
       0.01046831 -0.08501824 -0.0806899 -0.084839776
000060 b9 f2 72 3d 2e 03 8c bd 95 54 17 bd f8 fd 44 bd
       0.05931351 -0.06836544 -0.036945898 -0.048093766
000070 c5 4a b0 3b 46 eb 2f 3d 54 97 c2 3d fa 30 a5 3d
       0.005380007 0.042948984 0.0950152 0.08065982
000080 68 17 b1 3d 09 54 e0 bd 6d 38 03 bd 9a 8c 6a bd
       0.086470425 -0.109535284 -0.032036234 -0.057262994
000090 57 85 db 3c ac 70 b0 bd 47 1f 48 bd 17 6d 96 3d
       0.02679698 -0.086152405 -0.048857953 0.07345026
0000a0 45 2f 33 3d 4a e7 fd 3c c7 3f 9b 3d ed 88 de bc
       0.04374625 0.030994076 0.07580524 -0.0271649
0000b0 51 08 48 3c d4 9c 31 bd 40 21 40 3d a2 2e 8e bd
       0.012209014 -0.043362454 0.04690671 -0.06942488
0000c0 98 76 9c bd db ef 57 bb 6d 42 7c 3d 81 af 2a bc
       -0.076398075 -0.0032949361 0.061586786 -0.01041782
0000d0 2d c9 83 3d 5e 40 11 3d cf 98 5b 3d 4b 00 b7 bd
       0.064348556 0.035461776 0.053612527 -0.08935603
0000e0 15 6e e7 3c 78 3c 9b 3c 1d 40 96 3c cf a0 a2 3d
       0.028250733 0.018949732 0.018341118 0.07940828
0000f0 7f 61 65 3c 4c e2 a5 3d 26 d2 4f 3c f7 41 d0 bd
       0.014000296 0.08099803 0.012684381 -0.10168832

encoder.cpu_model.net.network.5.weight f4 [64]
000000 8a 7a 85 3f 0d 6c 7f 3f 12 b3 80 3f db 0c 7c 3f
       1.0428021 0.9977425 1.0054648 0.98457116
000010 8b a8 73 3f 80 1c 80 3f cf bf 84 3f a1 b9 83 3f
       0.9517905 1.0008698 1.0371035 1.0291024
000020 2e 58 83 3f 5a 4c 7e 3f aa 15 81 3f 12 01 83 3f
       1.0261285 0.99335253 1.0084736 1.0234702
000030 e4 4c 7b 3f a6 c2 84 3f a9 6f 77 3f fa cd 7a 3f
       0.981642 1.0371902 0.96654755 0.97970545
000040 4b 01 84 3f fd 6e 85 3f 92 a3 7f 3f 79 37 81 3f
       1.0312895 1.0424496 0.99858963 1.0095054
000050 9c ac 7e 3f e9 52 83 3f 19 92 82 3f 71 89 7e 3f
       0.9948213 1.0259677 1.0200835 0.9942847
000060 16 ba 80 3f ef ff 82 3f 84 8d 80 3f cb 8b 81 3f
       1.0056789 1.0234355 1.0043187 1.0120786
000070 68 ba 7a 3f 6c 87 81 3f 97 9e 87 3f 71 fa 78 3f
       0.97940683 1.0119452 1.0595273 0.97257143
000080 de c9 83 3f 45 27 7f 3f 08 80 7c 3f 9b b9 82 3f
       1.029598 0.99669296 0.9863286 1.0212892
000090 2f 22 82 3f 0d 39 7d 3f ca aa 82 3f 86 04 7c 3f
       1.0166682 0.9891518 1.0208371 0.984444
0000a0 c5 d3 80 3f c8 e2 73 3f 39 75 86 3f 6a 88 81 3f
       1.0064627 0.95267916 1.0504524 1.0119755
0000b0 e0 8d 7d 3f a5 9c 7e 3f 8d 60 7e 3f db e0 7c 3f
       0.9904461 0.9945777 0.99366075 0.987806
0000c0 3b e4 7f 3f e1 b7 81 3f 55 42 81 3f 6f be 80 3f
       0.9995763 1.013424 1.0098368 1.0058116
0000d0 7a 63 7d 3f ef 84 84 3f cd db 7e 3f 80 9a 80 3f
       0.98979914 1.0353068 0.9955414 1.004715
0000e0 74 d0 7e 3f 1e f5 7f 3f 6e cb 7c 3f 97 31 81 3f
       0.99536824 0.99983394 0.9874791 1.0093259
0000f0 18 2f 7f 3f ac f3 80 3f 0d fb 81 3f 7c b7 7a 3f
       0.99681234 1.0074363 1.015474 0.97936225

encoder.cpu_model.net.network.5.bias f4 [64]
000000 3b e4 16 bc 86 17 e3 bc 87 53 a3 bc b8 ee e1 bb
       -0.009209688 -0.027721178 -0.01993729 -0.0068949126
000010 9d 7c 30 bd 9f 42 d5 38 34 47 86 3c 6d ee a5 3c
       -0.04308759 0.000101690406 0.016391374 0.020255292
000020 60 ee e9 3c f8 d6 8d bc 6f 0e a8 bc 72 83 05 bb
       0.028556049 -0.01731442 -0.020514695 -0.0020372537
000030 8a 4d 47 bc 41 3e 92 3c 76 0a 78 bc e8 76 4c 3c
       -0.012164483 0.01785195 -0.015139213 0.012479521
000040 2e 2b f0 3c ef c7 8d 3c d8 72 8d 3b dc 5a cf 3a
       0.029317465 0.01730725 0.004316669 0.0015819925
000050 75 bb bd bb 51 d2 d4 3c 17 5b 70 bb 8e a5 a3 3c
       -0.005790169 0.025979193 -0.0036675388 0.019976404
000060 cf 5f 67 3c 4a 62 51 3c fa 05 0e 3c de f7 4f bc
       0.014121964 0.012779782 0.008668417 -0.0126933735
000070 3e 56 a5 3c 91 fa 93 3c af 7b f6 3c 63 1f 18 bd
       0.020182725 0.018063815 0.030088274 -0.037139308
000080 30 eb 14 3d ad 1b 01 bd 5c 98 5c bc a7 df c6 bb
       0.036357105 -0.031520534 -0.01346406 -0.006069142
000090 51 f1 d7 3a f5 99 b3 3b 63 06 99 bc 06 4b f3 bc
       0.0016475116 0.0054809996 -0.018679803 -0.02969886
0000a0 fd 93 af 3c 92 1b 1e bd 5d e2 42 3d f0 b6 84 ba
       0.021432871 -0.03860051 0.047579158 -0.001012532
0000b0 1a ea f3 bc 8e 57 87 ba 76 1d 7a bc cf db b0 bc
       -0.029774714 -0.0010325776 -0.015265813 -0.021589188
0000c0 e6 63 10 bd 16 8c 05 bd 67 c7 9c bc 02 4e 98 bc
       -0.03525152 -0.0326043 -0.019138051 -0.018591885
0000d0 64 0a 28 bd 15 c0 6e 3c 33 d5 1d bd 80 53 98 bc
       -0.041025534 0.014572163 -0.0385334 -0.018594503
0000e0 00 0e d2 3c 74 f8 83 3c ea 67 5c bc e1 01 d5 bb
       0.025641441 0.016109683 -0.013452509 -0.006500468
0000f0 13 47 84 3c 73 77 fa 3c 8e 3a 17 ba 55 fc 08 bd
       0.016147172 0.030574536 -0.0005768918 -0.033443768
