results/9d2441b4/model.ckpt (torch_old, 651797 bytes, 89 tensors)

encoder.latency_model.net.network.0.weight f4 [32, 1, 3]
000000 a1 5e 0f bf 7a eb ba be 92 e0 3f 3e 69 99 85 bd
       -0.5600377 -0.3650778 0.1873801 -0.06523401
000010 e1 f7 8a be 07 18 b0 3e b0 78 c5 be f8 36 8c 3c
       -0.27142242 0.3439333 -0.3856864 0.017116055
000020 26 37 e0 be 86 49 5e 3e c4 09 29 bf 02 c9 4a bd
       -0.43792075 0.21707734 -0.66030526 -0.049508102
000030 4f 75 00 be 6d bb 82 be 67 3c c7 3e 40 93 aa be
       -0.1254475 -0.2553362 0.3891327 -0.33315468
000040 72 b2 a7 be 92 ef a8 be a2 94 fb 3e 08 bd d0 3e
       -0.3275333 -0.32995278 0.49136835 0.4076922
000050 b0 75 86 3e 2d 2a af be 3b cb 3e 3e 4d c0 d0 be
       0.26261663 -0.34211865 0.18632214 -0.40771714
000060 9e 6d 1b 3e 08 cd f0 bd 8c e3 fc be 58 e0 3d be
       0.15178534 -0.117578566 -0.49392354 -0.18542612
000070 a5 ba 39 be c1 ee 0d be f5 64 25 3f 00 bf 72 3e
       -0.18137605 -0.13860609 0.64607173 0.23705673
000080 2d 6a f4 3e ed 6c 84 be ff ab bc 3d ec dc f7 3e
       0.47737256 -0.25864354 0.09212493 0.48410738
000090 c9 c5 64 3d 5c cc c2 3e 42 94 47 be 8f d1 85 ba
       0.055852685 0.3804654 -0.1949015 -0.0010209548
0000a0 80 70 38 3d 47 9e 66 3e bd e1 83 3e 93 96 39 3e
       0.045029163 0.22521316 0.25758162 0.18123846
0000b0 57 68 20 3e 2b d2 4e 3d 20 b5 18 bf 15 41 20 bd
       0.15664802 0.0504934 -0.59651375 -0.039124567
0000c0 8f d0 d5 ba 62 fb 09 3e 8c ec 85 bd 51 69 e9 bd
       -0.0016312766 0.13474801 -0.06539258 -0.11397041
0000d0 2c 91 cf be eb e6 57 be e9 9c dc be 5d e3 15 bf
       -0.40540445 -0.21084182 -0.43088463 -0.58550054
0000e0 6a 5c a9 be ea 60 1f be 24 11 a6 be b4 82 01 3f
       -0.3307832 -0.15564314 -0.32434952 0.5059006
0000f0 71 0e f7 3e ac 55 11 be 53 7f 7a bd 36 58 f8 be
       0.48253205 -0.14192837 -0.061156582 -0.485048
000100 ef b9 7c be 79 c8 81 be e4 64 dc 3e 81 3b 12 3f
       -0.24680303 -0.2534826 0.43045723 0.57122046
000110 d8 fc 31 3e 96 07 8e be fb 71 e6 bd fc 91 1a be
       0.17381608 -0.27740163 -0.11252209 -0.15094751
000120 55 3d cf be 48 58 ab 3e f7 cf c7 3e 95 30 08 bf
       -0.4047648 0.3346579 0.39025852 -0.5319913
000130 8d 46 f6 be 6c cb 8b 3e 07 35 e2 3e 21 8b 96 3d
       -0.481007 0.27303636 0.44181082 0.073507555
000140 91 eb 07 bf f0 2f 07 3f 2e ec 46 be 56 8a ab be
       -0.5309382 0.5280752 -0.19426033 -0.3350398
000150 5c ad 9d bd 76 51 c5 bd 55 79 41 be 7d 32 6f 3e
       -0.07699081 -0.09634678 -0.18893941 0.23359104
000160 1b d1 1b bf 97 10 bd 3e 1d 79 fb 3c fb 32 16 3f
       -0.60865945 0.3692672 0.0306974 0.5867154
000170 85 d6 e7 3e 21 94 9f 3e db a5 02 be f9 48 de 3e
       0.45280853 0.311677 -0.12758581 0.4341505

encoder.latency_model.net.network.0.bias f4 [32]
000000 74 1d ef bd 4a f1 b1 3e a0 3d 09 bf 27 5f 18 be
       -0.116755396 0.347544 -0.5360966 -0.14880048
000010 cd 7e a4 be 38 1a 1d be 21 e9 c7 3e 70 3c f9 3e
       -0.3212799 -0.15342033 0.3904505 0.48678923
000020 ed 41 db 3e 35 ba c8 bd bd e1 5c be e9 99 23 be
       0.42823735 -0.09801141 -0.21570487 -0.15976681
000030 f4 f5 d1 3b 35 bc c3 3e 81 e3 21 be 7c bc 98 3e
       0.0064074937 0.38229528 -0.15809442 0.29831302
000040 7f e6 b3 be 91 04 35 be f3 f4 d6 3e ce a3 a9 bb
       -0.35136792 -0.17677523 0.41983756 -0.0051769977
000050 ef 48 03 3f 77 4c 00 bf a1 54 cb 3b 2f bd 25 3e
       0.5128316 -0.50116676 0.006205157 0.16185449
000060 cc c3 07 3f 4e bc 0b 3f 3f 59 07 be 30 4a 0c 3f
       0.5303314 0.54584205 -0.13217638 0.548007
000070 3b a8 91 3d e3 f9 8e be b9 5e c1 3e 2f 7c 12 3f
       0.071121655 -0.27925023 0.3776758 0.5722074

encoder.latency_model.net.network.1.weight f4 [32]
000000 e9 4a 82 3f 15 9b 81 3f ab 6a 84 3f 71 b0 82 3f
       1.0179111 1.0125452 1.0345052 1.0210096
000010 71 bb 79 3f 00 ee 85 3f 2f 3e 7f 3f 08 3b 7e 3f
       0.9755164 1.0463257 0.9970426 0.99308825
000020 39 4b 82 3f 26 d6 89 3f 69 70 79 3f f1 52 71 3f
       1.0179206 1.0768478 0.9743715 0.94267184
000030 86 97 7d 3f 0b c3 7f 3f 7c a5 6f 3f 87 8a 82 3f
       0.9905933 0.99906987 0.93611884 1.0198525
000040 2d 07 73 3f f8 95 86 3f 68 32 89 3f f3 c4 73 3f
       0.94932824 1.0514517 1.0718508 0.95222396
000050 6f 6d 70 3f fc 41 8b 3f 97 06 7c 3f e2 49 85 3f
       0.9391698 1.0879512 0.98447555 1.0413172
000060 a6 05 70 3f 9e 56 85 3f f8 77 88 3f ac 94 7f 3f
       0.9375862 1.0417058 1.0661612 0.9983623
000070 a5 aa 88 3f 3a 0b 8a 3f eb 01 6c 3f b0 9c 6e 3f
       1.0677077 1.0784676 0.92190427 0.93207836

encoder.latency_model.net.network.1.bias f4 [32]
000000 04 37 89 ba 33 fb ea b8 8b f7 d7 3b aa 81 c3 bc
       -0.0010468666 -0.00011204779 0.0065907887 -0.02386554
000010 2a ec d8 3b 8d 4a 04 3c 26 6c 40 be 59 d5 d0 bb
       0.00661995 0.008074415 -0.18791255 -0.0063730893
000020 37 19 9c bd ea 12 09 3c 56 51 4a be 93 3f a9 3d
       -0.07621997 0.008366326 -0.1975759 0.08264079
000030 05 5a 53 be d7 a8 a7 3d 06 be 9b 3d d8 9c 8c bd
       -0.20639808 0.081865005 0.076046035 -0.06865853
000040 d6 c5 ff bd bf 2e 99 3c 0c 8f 77 3c b4 59 83 3c
       -0.12488906 0.018699048 0.015109789 0.016033985
000050 c5 7e 85 3d bf 02 e1 3b 63 b3 d0 3d 9e a0 09 3c
       0.0651832 0.0068667824 0.10190465 0.0084001105
000060 79 ca 36 3d 8e 24 84 3a 72 e3 a7 bb 35 a4 02 b9
       0.044626687 0.0010081695 -0.005123549 -0.00012458938
000070 fb a0 7d 3c ef d1 96 ba ba 53 af ba c9 4f 8f 3d
       0.015480275 -0.0011506657 -0.0013376393 0.0699764

encoder.latency_model.net.network.1.running_mean f4 [32]
000000 62 83 5f c6 76 73 70 c0 4f 7a 75 c6 a8 1b 15 c6
       -14304.846 -3.7570472 -15710.577 -9542.914
000010 b4 e6 5b 43 4d 60 96 c6 0d 70 b0 46 45 f4 2b c6
       219.90118 -19248.15 22584.025 -11005.067
000020 32 ed 0b c6 47 71 19 c6 65 e2 ce 46 53 2c be 45
       -8955.299 -9820.319 26481.197 6085.5405
000030 30 dc 96 45 fe f9 a2 45 43 04 35 46 ce 9a 31 c6
       4827.5234 5215.249 11585.065 -11366.701
000040 d6 a3 a9 44 73 2c 5e c6 c1 8c cc c6 54 67 fa 43
       1357.1199 -14219.112 -26182.377 500.80725
000050 0b 2a ac 45 3b 95 95 c6 f8 9c b2 46 96 7c 23 c6
       5509.2554 -19146.615 22862.484 -10463.146
000060 6c 2b c5 45 01 7e 60 c6 92 86 86 c3 a5 69 d9 c0
       6309.4277 -14367.501 -269.05133 -6.794146
000070 8e c6 dc c5 05 d1 93 c2 71 59 a2 46 53 07 3c 46
       -7064.8193 -73.90824 20780.72 12033.831

encoder.latency_model.net.network.1.running_var f4 [32]
000000 0f 97 e0 50 a6 65 d7 4e ba a4 eb 50 78 41 63 50
       3.014397e+10 1.8068815e+09 3.162753e+10 1.5250874e+10
000010 f3 ef 0b 4f 6c 5f 30 51 34 62 74 51 2b 6f 71 50
       2.3477583e+09 4.7344697e+10 6.5601225e+10 1.6202378e+10
000020 86 33 40 50 6d 45 38 50 0c 6f a6 51 ec 14 f6 4f
       1.2898408e+10 1.2366231e+10 8.935345e+10 8.2571325e+09
000030 f1 bf 86 4f be a9 61 4f 1c 25 80 50 ce b6 8c 50
       4.521452e+09 3.7859978e+09 1.7199325e+10 1.8886324e+10
000040 61 22 c3 4d 00 d6 c5 50 e8 c1 a4 51 79 6e 68 4f
       4.0922627e+08 2.655309e+10 8.845348e+10 3.899554e+09
000050 6a 61 b6 4f 4c 1c 2f 51 3c 4b 7e 51 c3 9b 50 50
       6.119675e+09 4.7005876e+10 6.8261495e+10 1.3999476e+10
000060 9a fd 13 50 a9 9f eb 50 61 bd b7 4f b7 f2 99 4f
       9.931483e+09 3.1624874e+10 6.1652833e+09 5.165641e+09
000070 e4 0a c0 4f 67 6b 5b 4f 76 c4 56 51 ef a9 8d 50
       6.4438784e+09 3.681249e+09 5.765119e+10 1.9013794e+10

encoder.latency_model.net.network.4.weight f4 [64, 32, 3]
000000 b9 ff c5 3d 2b 59 8b bd 4d 94 71 bd 21 41 8f bb
       0.09667916 -0.06804117 -0.05897932 -0.0043717776
000010 a6 11 11 3d 74 cd b1 3d 15 5d a6 bc b1 f0 40 3d
       0.03541722 0.08681765 -0.020308057 0.04710454
000020 ca 15 e0 bb 05 9d d1 3d 49 c1 88 bc 1b 7e 4d 3d
       -0.006838535 0.10235027 -0.016693728 0.05016909
000030 00 f9 84 3d 25 15 cc bb 5f be 9c 3c 15 84 cb 3d
       0.064928055 -0.0062281066 0.019133745 0.09937302
000040 48 aa b7 3d 08 23 ba bb 55 39 c0 bd 67 cd b9 3d
       0.089680254 -0.0056804456 -0.09385935 0.090723805
000050 94 e8 a8 bd f4 64 05 bc 04 c2 f8 3d 9d c8 54 bd
       -0.08247486 -0.008141745 0.121463805 -0.051949132
000060 78 f4 f1 bc e5 1e ab bc 42 4a b0 3d 1c 09 8b bb
       -0.029535517 -0.020888755 0.086079136 -0.0042430293
000070 bc 3b 33 bd 6c 6f 90 3b 01 fc ca 3c 08 ab d8 bd
       -0.04375814 0.004407814 0.024778368 -0.105794966
000080 99 75 2f 3a 05 23 a3 3b 7b 3c 62 bd 45 1b 82 3d
       0.00066932436 0.00497854 -0.05523346 0.063528575
000090 b9 25 4d bd 83 4a f2 bd 07 56 88 bc b1 9b 72 3d
       -0.050084803 -0.11830618 -0.016642584 0.05923051
0000a0 70 80 a1 3d c5 df 0d bd 01 26 b4 3d 6a 74 f3 3d
       0.07885826 -0.03463723 0.08796311 0.118874386
0000b0 62 54 8d 3d 97 59 00 3e 6f a5 70 3d 4e 4a 85 3c
       0.0690086 0.12534176 0.05875152 0.016270783
0000c0 8a 25 77 bd 1c 08 bf bd 24 65 80 bd 4b a7 c1 3d
       -0.060338534 -0.093277186 -0.06269291 0.09455737
0000d0 3c 1a d9 bd e7 ae 22 bd 40 f7 c1 3d 0b 7b c9 3d
       -0.10600707 -0.03971758 0.09470987 0.09837922
0000e0 f1 88 c6 bd 8e 8f 6b bd 2e 6f 61 3c 02 50 bc 3d
       -0.09694088 -0.05750995 0.013759417 0.09194948
0000f0 62 be e9 bd cb f6 89 bd 56 c5 0e bd 63 af 2d bc
       -0.11413266 -0.06736525 -0.034856163 -0.0106008975
000100 f9 70 8a 3c 48 87 1e bd 92 2f 9f 3d 83 8e 9a 3d
       0.016899573 -0.038703233 0.07772745 0.07546713
000110 10 4c f9 3c 44 f6 9c bd ca e0 15 bd c7 2f b5 bc
       0.030431777 -0.07664159 -0.03659133 -0.022117509
000120 99 62 9e bd db 95 78 3d 94 78 f0 3d 73 05 52 3d
       -0.0773365 0.06068979 0.117417485 0.051274728
000130 0e 05 c3 bc 97 89 a1 bd 1f 15 89 3c dc 74 99 3d
       -0.023806121 -0.07887571 0.016733704 0.07492992
000140 be 4d ee 3d bb b8 67 3d 8f d9 90 3c ab 65 14 bd
       0.11635922 0.056572657 0.017681865 -0.03622977
000150 85 fa a6 3d d1 f8 c1 3d b4 ca bd bd ce 2f 06 3e
       0.081532516 0.09471286 -0.09267178 0.13104174
000160 68 41 6c bd 4e 87 a6 bd 33 00 e4 3b af 9b bb 3d
       -0.057679564 -0.08131276 0.0069580316 0.09160554
000170 b1 53 a9 3b 4e 54 d8 bc 82 1f 77 3d ea 32 66 3b
       0.0051674475 -0.026407387 0.060332783 0.0035125562
000180 b7 d2 bc 3d b0 0d 1b 3e fc a2 08 bd 96 0a cd bd
       0.09219878 0.1514194 -0.03335856 -0.10011785
000190 2e 4f c3 3d 29 d5 19 bc b5 47 6e bd 07 a5 88 3d
       0.09536587 -0.0093892 -0.058173854 0.066721015
0001a0 cf e9 b8 3c 90 f4 fb bc de 67 6d 3d 70 8d 3e bd
       0.022572426 -0.030756265 0.057960384 -0.046521604
0001b0 16 d1 32 3d ac 8b fc 3c 96 ca 84 bd d6 d7 e0 3d
       0.04365643 0.03082832 -0.06483953 0.109786674
0001c0 ed f8 df 3d 51 fb b5 3d 0a db f5 ba b2 cb 07 3d
       0.10936151 0.088858254 -0.0018757295 0.033153243
0001d0 50 3e b6 3d 51 34 f4 bd 5c e6 7b bd f5 fa 3c bc
       0.08898604 -0.11924041 -0.061498985 -0.011534442
0001e0 b3 dd 56 bc fe e4 51 bc 5e 2e 2f bc 61 bc 13 3c
       -0.013114381 -0.012810944 -0.010692207 0.009017081
0001f0 da 13 08 3e d8 22 3c 3d 83 9f 90 3d 47 0a a2 bd
       0.13288823 0.045931667 0.070616744 -0.079121165
000200 85 ae d8 bd 7a 5e e4 bd b7 52 94 bc 40 06 aa 3c
       -0.10580162 -0.111508325 -0.018105848 0.020754933
000210 3f a0 d2 3c bc 66 82 bd 76 0f 89 bd 44 b8 85 3d
       0.025711177 -0.06367251 -0.06692402 0.065292865
000220 f9 82 f9 3c 3a 9f af 3c d3 d7 ed bd 88 b4 81 3d
       0.03045796 0.02143823 -0.11613431 0.06333262
000230 53 ca 44 bd fc 27 98 3d c4 2d 21 bd de 25 38 bd
       -0.048044514 0.074295014 -0.039350286 -0.044957988
000240 fd 9f c9 bd aa b6 30 3d 90 ec 10 3d af 13 d7 3d
       -0.098449685 0.043142952 0.035381854 0.10501801
000250 5b 02 bd 3d 8d 9c 8b bd e9 29 e7 3a 30 e4 bb bc
       0.09228965 -0.06816969 0.0017636392 -0.022935957
000260 3f ea ee 3d e3 a6 b8 3c 36 db a9 3d d5 48 66 bd
       0.11665773 0.022540515 0.08293764 -0.0562218
000270 a1 a5 da bd 64 35 23 bd ea 2e 2f 3b 9b 6c 24 3d
       -0.106761225 -0.03984584 0.0026730844 0.040142637
000280 fb a2 c6 bb 62 78 e0 3d 23 3a 60 3c 40 53 41 bc
       -0.0060619093 0.10960461 0.013685736 -0.0117996335
000290 d4 aa ab 3d b2 23 9e 3d 1d 17 09 3e 10 78 a3 bd
       0.08382192 0.07721652 0.13387723 -0.079818845
0002a0 bf e2 44 3d e1 8c b7 bd c3 e2 e8 3d cf f5 9c bd
       0.048067804 -0.089624174 0.11371376 -0.07664072
0002b0 ef 32 25 3e b9 e6 91 bd 63 24 c2 bd ec ed 99 bc
       0.16132711 -0.07124085 -0.094795965 -0.018790208
0002c0 38 a8 75 bd db 64 26 3d d8 2d c7 bb 85 19 e1 bc
       -0.05997488 0.040623527 -0.006078463 -0.027477989
0002d0 b6 70 9a 3d b0 0d 0e 3e ce d7 7c 3d 64 d6 23 3d
       0.07541029 0.13872409 0.061729245 0.03999938
0002e0 33 40 bd bc 06 7e ad bd 79 3f c1 bd 53 dd 92 3c
       -0.023101902 -0.08471303 -0.094359346 0.017927801
0002f0 cc 39 b6 bc 1f cd a7 bd 55 c8 87 3c 93 06 e0 bb
       -0.022244357 -0.081934206 0.016575018 -0.006836721
000300 b5 da 1f bd 69 1c fd 3c 35 85 d9 3d 67 02 d4 3d
       -0.039026935 0.030897336 0.1062111 0.10352021
000310 39 df 6a 3d 00 5b 90 3d 5e bb 5e 3b ef 3b e0 bd
       0.057341788 0.07048607 0.0033986191 -0.109489314
000320 60 bc 26 bd 07 97 31 3d 5a 81 ad 3d 18 d9 65 3d
       -0.040706992 0.04335692 0.084719375 0.05611524
000330 81 fa a1 3d 82 7b 13 3d 7c a6 ae 3d e6 46 ae bd
       0.07909108 0.036006458 0.08527848 -0.085096166
000340 31 52 f1 3c 27 f8 a3 3c 72 0b 46 3d f4 23 c0 bc
       0.029458137 0.02001579 0.04835076 -0.023454644
000350 a3 38 94 bd ec 3f 61 3d 7b f0 95 bc 1d 6d 21 bd
       -0.07237365 0.0549926 -0.018303147 -0.0394107
000360 24 1b b5 3c 07 1a 31 3a 2e b2 07 3e b1 c8 a0 3d
       0.022107668 0.00067558925 0.13251564 0.07850779
000370 81 42 a3 3d 73 e9 a8 3c 94 e1 0b 3d 3d 35 6b 3d
       0.07971669 0.02061913 0.034150675 0.05742382
000380 12 27 b0 bd 75 f0 b0 3d f8 e0 c3 3c 1b cd f2 3d
       -0.08601202 0.086396135 0.023910984 0.11855527
000390 3d 77 19 bd 5c 0e ad bd 18 53 12 bd 73 81 d3 bc
       -0.03746723 -0.084500045 -0.035723776 -0.025818562
0003a0 01 e3 a5 3c 93 dd 04 3e 10 69 ca 3c 41 33 95 3c
       0.020249845 0.12975149 0.0247083 0.018212916
0003b0 ed af 26 bd 52 87 06 3e eb 6b 83 3d 30 54 16 3e
       -0.04069512 0.13137558 0.06417068 0.14680552
0003c0 4a 45 f3 3c c8 11 de bd 9b e9 80 bd 02 c1 9b bd
       0.029696126 -0.10843235 -0.06294557 -0.07605173
0003d0 9a db 97 bc c6 d1 c1 3c e7 f2 69 3d 84 62 02 bd
       -0.018537331 0.023659598 0.057116415 -0.031832233
0003e0 06 cf 8d 3d 02 dd 8a bd 2c 1e 52 bd 6d 9b 80 bd
       0.06924252 -0.06780435 -0.051298305 -0.06279645
0003f0 43 2f e1 bd 80 44 0e bd a1 08 b2 3d 77 c1 02 3d
       -0.109953426 -0.034733295 0.08693052 0.031922784

encoder.latency_model.net.network.4.bias f4 [64]
000000 a4 c1 13 be af 87 5c 3d 43 df 55 be 98 14 2c bd
       -0.14429337 0.053840335 -0.20885949 -0.042011827
000010 54 7c 07 be f6 6d 14 be b5 8b 88 be 3a fe 3d bd
       -0.13231021 -0.14495072 -0.26669088 -0.046385027
000020 2c 2a 22 be 11 34 39 3e b8 ac 63 3c e0 cf 6f be
       -0.158364 0.18086268 0.01389616 -0.23419142
000030 0f ea 9d 3c 82 8d b6 3d 8d 20 94 bd 91 5f 2d 3e
       0.019276647 0.08913709 -0.07232771 0.16930987
000040 d9 a4 19 be 46 2c 55 3d fb 2d 34 bd de a8 e5 3c
       -0.1500429 0.052044176 -0.043989163 0.028034624
000050 54 e2 c1 3d a7 d3 df 3c 6f 25 bc 3d 8d a7 42 be
       0.09466997 0.027322603 0.091868274 -0.19009228
000060 f4 69 56 be 9b 86 34 bd 93 06 8c bc d8 bc da 3c
       -0.20938855 -0.044073682 -0.017092979 0.026701376
000070 15 e7 0f bd 47 e9 8f be 55 57 01 be 55 df 36 be
       -0.035132486 -0.28107664 -0.12630971 -0.17858632
000080 48 77 14 be bd ca ab bd c2 27 28 3d 0d a3 ee 3c
       -0.14498627 -0.08388279 0.04105354 0.029130483
000090 62 23 8d bc 06 fc c1 bc a7 c8 69 bd c3 8c ef bd
       -0.017228786 -0.023679744 -0.057076123 -0.1169677
0000a0 1d c1 7b be 79 35 c6 bd 8e cd 5c 3d 2b 61 4c 3d
       -0.24585386 -0.09678168 0.05390697 0.049897354
0000b0 71 40 45 bd c8 0d 54 be b3 3b 1b bc 45 5d cb 3d
       -0.04815716 -0.20708382 -0.009474683 0.09929899
0000c0 87 f3 8d 3c 1d 62 ac bd ed 2a 18 bd a5 76 8a 3d
       0.017328037 -0.08417151 -0.037150312 0.06760911
0000d0 80 6d 20 3d c6 52 c6 bb 22 58 44 be fd e5 e5 bd
       0.039166927 -0.006052348 -0.19174245 -0.112255074
0000e0 85 e2 10 3e b0 7b 0a 3e f4 54 13 3e c1 48 1f be
       0.1414891 0.13523746 0.14387876 -0.15555097
0000f0 77 36 11 be d1 bf e7 3d a7 3f a3 bd 6b 39 3a be
       -0.14180933 0.11315883 -0.07971125 -0.18185966

encoder.latency_model.net.network.5.weight f4 [64]
000000 a7 59 85 3f ae c0 81 3f 2a cf 86 3f 98 b4 80 3f
       1.0417985 1.0136926 1.0531971 1.0055113
000010 8f 36 7c 3f 3c 51 78 3f 53 34 84 3f 53 9a 86 3f
       0.9852075 0.96998954 1.0328468 1.0515846
000020 46 3e 81 3f 7f 5c 8d 3f 53 d6 7f 3f 12 8a 84 3f
       1.0097129 1.1043853 0.9993641 1.0354636
000030 03 19 7f 3f c4 79 7f 3f b2 bf 80 3f ab 97 86 3f
       0.9964754 0.99795175 1.0058501 1.0515035
000040 5d 5e 7c 3f 2e 7e 81 3f 2d d5 81 3f 44 22 86 3f
       0.98581487 1.0116632 1.0143181 1.0479207
000050 2f bf 7b 3f dc dc 82 3f bc 83 89 3f 88 0c 81 3f
       0.983386 1.0223651 1.0743327 1.0081949
000060 30 95 80 3f 46 95 81 3f 82 50 80 3f 2a 35 82 3f
       1.0045528 1.012368 1.0024569 1.0172474
000070 68 9f 82 3f 98 d4 89 3f 39 86 7b 3f 3f 4b 83 3f
       1.0204897 1.0768003 0.9825168 1.0257338
000080 95 27 7b 3f be 0a 82 3f d6 b2 86 3f e1 bb 88 3f
       0.9810727 1.0159528 1.0523326 1.0682336
000090 1f ca 80 3f cd 63 80 3f 8a 9e 86 3f e9 7d 82 3f
       1.0061682 1.0030457 1.0517132 1.0194675
0000a0 0e d8 82 3f 3e 67 7d 3f 69 73 7c 3f b3 43 76 3f
       1.0222185 0.9898566 0.986136 0.9619705
0000b0 84 76 7d 3f 99 a6 82 3f 90 5c 7e 3f 71 1d 83 3f
       0.99008965 1.0207092 0.9935999 1.024336
0000c0 b8 67 80 3f c4 0b 7f 3f 58 fc 82 3f 27 06 7f 3f
       1.0031652 0.9962733 1.0233259 0.9961876
0000d0 df 58 7c 3f 13 c9 85 3f 63 92 87 3f 1f 72 79 3f
       0.98573107 1.0451988 1.0591549 0.9743976
0000e0 28 b9 87 3f d9 b1 86 3f f1 ae 88 3f d3 78 83 3f
       1.060338 1.0523025 1.0678388 1.0271248
0000f0 dd ff 7f 3f 6b 61 89 3f f8 a6 81 3f b1 60 82 3f
       0.9999979 1.0732855 1.012908 1.0185758

encoder.latency_model.net.network.5.bias f4 [64]
000000 a9 04 6f 3d cb 07 1f bd 29 57 ba 3d fb 52 29 3d
       0.058354054 -0.03882579 0.09098656 0.041338902
000010 98 ef 2f 3d 8f 26 95 3d 88 93 a8 3d a0 09 00 bb
       0.042953104 0.07282745 0.08231264 -0.0019536987
000020 6b 0b 86 3d 57 35 22 3d 5a 7a 89 3c b8 ef a6 3d
       0.065451466 0.03960165 0.016781975 0.081511915
000030 69 64 f5 3c 67 c2 fa 3b df 97 9e 3d 53 9a 61 b9
       0.029955106 0.007652569 0.07743811 -0.00021515162
000040 f7 5a 72 3d 62 84 13 3c 1e d8 71 3d df 45 0d 3c
       0.059168782 0.0090037305 0.059043996 0.008622616
000050 a5 6c 9a bc 63 16 d9 bc a5 89 b6 3c c8 70 70 3d
       -0.018850634 -0.026499933 0.02228243 0.058701307
000060 e8 f2 8e 3d 4a 92 41 3d 69 46 88 3d 28 1f 11 bc
       0.069799244 0.047258653 0.06654055 -0.008857526
000070 49 f2 2a bd f2 37 89 3d 86 d1 1e 3d e9 db ad 3d
       -0.041734967 0.06700124 0.038774036 0.0848921
000080 e4 15 84 3d 2b cc 42 3d ad b7 7d bc e4 68 b9 3d
       0.06449488 0.04755799 -0.015485686 0.090532094
000090 0e 6f fd 3c aa 65 5d 3d 68 82 ce 3b 6e f9 95 3d
       0.030936744 0.054052033 0.0063021667 0.073229656
0000a0 b3 8c 90 3d f1 67 73 3d 4e 52 10 bd fc 66 26 3d
       0.07058086 0.059425298 -0.035234742 0.040625557
0000b0 47 ac 98 3d 02 32 82 3d 2d 0a 0b 3d 35 2f 0d bd
       0.07454734 0.063571945 0.03394525 -0.03446885
0000c0 38 92 56 3d 81 df 83 bc ea cf 63 3d 54 28 4c bd
       0.05238554 -0.016097786 0.055618204 -0.049843147
0000d0 65 07 4f 3d 6c e4 02 bc 3e 44 8f 3d 66 13 51 3d
       0.05054416 -0.00798903 0.06995438 0.05104389
0000e0 fa 21 77 3d 04 c8 49 3c 35 b7 b6 3c 9b ed d4 3d
       0.060335137 0.012315754 0.022304157 0.10396882
0000f0 69 2a 8b 3d 4d bd 3b 3a a3 a5 30 3d ad fa 61 3d
       0.067951985 0.0007161692 0.043126713 0.055170704

encoder.latency_model.net.network.5.running_mean f4 [64]
000000 3d 7b b2 bd ca 94 04 3e b1 14 26 be fe 78 93 3d
       -0.08714912 0.12947384 -0.1621883 0.07200812
000010 8f 53 74 bc 23 48 8f bd 84 69 74 be 10 5e 1d be
       -0.0149125 -0.06996181 -0.23868376 -0.15367913
000020 63 48 f1 bd 55 9d 42 3d 06 e4 c8 3d 94 df 3b be
       -0.11781385 0.047513325 0.09809117 -0.18347007
000030 ac ab 13 3e c5 33 45 3e 65 4f 59 bc 5f e9 5f bd
       0.14420956 0.1925803 -0.013263558 -0.05466592
000040 78 f0 0a be 56 e6 c8 bd be 84 82 3d ab 37 79 be
       -0.13568294 -0.09809558 0.06372975 -0.24337642
000050 62 de be 3e cc 0e 6c bd c2 e2 50 bc 0c e4 2c be
       0.3727904 -0.0576313 -0.012749376 -0.16883868
000060 38 13 3a be 00 cf 84 3d 00 2d 29 3e 51 12 b1 bc
       -0.18171394 0.064847946 0.16521072 -0.02161518
000070 16 b9 40 be 3f d6 2c bf 93 36 00 be 82 8b cd be
       -0.18820605 -0.67514414 -0.12520818 -0.401455
000080 33 ed f2 bd 83 51 d1 3d 31 35 d3 bd be ee 41 bd
       -0.118616484 0.10220625 -0.1031288 -0.047346823
000090 bf d5 ae 3d 74 35 d2 3d 9e b9 c8 bd 7c 12 59 bd
       0.085368626 0.102641016 -0.09801029 -0.052996144
0000a0 1a 8c a7 be 07 34 22 be 8b 29 75 3e c6 aa 1b 3e
       -0.32724077 -0.1584016 0.23941629 0.15201864
0000b0 6c 59 d3 3c 0f 25 4d be 1a 5d 6a 3d ff 76 6d bd
       0.025799476 -0.20033668 0.057217695 -0.05797481
0000c0 f4 29 36 3e 60 3d 9f 3d c8 3a 09 bb f1 83 a2 3d
       0.17789441 0.07775378 -0.0020939577 0.07935322
0000d0 30 46 07 3e bb 18 1e be 9a 54 03 be c9 a5 9a 3c
       0.13210368 -0.15439121 -0.12825242 0.01887788
0000e0 5e ad f1 3d f9 2c 08 3d 8e 93 48 bd 03 db 76 be
       0.11800645 0.033246014 -0.048968844 -0.24106984
0000f0 2d e3 ef bd 41 b4 81 3d 37 fd a8 3c ac 69 2b be
       -0.11713252 0.06333209 0.020628555 -0.1673953

encoder.latency_model.net.network.5.running_var f4 [64]
000000 77 f8 9b 3d 08 a0 11 3e 42 89 d1 3d 60 6c 30 3f
       0.0761575 0.14221203 0.10231258 0.6891537
000010 1a 89 e0 3e 65 e7 4a 3e 21 71 56 3e f7 9b 55 3e
       0.438546 0.19814833 0.20941593 0.20860277
000020 be 83 da 3d 3f 4d 7b 3e 1b 1b 0e 3e 63 87 8d 3e
       0.10669659 0.24541186 0.13877527 0.27642354
000030 c3 e3 15 3f c4 5c ae 3e 76 da 4a 3e 20 ed a3 3e
       0.5855066 0.3405515 0.19809899 0.3201685
000040 10 96 17 3e c4 ab 85 3e a9 da 0c 3f a7 40 81 3e
       0.14803338 0.2610761 0.5502115 0.25244638
000050 1a 51 8d 3f 06 26 14 3e 4b 0e d9 3e 83 7e ed 3d
       1.1040375 0.1446763 0.42393717 0.11596396
000060 ec 16 a0 3e aa 98 e1 3e 73 fe eb 3f 1f c7 3a 3e
       0.31267488 0.44061786 1.8437027 0.18240021
000070 7a f3 ca 3e e5 7b a9 3d d5 c6 dc 3e 45 dc 14 3e
       0.39638883 0.08275584 0.43120447 0.14537151
000080 f7 bb 7d 3e cf 16 67 3f ea a8 25 3e 68 c5 34 3e
       0.24778734 0.9026918 0.16177717 0.1765343
000090 0c d8 11 3e ec b9 18 3f fd d8 99 3e cf 35 53 3e
       0.14242572 0.59658694 0.3004836 0.20625995
0000a0 e1 f8 a5 3d 71 5f 1f 3e d0 84 2f 3e d7 c4 58 3f
       0.081041105 0.15563752 0.17140508 0.84675354
0000b0 c7 7e 16 3e 81 a6 6d 3e f0 7e e8 3d 3b 51 fa 3e
       0.14696799 0.23208047 0.113523364 0.488901
0000c0 ca 44 a6 3f 55 9d 05 3f a0 41 20 3e 0b a0 ff 3e
       1.2989743 0.52193195 0.15650034 0.4992679
0000d0 78 41 e3 3e 95 3b e4 3d 85 7f ea 3d ef 69 89 3f
       0.44385886 0.11144177 0.11450104 1.0735453
0000e0 de 49 a7 3e 36 a2 6b 3e 0a 6c 9a 3e cf 5e 84 3e
       0.32673544 0.23011097 0.30160552 0.25853583
0000f0 16 5c 7b 3e 3a c7 0b 3e df d2 69 3d 0f 3e 68 3e
       0.24546847 0.13650218 0.057085868 0.22679923

encoder.latency_model.attn_layer.atten_w f4 [20, 64, 1]
000000 5f 02 8a be 20 0c 10 be a4 99 a1 be a8 dc 0c be
       -0.26954934 -0.14067125 -0.3156253 -0.13756049
000010 5f 4f ee bd c3 ab b1 bd cb ce 97 be 1f f8 b8 3d
       -0.116362326 -0.08675339 -0.29649958 0.090317
000020 25 54 da bd ed 60 94 be 20 3f d2 bd 42 2a 00 be
       -0.106605805 -0.28980199 -0.102659464 -0.1251612
000030 f9 ed 49 bd 15 b8 23 be 7c 03 99 bd 58 77 e9 bd
       -0.049299214 -0.1598819 -0.07471368 -0.11399716
000040 c3 ae 4d bd 25 14 40 bd 81 a9 92 be b4 38 2b be
       -0.050215494 -0.04689421 -0.28644946 -0.1672085
000050 cb 77 9e be 0d a8 a8 3e 3c 28 90 3e 1d e7 09 be
       -0.3095077 0.32940713 0.28155696 -0.13467069
000060 62 bd b7 be 26 94 09 3d cc 5e 35 3d cf 2d 05 3e
       -0.35886675 0.03358855 0.04427986 0.13005756
000070 60 1b 7d be 0c 40 12 3e fc 42 e3 3d 36 06 80 3d
       -0.24717474 0.14282244 0.11096761 0.06251185
000080 25 64 59 be aa 6c 29 be b5 93 97 be a2 59 eb bd
       -0.21229608 -0.16545358 -0.2960488 -0.114917055
000090 9e aa 74 be a4 c3 26 3e 4d ae 0c be 37 de a9 be
       -0.2389321 0.16285568 -0.13738365 -0.3317735
0000a0 63 80 cb bd e2 0b eb 3d 0d 95 59 3e 9e f0 a2 be
       -0.09936597 0.11476876 0.21248265 -0.318242
0000b0 7a ec 5c be d2 3f 15 3e e0 56 9d 3c 57 6e e7 3d
       -0.21574584 0.14575127 0.019206464 0.113003425
0000c0 2b a0 1c be ab a3 34 3e a3 93 58 3d 41 c5 7c 3e
       -0.15295474 0.1764056 0.052875172 0.24684621
0000d0 fd 5f 18 bd e3 2f 1b be 81 86 2e be d6 fb b2 be
       -0.037200917 -0.15154986 -0.17043497 -0.3495776
0000e0 ab 88 9a be 19 d0 27 3e 53 b7 0f 3e bc ad 9c be
       -0.30182394 0.16387977 0.14034776 -0.306013
0000f0 26 92 41 be 8e 07 09 3e 49 09 0e 3e 86 e6 a8 3d
       -0.18903407 0.13381788 0.1387073 0.08247094
000100 8d 4a 33 3d 42 d7 1d 3e 56 04 f4 3c 87 55 ac 3e
       0.04377227 0.15414146 0.029787224 0.33659002
000110 39 5f 1e be 5f 49 70 3c 0d a7 a9 bd 10 46 9b 3d
       -0.15466012 0.0146659305 -0.082838155 0.07581723
000120 e0 34 88 bd 67 ff 18 3e 27 33 6b 3e c7 80 84 be
       -0.0665071 0.14941178 0.22968732 -0.258795
000130 f7 ec 7e be dc 8e 9b 3e 94 ee aa 3d 70 56 8a be
       -0.24895082 0.3038243 0.083462864 -0.27019072
000140 1c 2c 84 3e 5a cd 9b 3d a7 e4 9e 3d eb f3 68 bd
       0.25814903 0.07607527 0.07758456 -0.056873243
000150 96 8d 80 be ad 11 af be 62 57 39 be 96 b3 82 3e
       -0.25108021 -0.34193173 -0.1809974 0.25527638
000160 c8 30 c0 bd 09 7c 4f 3d 3a 87 0d be c0 d8 6c 3e
       -0.09384304 0.0506554 -0.13821116 0.23129559
000170 03 fe de 3d 29 18 2a be 7a 1b 80 3d b3 7b 7c 3d
       0.10888293 -0.16610779 0.06255241 0.061641406
000180 9e 21 c0 3d d8 80 5a 3d 96 93 1c 3e df ee 37 be
       0.09381412 0.05334553 0.15290675 -0.17962216
000190 39 10 ca 3d ad 26 93 3e 59 7b 91 3d f1 94 0c bd
       0.098663755 0.28740445 0.07103605 -0.03432173
0001a0 fa ad a1 be 9d 6c ad 3d 07 11 55 3e 64 a8 7f be
       -0.31578046 0.08467982 0.20807277 -0.2496658
0001b0 2e 84 91 3e 4c f5 94 be 80 e4 1f 3e 4c 91 90 be
       0.28421158 -0.29093397 0.1561451 -0.28235853
0001c0 d7 35 df 3c 3e 09 a6 be 73 8e 78 be ec c6 30 be
       0.027247353 -0.32428926 -0.2427309 -0.17263383
0001d0 aa 4b 5b be fb 84 aa be 0f 1b ad 3e 4d cb 65 be
       -0.21415582 -0.3330458 0.33809707 -0.22440834
0001e0 64 14 3c be 8c 1f 51 be 86 b2 b8 be 01 a1 92 be
       -0.18367153 -0.2042219 -0.36073703 -0.2863846
0001f0 d6 01 9d 3d ef 0e b7 3d 37 52 d6 3d 4a 8d 82 3e
       0.07666366 0.08938395 0.104649 0.2549842
000200 cc c9 55 3e 39 68 51 3d 8f 2d 82 be 1d ef 8e 3e
       0.2087776 0.051124785 -0.25425383 0.27916804
000210 29 ab a1 bd eb 50 41 3d 62 56 97 3d fe 69 ab 3d
       -0.07893974 0.04719631 0.07389523 0.08369826
000220 f9 bf 8d be 8b c7 b3 3c f1 de 31 bd 1a b5 3c be
       -0.27685526 0.021945735 -0.043425504 -0.1842846
000230 27 40 87 be 5f fb 8a 3e 24 a8 9a 3d 2c 38 64 be
       -0.26416132 0.27144906 0.075516015 -0.22287053
000240 1a 93 6d be 95 c4 a4 be ec e2 b2 3d c3 39 5e 3e
       -0.23200646 -0.3218123 0.08734688 0.21701722
000250 1b 71 49 3e 13 08 ab bc 30 70 32 3e 99 93 ec bd
       0.19672053 -0.020877874 0.17425609 -0.115515895
000260 6a ca 0e be f8 e2 7b 3e 2a 42 87 be 12 d8 4f be
       -0.13944402 0.245983 -0.26417667 -0.20297268
000270 d3 d6 2c 3d b2 39 a3 be 3d 57 8b bd cf 0d 85 bd
       0.04219706 -0.31879956 -0.06803749 -0.064967744
000280 34 2b 25 3e c7 b4 80 3e 99 3d cb bb 7f e4 3e be
       0.16129762 0.25137922 -0.0062024114 -0.18641852
000290 53 ca a0 3d 5f 34 81 3e 78 e0 dc 3d 31 f8 a3 be
       0.0785109 0.25235268 0.107850015 -0.32025293
0002a0 82 0f 98 bc 67 b8 43 bd 76 32 8c be df c1 46 be
       -0.018562082 -0.04778328 -0.2738225 -0.19409893
0002b0 6e c1 a2 be 1d c9 6b be de 67 12 bd ef c3 d5 3d
       -0.317882 -0.23025937 -0.035743587 0.10437762
0002c0 c6 84 68 bd 04 de 19 be f4 8a 87 3d 2d 3c 94 3d
       -0.056767248 -0.15026098 0.066183 0.0723804
0002d0 b3 a7 0f 3e e0 f4 8a bc 07 fa 11 be 72 fd 66 3e
       0.14028816 -0.016962469 -0.14255534 0.22557619
0002e0 b8 8c 43 be fb 2e 02 be 0b 9e b6 be ec 5c 96 bd
       -0.19096649 -0.12713234 -0.35667452 -0.07341942
0002f0 30 c9 32 3e f7 1d ae be 8f 54 8b be 95 6d 03 3e
       0.1745956 -0.34007236 -0.2721295 0.12834771
000300 cf d1 35 3e b9 cc 01 bc 31 a0 3c 3e 1b cd e0 3d
       0.17755817 -0.007922345 0.18420483 0.10976621
000310 49 06 21 3e 40 07 44 3e 6c 1f 7f be 8d f3 8a 3e
       0.15725054 0.1914339 -0.2491433 0.2713894
000320 ff 01 56 be 32 e6 a4 be 75 25 32 3c df c9 11 3e
       -0.20899199 -0.32206875 0.010873188 0.14237164
000330 6f ff 5c bc d0 4e 83 3c 69 c5 0b be 87 47 a1 be
       -0.0134886345 0.016028792 -0.13649525 -0.31499884
000340 6b 7e 30 3e 7a 56 b1 be df 07 2e be 28 23 5b bd
       0.17235725 -0.3463629 -0.1699519 -0.053500324
000350 6e 25 55 be f8 e2 85 3e 1e 68 eb bd 73 97 b4 bd
       -0.2081506 0.26149726 -0.11494468 -0.08817949
000360 3a 60 21 be e5 de 6d be 9d fd 22 bd 33 1a 97 3e
       -0.15759364 -0.23229559 -0.039792646 0.29512176
000370 b7 b1 42 bc 3e d1 59 be 08 38 90 3e fc d0 43 3d
       -0.011883191 -0.21271226 0.28167748 0.047806725
000380 13 34 1e bd 81 04 4d 3e 9d d1 bd 3c 04 ce 16 be
       -0.03862388 0.2002125 0.02317124 -0.14727026
000390 16 36 74 bd 2e 6f 80 3e b4 1d 26 3c 8b 54 0f be
       -0.059621893 0.25084823 0.010138918 -0.13997094
0003a0 85 14 7b be 26 70 6c 3e 6e de 41 3d 72 e3 69 be
       -0.24519546 0.23089656 0.047331266 -0.2284067
0003b0 12 34 20 3d 82 84 8d be cc 1d 63 bc 94 87 9d be
       0.039112158 -0.27640158 -0.013862085 -0.307675
0003c0 1a 14 54 be a9 11 43 3e 8b fe 5e be d5 3c 8c be
       -0.20710793 0.19049706 -0.21776788 -0.2739016
0003d0 4a ff e1 bd 4b b0 85 3d 83 48 63 3e 14 38 62 be
       -0.11035021 0.06527766 0.2219563 -0.22091705
0003e0 c5 33 b9 ba 6f 81 5a be 5d 18 e6 3d af d0 5e 3e
       -0.0014129808 -0.21338437 0.11235116 0.21759294
0003f0 75 78 e2 bd dc dc d7 3d 8e 86 f6 bd 9b f4 87 3e
       -0.110581316 0.105401725 -0.12037383 0.26553807

encoder.latency_model.attn_layer.atten_bias f4 [20, 1, 1]
000000 3c 65 c9 bd ce f5 03 be 39 61 c6 bd 9a ff ca bd
       -0.09833762 -0.12886736 -0.096865125 -0.099120334
000010 a8 86 d9 bd 5e 33 e0 bd e4 80 86 bd 0d 96 e3 bd
       -0.10621387 -0.109472975 -0.06567553 -0.11112604
000020 0b c5 a6 bd 0d 65 0b be da 4f bc bd 52 af 01 be
       -0.08143052 -0.13612767 -0.09194918 -0.12664536
000030 9d 3b db bd 76 81 dc bd a7 95 e3 bd ea 3d f7 bd
       -0.1070473 -0.1076688 -0.11112528 -0.12072356
000040 c7 41 1f be 7a 85 18 be 05 22 1d be 98 37 20 be
       -0.15552436 -0.14894667 -0.15345009 -0.15646207

encoder.cpu_model.net.network.0.weight f4 [32, 1, 3]
000000 ed f1 20 3b bf 45 61 bd 4f 51 17 bf e1 e2 9a be
       0.0024558262 -0.054998156 -0.5910844 -0.3025122
000010 7f 5b 8b be f8 9e 46 be 4e eb 99 be 73 1b 4a 3d
       -0.27218243 -0.1939658 -0.30062336 0.049342584
000020 d2 ad 8a 3e ae 19 bf 3e 70 3d a6 be 56 df b3 3e
       0.2708574 0.3732428 -0.32468748 0.3513133
000030 4f f6 11 bc c9 6e 80 3e 56 8b 36 3e bf 0b ac bc
       -0.008908822 0.25084522 0.1782659 -0.021001695
000040 cd 98 3b be f3 59 2b 3d df 73 d1 3e c4 5b b1 be
       -0.18320008 0.04183383 0.40908715 -0.34640324
000050 60 85 00 3f 39 be 68 3d 94 58 8e bc 86 fa d3 be
       0.50203514 0.056822035 -0.017376222 -0.41402072
000060 16 2b e9 be 10 ac c1 3c 71 1d 70 be 56 7f e8 be
       -0.45540684 0.023641616 -0.23448731 -0.4540965
000070 18 76 e6 be c8 62 ba 3b fc f7 b4 bd 3e 43 08 3d
       -0.45011973 0.005688045 -0.08836362 0.033267252
000080 e6 43 ae 3e c7 67 43 3e cc 36 06 bf b2 a3 e5 be
       0.34036177 0.19082557 -0.52427363 -0.44851452
000090 87 e9 2d 3e c7 b3 8f 3e 86 c7 0a 3e de 01 f0 be
       0.16983615 0.28066847 0.13552675 -0.46876425
0000a0 d3 5c 82 be d9 ba 41 be 50 b8 c2 be 86 5b 9d be
       -0.25461444 -0.18918933 -0.38031244 -0.3073389
0000b0 01 90 1b 3e 56 2e bd bc 20 76 92 bd 2d 95 11 bf
       0.15191652 -0.023093384 -0.07151437 -0.5686825
0000c0 e3 dc d6 be 2c d5 c0 bd 67 09 cc 3e d6 9d f2 3e
       -0.41965398 -0.09415659 0.39850923 0.47386044
0000d0 62 54 e5 3e bb 82 d9 3c cf 1a 30 be b5 68 22 3e
       0.4479094 0.026551595 -0.17197727 0.15860255
0000e0 4e 20 6f 3e ff 21 0d 3f c0 b2 c5 3d 83 89 0e be
       0.23352167 0.5513 0.096532345 -0.13919644
0000f0 3d b5 5a 3e f8 34 7a 3e b9 e7 fd be 79 47 69 be
       0.213582 0.24434268 -0.49590853 -0.22781171
000100 ed 63 b2 3e ee 74 bb 3d 60 0c 36 be 87 82 35 be
       0.34841862 0.09153162 -0.17778158 -0.17725573
000110 eb 37 d1 be 7b f9 11 3f 01 41 da be 71 05 54 3e
       -0.40862975 0.570213 -0.4262772 0.207052
000120 23 09 ef 3e e4 69 9b 3c d6 bf 49 be a2 c5 14 3d
       0.46686658 0.018971391 -0.19702086 0.03632129
000130 2f f9 d6 3d 70 7e ab 3e b8 45 05 3f 22 3d e0 3b
       0.10496747 0.33494902 0.5205951 0.006843225
000140 7f d1 5c 3d 4e 5d 8d bd 73 54 a1 be 08 bb 91 be
       0.05391073 -0.06902562 -0.31509742 -0.28463006
000150 e6 43 98 3e d0 d9 b7 be ab a6 83 3e 57 50 c6 be
       0.29739302 -0.35908365 0.25713095 -0.3873317
000160 da 2b 88 be 38 79 88 3e b8 f1 00 3f 52 8b b3 3c
       -0.26595956 0.26654983 0.50368834 0.021917019
000170 98 c5 ea 3e e1 2a 15 bf e3 3f c4 3e 13 32 af be
       0.45853877 -0.58268553 0.38329992 -0.3421789

encoder.cpu_model.net.network.0.bias f4 [32]
000000 8c f3 c1 3d ac f4 80 bd 2e 75 ee be 3d 03 be 3d
       0.09470281 -0.062966675 -0.46573776 0.092779614
000010 3a 87 11 3f 56 d4 95 bd c0 99 2b 3e 59 3e f7 be
       0.56846964 -0.073158905 0.1675787 -0.48289755
000020 0d 3b 7a 3e 2b f6 03 3e ed 49 d5 be 87 f3 64 3e
       0.24436589 0.12886874 -0.41657963 0.22358523
000030 99 80 d5 be 26 a6 8a be 5d 01 91 bd 87 07 1f 3e
       -0.41699675 -0.27079886 -0.07080338 0.15530215
000040 e0 89 f5 bd e9 ce 8c be db b8 8c 3e a1 45 b9 be
       -0.11989188 -0.2750161 0.27484784 -0.36185935
000050 2a 3e 66 be 1c 54 40 3e 38 57 af 3e 95 1b 27 be
       -0.22484651 0.18782085 0.3424623 -0.16319115
000060 c1 68 fe 3e 11 c0 9c be 8e c5 8f 3e 26 5b 5f be
       0.49689296 -0.30615285 0.2808041 -0.21812114
000070 c4 00 c9 be c4 9d b5 3e 57 cb 51 3e ec 6c 87 bd
       -0.39258397 0.35471928 0.20487724 -0.06612572

encoder.cpu_model.net.network.1.weight f4 [32]
000000 63 5f 80 3f 42 fa 84 3f 4b 2a 84 3f fa 08 7f 3f
       1.002911 1.0388873 1.0325407 0.9962307
000010 0c 49 83 3f 2f 20 7f 3f 4f 69 7c 3f 89 a9 7d 3f
       1.0256667 0.99658483 0.9859819 0.99086815
000020 b3 37 80 3f dd 8a 83 3f fd 89 7f 3f 8e c5 7d 3f
       1.0016998 1.0276753 0.9981993 0.9912957
000030 41 ca 78 3f db 4c 7f 3f 16 8e 82 3f 6e 6d 82 3f
       0.97183615 0.9972665 1.0199611 1.0189645
000040 57 1b 81 3f c1 aa 85 3f 7c 50 80 3f 77 9f 81 3f
       1.0086468 1.0442735 1.0024562 1.012679
000050 3c f5 73 3f 38 06 7f 3f 4a dc 7d 3f a7 86 77 3f
       0.9529607 0.99618864 0.9916426 0.9668984
000060 4e 28 7d 3f 0b f6 7f 3f d5 e0 7f 3f ea 04 82 3f
       0.98889625 0.99984807 0.9995244 1.015775
000070 c3 92 7f 3f 46 30 7f 3f fe 79 7d 3f 8c f0 81 3f
       0.99833316 0.99683034 0.9901427 1.0151534

encoder.cpu_model.net.network.1.bias f4 [32]
000000 c1 6d 6d 3c 57 11 c4 3c e4 ef 72 3c 53 d6 b0 bc
       0.014491499 0.02393405 0.014827702 -0.021586573
000010 41 64 64 39 3c a4 cb 3c 81 56 44 bb 0a 7d 95 3c
       0.00021781122 0.024858586 -0.0029958787 0.0182481
000020 f2 a8 aa 3c 2a c2 ed 3c f1 40 32 bc 56 48 b4 bb
       0.020832513 0.029023249 -0.010879741 -0.005501787
000030 03 7a bc bc 38 3d 28 3c 1c 9e 1c 3d 96 18 9d 3c
       -0.023007398 0.010268502 0.038236722 0.019176763
000040 95 34 cf 3c 71 09 c7 bc 6c f2 92 bc 4f 00 34 bc
       0.025293628 -0.024296494 -0.017937861 -0.010986402
000050 75 d5 16 bd 9e 5e 52 bc 97 b7 0d 3c 43 c8 47 3d
       -0.036824662 -0.012839941 0.008649728 0.04877497
000060 69 4f 52 bd 1e 17 db 3b 91 56 09 bd 42 55 8d 3c
       -0.051345263 0.0066861054 -0.03352982 0.017252568
000070 14 f5 db bc c0 4d bb 3a d0 da 35 bd c3 04 c2 3c
       -0.02685026 0.0014290139 -0.04439813 0.023683911

encoder.cpu_model.net.network.1.running_mean f4 [32]
000000 ba 6e 35 c3 89 c8 58 c3 07 42 bb 40 e2 3d e1 42
       -181.43253 -216.78334 5.85181 112.620865
000010 64 31 ee 42 b6 3f 3a c2 30 7f 1f 43 c0 24 d4 c2
       119.096466 -46.562218 159.49683 -106.07178
000020 10 b8 3b c3 83 ba 7d c3 59 e2 9f 42 60 93 5c c3
       -187.719 -253.72856 79.942085 -220.57568
000030 3b d4 24 43 b9 ba 80 c3 c9 23 18 c3 e1 f6 3a c3
       164.82903 -257.45877 -152.13979 -186.96437
000040 1a 84 fc c1 15 b1 85 43 f8 62 79 42 7e 65 0f 43
       -31.564503 267.38345 62.34665 143.39645
000050 16 b5 34 c1 32 b2 71 42 7d 44 57 c3 3b 8b c5 42
       -11.29421 60.42402 -215.26753 98.771935
000060 2f 43 a4 42 30 f7 05 43 7a e5 23 43 4c 2d 3d c3
       82.13122 133.96558 163.8964 -189.17694
000070 a6 11 5a 42 0a 1a d9 c2 00 06 8b 43 1e 18 18 c3
       54.517235 -108.55086 278.04688 -152.09421

encoder.cpu_model.net.network.1.running_var f4 [32]
000000 87 d1 21 48 b1 b5 5c 48 9a bc fe 45 56 e6 75 47
       165702.11 226006.77 8151.575 62950.336
000010 55 76 87 47 7f 4a 2f 46 55 7f f2 47 f3 a1 64 47
       69356.664 11218.624 124158.664 58529.95
000020 e6 a5 25 48 96 e9 9a 48 f3 bf 09 47 e7 2a 73 48
       169623.6 317260.7 35263.95 249003.61
000030 02 07 01 48 fd a9 9b 48 64 37 e9 47 90 32 2a 48
       132124.03 318799.9 119406.78 174282.25
000040 17 fd a4 46 54 85 ab 48 23 64 b3 46 20 6e d7 47
       21118.545 351274.62 22962.068 110300.25
000050 cb ed 5d 46 14 67 b1 46 0d 72 5a 48 e6 ef 53 47
       14203.448 22707.54 223688.2 54255.9
000060 bb c8 25 47 97 a6 ac 47 45 db 01 48 e6 b1 29 48
       42440.73 88397.18 132973.08 173767.6
000070 82 08 89 46 78 fd 85 47 8c c0 b3 48 7c f7 e0 47
       17540.254 68602.94 368132.38 115182.97

encoder.cpu_model.net.network.4.weight f4 [64, 32, 3]
000000 ff 4c 42 bd aa 71 82 3d 96 d1 42 3d e7 63 18 3d
       -0.04743671 0.06369336 0.047563158 0.03720465
000010 b4 62 89 3d 2f 6c e7 3c 34 d0 56 3d 81 98 1c bd
       0.06708279 0.028249828 0.05244465 -0.038231377
000020 d7 a4 0d 3d de bc 8c bd 98 6f 46 bc 07 53 98 bd
       0.03458103 -0.06871961 -0.012111567 -0.07437711
000030 9b 5e 96 3c a1 83 89 3d ef 9e 22 3d 00 b5 ba bc
       0.018355658 0.06714559 0.039702352 -0.022791386
000040 79 0d 11 3d 0c 12 9f bc 26 16 7f bc 47 54 ef 3c
       0.03541324 -0.019417785 -0.015569245 0.029214991
000050 69 e3 14 bd 94 ea a3 bd ef 87 39 3c 4a 79 38 3c
       -0.036349688 -0.080037266 0.011323913 0.011259386
000060 96 35 45 bd 60 28 ec 3c 50 f6 8c bd f8 46 dd bb
       -0.048146807 0.028827846 -0.06882918 -0.006752845
000070 42 6a a7 bd a9 9d a9 bd a9 11 ac bd 07 32 ec bc
       -0.08174564 -0.082820244 -0.08401806 -0.028832449
000080 7f 4b b9 3d b6 b1 07 3d 1b d5 2c 3c cd 02 c3 bc
       0.09047603 0.033128463 0.010548855 -0.023805046
000090 2c fd 62 3d d9 3c bf 3c da 2b 70 bd d4 f4 dd 3d
       0.055417225 0.023344444 -0.05863557 0.10837713
0000a0 91 0e aa bd 98 20 b4 bd da 0f f4 3c 26 e1 5f bd
       -0.083035596 -0.08795279 0.029792715 -0.054658078
0000b0 22 90 ee bd 39 98 9b 3d 26 df 91 3d e2 0b 29 3d
       -0.11648585 0.075973935 0.0712264 0.041271098
0000c0 13 2e ab 3d 66 93 27 bd 22 9c dc 3d 4b 9b e5 bd
       0.08358397 -0.040912054 0.107719675 -0.112112604
0000d0 3a d8 a6 bd 9a d0 1a bd 58 e4 e8 3c 39 8d c4 bc
       -0.08146711 -0.037796594 0.028429195 -0.023993121
0000e0 b5 bb ce 3d 66 63 cc bd d7 c2 ac 3d 59 ad a1 3d
       0.10094396 -0.09979896 0.084356 0.078943916
0000f0 23 a8 eb 3d e1 d1 03 bd 1a 10 bb bd 89 7d b0 bd
       0.11506679 -0.032182578 -0.091339305 -0.08617694
000100 bb 65 84 bb 32 a9 f3 bc cb d1 cf 3b 55 a6 64 bd
       -0.0040404475 -0.029743765 0.006342148 -0.05582269
000110 ea 52 5b 3d 66 3d 36 3d 59 f3 d4 bb 35 56 56 3d
       0.05354587 0.044492148 -0.006498736 0.052328307
000120 e0 17 41 bc 37 9a d8 3c b3 8d 0c 3d d0 28 5c bd
       -0.011785477 0.026440723 0.034314822 -0.05374986
000130 de 55 d3 bc ac 2a 5a 3d 6c 33 1f bd 3a 9f 9e 3d
       -0.02579778 0.05326335 -0.0388674 0.07745214
000140 6a 36 50 3d d6 a9 d5 3d 94 32 b6 3d d2 44 bf bc
       0.050833143 0.10432784 0.08896366 -0.023348246
000150 f1 fd 6f bc 4d 73 83 bc 81 94 dc 3d 3a 01 65 bc
       -0.014647947 -0.01604619 0.10770512 -0.013977343
000160 8a 65 ca bb 11 41 a9 3d b4 26 33 bd 5e 4a a3 bd
       -0.006176655 0.082643636 -0.043738082 -0.07973169
000170 e7 29 bc 3d 09 6a 00 3e af f1 15 bd fa 10 01 3d
       0.0918768 0.12540449 -0.03660744 0.03151033
000180 7a 77 fb 3d 10 88 36 bd fa f4 a0 bd a3 55 2a 3d
       0.12278648 -0.044563353 -0.078592256 0.041585576
000190 8c c5 d2 bc 01 c2 90 3d 80 eb 30 bd 14 dc 86 3c
       -0.025728963 0.07068253 -0.04319334 0.016462363
0001a0 76 98 8f bc 9a 2a 62 3d 67 14 20 3e ef dd 3d bd
       -0.017528754 0.05521641 0.15632783 -0.04635423
0001b0 f8 34 41 bd 75 09 84 3d 5b 3e 1e bd d4 b3 a1 3c
       -0.047169656 0.06447116 -0.038633686 0.019739069
0001c0 e7 04 85 bd 93 1a 16 3b 21 34 8a 3d d2 a8 7e 3c
       -0.06495076 0.0022904023 0.06748224 0.01554318
0001d0 18 53 dc 3d 7f 8e 9c bd 8d c0 d5 3d be 45 9b 3d
       0.107580364 -0.076443665 0.10437117 0.07581662
0001e0 1a d5 8c bd ff 66 a1 bd c7 8e 72 3c 6a 8e d8 3d
       -0.068765834 -0.07880973 0.014804549 0.10574038
0001f0 fd 31 89 bd c7 d0 e5 3d cc 3d 82 3d c3 dc 35 3c
       -0.06698988 0.11221462 0.06359443 0.011099997
000200 7a cd 59 3d 7e 52 52 3d c6 48 df 3d 72 16 b8 3d
       0.053174473 0.051348202 0.10902552 0.08988656
000210 3c 83 50 3d cf 58 36 3d d0 8d 09 3d 8d 11 01 3e
       0.050906405 0.04451829 0.03358251 0.12604351
000220 40 1d 9a bc 1b 84 ae 3b 56 ff 37 3d 6a 69 13 bd
       -0.018812776 0.005325807 0.04492124 -0.035989203
000230 95 35 ce bb 6a 71 f5 bc 73 70 2c 3d d6 b7 b6 3d
       -0.0062930086 -0.029961307 0.042099427 0.08921783
000240 e2 a7 e6 bc f6 4f a2 bc 4d 38 11 bd e9 38 88 3d
       -0.028156225 -0.019813519 -0.035454083 0.0665148
000250 2a 04 49 3a 05 c2 9d 3d 30 a8 f2 bb 92 d8 02 3d
       0.0007668162 0.07703022 -0.0074053034 0.03194482
000260 30 63 14 3e 1d c5 80 ba 3a 09 de 3d 7b c9 84 bc
       0.14490962 -0.0009824369 0.108416036 -0.016209355
000270 28 c5 73 bd 0d d6 a4 bd 5d 0e 56 3c c6 db 60 3d
       -0.059514195 -0.080486394 0.013064948 0.054897092
000280 b8 61 75 3d 0d 7d 85 3c c1 25 2c bc d4 49 57 3d
       0.059907645 0.01629498 -0.010507048 0.052560642
000290 67 c4 07 3d e8 c5 51 bd 44 9f 14 3e 02 af 2c 3d
       0.03314629 -0.05121413 0.1451388 0.042159088
0002a0 4c ef 45 3d 2e f5 1f bd d9 de 73 3d d9 bd d3 3d
       0.048323914 -0.03905218 0.059538696 0.10338945
0002b0 cb c1 6e bd 38 be 73 bc 10 6b 66 bd 75 6c 5d 3d
       -0.058290284 -0.014876895 -0.056254447 0.05405851
0002c0 b8 4c 55 bd cf b9 45 bb 2a ff 69 bd ec b1 b5 3d
       -0.052075118 -0.0030170565 -0.05712811 0.088718265
0002d0 f1 61 bf 3d 33 a0 1a 3e ce 66 56 3c 0a c2 26 bc
       0.09344853 0.15100174 0.013086034 -0.010178098
0002e0 ca 36 9f 3d f0 4f dd 3c 4c de ac 3d 37 87 27 bc
       0.07774122 0.027015656 0.08440837 -0.010225109
0002f0 67 7c 11 3e 12 32 da 3b ce f0 4a bd 4e ce 12 bd
       0.14207612 0.006658801 -0.049546055 -0.03584128
000300 8f bc 60 bd 7a 12 da bd 73 c9 bb bc 68 7e 06 be
       -0.054867323 -0.106480554 -0.022923207 -0.13134158
000310 5f 93 63 bb 41 03 48 bd 4b 4a cb 3b ab ed 13 bd
       -0.0034725291 -0.04883123 0.006203925 -0.03611533
000320 e2 4d c1 3d 59 b6 31 3d de ef 5d bc ff 4a a2 bd
       0.09438683 0.04338679 -0.013545958 -0.079244606
000330 71 33 56 3d 65 e7 7c 3d 79 73 6b 3d 5c 47 65 bd
       0.052295152 0.061744113 0.05748317 -0.055976257
000340 c2 bf 0b 3d 8d cf ea 3c 44 5a 36 3d ad 81 ab 3d
       0.03411842 0.028663421 0.044519678 0.08374343
000350 07 9d 49 3d 5b a1 af bd ee b0 86 bd 7f 73 7b bd
       0.04922202 -0.08575698 -0.065767154 -0.061389443
000360 bc cf 26 bd af 9a 5c bd 32 c2 23 bd 73 d6 c6 3c
       -0.040725455 -0.053858455 -0.03998012 0.02427218
000370 a3 c3 27 3d f0 f1 9d bd f7 22 e7 3d 03 a6 e4 bc
       0.040958058 -0.077121615 0.11285966 -0.027911192
000380 f0 51 0d 3d 7f 78 14 bd 07 b6 7f 3b 3c ac fe 3b
       0.03450197 -0.036247727 0.003901841 0.007771997
000390 a8 c1 97 3d 6b ae a8 bb 6c e1 89 bd bd ee 18 3d
       0.07409984 -0.0051477454 -0.06732449 0.037337054
0003a0 f0 7f da bd bb fd f6 bd 75 72 59 3d 7f 07 33 bd
       -0.106689334 -0.12060114 0.05308767 -0.04370832
0003b0 57 96 f8 bd ce 91 b1 bc f6 f2 b5 bd 9c 39 0a 3d
       -0.1213805 -0.02167597 -0.08884232 0.033746347
0003c0 4c d5 cb bd 71 1e c9 bd 2a 88 1d bd b7 d8 80 3d
       -0.099527925 -0.09820259 -0.038459934 0.06291335
0003d0 f4 98 a5 3d f5 56 8f bd 38 dd 38 3d 21 e7 0f 3d
       0.08085814 -0.069990076 0.045132846 0.03513253
0003e0 60 77 c5 3d 42 17 87 3d d2 e5 71 bd e9 70 63 bd
       0.096419096 0.06596233 -0.059057064 -0.0555276
0003f0 5c 9e 47 bd 92 ab f1 bd 80 c4 99 bc 39 2c 81 3c
       -0.048735008 -0.118003026 -0.018770456 0.015768157

encoder.cpu_model.net.network.4.bias f4 [64]
000000 73 db e3 3d 5a b2 08 3d a8 39 9c 3d 9f c2 c9 3d
       0.11125841 0.033373214 0.076281846 0.09851574
000010 3b 7e 87 3d 09 a4 1e 3c 7f 06 9e 3d 01 06 5c 3d
       0.066158734 0.009682664 0.07716083 0.053716663
000020 52 c6 3b 3d f1 ef b2 bd 43 10 d4 3c 2c d5 56 bd
       0.04584343 -0.087371714 0.02588666 -0.05244939
000030 fc 8a 92 bd 1b 4f 83 3d 00 78 54 3d f1 90 bb 3d
       -0.071554154 0.064115725 0.051872253 0.09158505
000040 c8 78 c3 3d 1f a5 a1 3d 10 0c 4d bd e2 51 6a bd
       0.095445216 0.078928225 -0.05006033 -0.057206996
000050 bd 53 82 bd 4b 46 9e bd 45 de 8b 3d dd db e4 39
       -0.06363628 -0.07728251 0.06829504 0.0004365136
000060 ae f2 80 bc 46 28 8d bc 9e 91 ff 3c cc 55 03 bd
       -0.015740719 -0.017231118 0.031197365 -0.032064244
000070 7e 90 34 bd 1a c7 45 3d 0f bf 34 3c 27 58 66 3d
       -0.04408311 0.04828558 0.01103188 0.056236412
000080 95 89 14 bb 23 56 84 3d 82 e0 61 bd 6c de 22 3d
       -0.0022665013 0.06461742 -0.055145748 0.0397629
000090 45 0a d0 bc 85 89 05 3d 49 ac 0c bb 20 27 97 3d
       -0.025395522 0.032601852 -0.0021464995 0.073805094
0000a0 1f 50 01 bd 63 ff e8 bc 1c e4 c8 bd df 77 c9 3c
       -0.03157055 -0.02844209 -0.098091334 0.024593292
0000b0 72 41 8e 3d cd e6 20 bd 31 98 1b bd e1 94 ad bd
       0.069460765 -0.03928261 -0.037986938 -0.08475662
0000c0 c7 46 d2 3c 36 7a a6 bd b0 45 d4 3d 15 47 b9 3c
       0.025668515 -0.08128779 0.10364854 0.022616902
0000d0 e9 2d 2f 3d a5 f8 60 bc 7c 89 9c bd f7 8f c1 3d
       0.042768393 -0.0137311565 -0.076434106 0.09451287
0000e0 9a ef 67 3d 29 b6 5d bd 2f 54 17 bd 23 f2 29 3c
       0.056624986 -0.0541288 -0.036945518 0.010372671
0000f0 fd 74 43 3d 16 f7 45 bd 2b 4d 84 3d 1a fe c2 bd
       0.04771899 -0.048331343 0.06460031 -0.09521122

encoder.cpu_model.net.network.5.weight f4 [64]
000000 a3 22 80 3f 1e 0d 82 3f 5b 56 81 3f 95 79 84 3f
       1.001057 1.0160253 1.0104479 1.0349604
000010 6a 8b 7a 3f bc 52 80 3f 7b 10 81 3f ac 9a 75 3f
       0.9786898 1.0025249 1.0083154 0.95939136
000020 d0 c7 80 3f 5d c6 7d 3f 35 31 7f 3f 31 e9 83 3f
       1.0060978 0.99130803 0.9968446 1.0305539
000030 b1 a9 84 3f 6f 01 82 3f 33 87 82 3f 12 8e 85 3f
       1.0364286 1.0156687 1.019751 1.0433981
000040 13 02 80 3f 79 ef 7e 3f 85 d2 73 3f 72 e5 7d 3f
       1.0000633 0.99584156 0.952431 0.9917823
000050 de cb 81 3f a6 c7 79 3f 28 d9 86 3f 18 8e 85 3f
       1.014034 0.97570264 1.0535021 1.0433989
000060 95 9e 80 3f 31 2c 87 3f 67 14 83 3f 4d 1e 83 3f
       1.0048395 1.0560361 1.0240601 1.0243622
000070 9f 43 83 3f 8a 65 7b 3f 10 f2 79 3f ce 96 6c 3f
       1.0255011 0.9820181 0.97634983 0.9241761
000080 49 9d 7d 3f ee 4b 81 3f f5 55 81 3f 27 83 84 3f
       0.99068123 1.0101297 1.0104357 1.0352525
000090 13 15 79 3f 9e e7 81 3f f8 a4 7b 3f b5 29 87 3f
       0.9729778 1.0148809 0.982986 1.0559603
0000a0 a1 1f 84 3f 28 46 82 3f 27 21 82 3f 94 a4 85 3f
       1.0322152 1.017766 1.0166367 1.044085
0000b0 e4 3a 83 3f 92 81 81 3f 00 d8 80 3f 1b fb 80 3f
       1.0252347 1.0117667 1.0065918 1.0076631
0000c0 df fd 81 3f c2 e8 73 3f 0f 54 76 3f 99 96 82 3f
       1.01556 0.95277035 0.96222013 1.0202209
0000d0 e9 f8 7e 3f 96 38 85 3f 47 5b 82 3f 14 35 82 3f
       0.99598557 1.0407894 1.0184106 1.0172448
0000e0 d4 8d 79 3f 12 e0 84 3f ca a8 83 3f 27 5b 83 3f
       0.9748204 1.0380881 1.0285885 1.0262192
0000f0 f8 9d 83 3f 30 29 7e 3f cf 99 81 3f 98 0d 83 3f
       1.0282583 0.992816 1.0125064 1.0238523

encoder.cpu_model.net.network.5.bias f4 [64]
000000 fe 9e b2 bb 18 1b 02 bd 4f 4a 59 3c 41 c1 e7 3c
       -0.0054510823 -0.03176412 0.013262345 0.028290393
000010 b8 84 e1 bb 24 a6 9e bd e8 36 9f bb 53 38 82 bd
       -0.0068822764 -0.077465326 -0.0048588403 -0.06358399
000020 c5 76 aa 3c 06 c8 b6 bc f4 fa f4 3c 13 8c dc 3a
       0.020808587 -0.022312175 0.02990482 0.0016826413
000030 c8 11 0b 3d fb 98 9b 3c 2a 7d 04 3d 7a 9a ee 3c
       0.033952504 0.018993845 0.03234593 0.029126395
000040 a9 82 29 3d a0 3e f0 3c ad ae 73 bc a2 cd 2b bb
       0.041384373 0.029326737 -0.014873189 -0.0026215096
000050 04 81 bd 3c d2 66 4b 3b 34 c1 d4 3c 38 7e d8 3d
       0.023132809 0.0031036627 0.025971033 0.10570949
000060 85 75 0e 3d 3a 35 76 bc 64 c1 48 3d 95 d3 ff 3a
       0.034780044 -0.015027339 0.049012557 0.0019518012
000070 5b 40 73 bd 6f fa 38 bb 24 72 9a 3a 0b 77 cd bc
       -0.059387546 -0.0028225442 0.0011783284 -0.025081178
000080 9d dd ba bb 03 75 a4 bd f4 bc d5 3c e7 95 48 3c
       -0.005702688 -0.08030131 0.026091076 0.012242771
000090 2c 42 13 bd 95 e4 28 39 2e d7 a8 3c 83 6b 28 bd
       -0.03595178 0.00016106882 0.020610418 -0.041118156
0000a0 80 27 9f 3d e2 3f c8 3c 8e 81 a4 3c ff f7 d2 3c
       0.07771206 0.024444524 0.020081308 0.02575302
0000b0 b2 3c 12 bd a0 70 85 3c 58 3e 1b bd 93 eb 27 bc
       -0.035702415 0.016289055 -0.037901253 -0.010249036
0000c0 ee 74 8d 3b eb 49 ff bc 1d 71 2a ba 44 59 62 3c
       0.0043169176 -0.031163177 -0.00065018405 0.013815228
0000d0 ed cd 20 3c 6e ce 03 bd b1 07 56 3c fe ab 06 3d
       0.0098147215 -0.03217929 0.013063357 0.03287887
0000e0 cb 2a 08 bd 07 6b 7a 3c ea bb 91 3c 32 16 4f bb
       -0.033243936 0.015284306 0.0177898 -0.0031598923
0000f0 ed eb 3e bc 1f fc aa 3b ec 40 1f bb 2c 04 b3 3c
       -0.011652929 0.0052180435 -0.002430017 0.021852575
