results/c6b3818f_2025-01-09 04:42:20/model.ckpt (torch_old, 651795 bytes, 89 tensors)

encoder.latency_model.net.network.0.weight f4 [32, 1, 3]
-0.27630103 -0.11567585 0.07676295 -0.6578321 0.066708006 -0.041417375 0.51804763 -0.31716233
-0.22577804 0.21613203 0.28140885 -0.54434586 -0.0017728887 0.17636514 -0.5611659 -0.4343336
0.3647939 0.5088297 0.3505398 0.6073114 -0.35120595 -0.26601478 -0.06987973 -0.2085984
-0.11577984 -0.39399305 0.5062246 -0.30780044 0.3023069 -0.6639003 -0.04369293 -0.07789655
0.24473728 -0.37848586 0.2702032 -0.10560201 -0.6962012 0.27961507 -0.0009255687 -0.26818714
0.49542686 -0.23587433 -0.46290824 0.3645878 -0.091461524 0.043596078 -0.5837023 0.09770502
0.026251957 -0.64147717 -0.08889579 0.33101812 0.31956166 -0.46453524 0.444554 0.25811306
-0.027372152 -0.27358273 -0.25968033 0.53067434 0.14201953 0.058524687 -0.32909277 -0.016160902
0.31020054 -0.30824608 0.2644423 -0.3132978 0.58589095 -0.28182748 -0.32860383 -0.08080542
-0.12540469 -0.6338779 0.2828801 -0.5416852 -0.027764447 0.106871486 0.08466517 0.4898994
-0.32387206 0.6042717 -0.009301454 0.09506288 0.1572309 0.334656 -0.31143606 0.4156819
-0.07717534 0.62688607 0.4971981 -0.1856534 -0.3288363 0.54109704 -0.29778367 -0.26283908
00000000: 5477 8dbe 76e7 ecbd e535 9d3d af67 28bf
00000010: 359e 883d 44a5 29bd c59e 043f 1a63 a2be
00000020: 5c32 67be b751 5d3e d214 903e 405a 0bbf
00000030: 4660 e8ba 1099 343e 92a8 0fbf f960 debe
00000040: 44c6 ba3e aa42 023f f479 b33e c378 1b3f
00000050: 44d1 b3be 1733 88be 1b1d 8fbd d29a 55be
00000060: fb1d edbd 75b9 c9be ef97 013f 0598 9dbe
00000070: f8c7 9a3e 5ff5 29bf 5cf7 32bd 3a88 9fbd
00000080: 699c 7a3e e6c8 c1be 1358 8a3e de45 d8bd
00000090: 3e3a 32bf b529 8f3e dda1 72ba d34f 89be
000000a0: 97a8 fd3e 0a89 71be 4f02 edbe 41ab ba3e
000000b0: 2e50 bbbd cd91 323d 846d 15bf 9219 c83d
000000c0: 580e d73c d937 24bf ff0e b6bd 357b a93e
000000d0: 969d a33e 90d7 edbe 959c e33e 6527 843e
000000e0: 903b e0bc 0913 8cbe d2f4 84be 46da 073f
000000f0: 916d 113e 95b7 6f3d d97e a8be de63 84bc
00000100: 9bd2 9e3e 6ed2 9dbe fb64 873e 9268 a0be
00000110: f3fc 153f b14b 90be c33e a8be 507d a5bd
00000120: 166a 00be d245 22bf a9d5 903e e2ab 0abf
00000130: 4472 e3bc 70df da3d ef64 ad3d 18d4 fa3e
00000140: 8fd2 a5be 8db1 1a3f 2065 18bc 54b0 c23d
00000150: 2301 213e 0858 ab3e 8c74 9fbe 42d4 d43e
00000160: 1b0e 9ebd 9b7b 203f c090 fe3e ed1b 3ebe
00000170: 3b5d a8be 5685 0a3f 1a77 98be d892 86be

encoder.latency_model.net.network.0.bias f4 [32]
0.21953611 0.3648047 -0.08745104 0.4755578 -0.4828677 0.5388523 -0.10241046 0.20955952
0.19673805 0.23356156 -0.49791202 0.31458107 -0.25236946 0.07749296 -0.5489436 -0.018234655
0.5411262 -0.481781 0.09784747 -0.23418255 0.005747729 0.13594797 -0.0046840897 0.0639372
-0.42087936 -0.00033533762 -0.35570097 0.3037085 -0.017994003 -0.4571321 -0.035349436 0.1642542
00000000: 13ce 603e aec7 ba3e 8819 b3bd 507c f33e
00000010: 6f3a f7be 39f2 093f 93bc d1bd c596 563e
00000020: b375 493e c32a 6f3e 53ee febe c510 a13e
00000030: 9236 81be a1b4 9e3d 9187 0cbf d860 95bc
00000040: 3f87 0a3f 00ac f6be 4164 c83d 8dcd 6fbe
00000050: 7257 bc3b f235 0b3e fe7c 99bb 82f1 823d
00000060: 807d d7be 41d0 afb9 701e b6be ae7f 9b3e
00000070: 2968 93bc 380d eabe 92ca 10bd 4132 283e

encoder.latency_model.net.network.1.weight f4 [32]
1.0408548 1.0257968 1.0224048 1.001675 1.1215146 0.87765807 0.94889766 1.0634245
1.036945 1.0416924 0.9455707 1.0467145 0.9683261 0.9681888 0.97726953 1.0602465
1.012072 0.9547118 0.9002445 0.9181699 1.1666005 1.0815057 0.9441323 1.0670865
1.0451713 1.0278062 0.93227243 0.84334993 0.9415384 0.95890903 1.0339402 1.0116304
00000000: bb3a 853f 4f4d 833f 29de 823f e336 803f
00000010: ca8d 8f3f 33ae 603f f5ea 723f 4b1e 883f
00000020: 9dba 843f 2d56 853f ec10 723f befa 853f
00000030: 38e4 773f 39db 773f 562e 7a3f 28b6 873f
00000040: 938b 813f fe67 743f 6c76 663f 2f0d 6b3f
00000050: 2a53 953f c76e 8a3f a8b2 713f 4a96 883f
00000060: 2cc8 853f 278f 833f 68a9 6e3f c8e5 573f
00000070: a908 713f 107b 753f 2758 843f 1b7d 813f

encoder.latency_model.net.network.1.bias f4 [32]
-0.09339969 0.026865762 -0.007441288 -0.015420753 0.0628114 0.065148935 0.079059005 -0.09651626
-0.00032916313 -0.093998685 -0.3395985 0.012103532 -0.035393212 -0.0042257467 -0.029257173 -0.021829847
0.016335161 -0.15366234 0.07227399 0.00061899476 0.06720763 -0.0097944625 0.07779739 0.05126411
-0.011475311 -0.026217148 -0.27235153 -0.19786361 -0.15006234 0.08247586 -0.005882065 -0.006797286
00000000: 5648 bfbd 9615 dc3c 0cd6 f3bb 53a7 7cbc
00000010: 43a3 803d ce6c 853d b0e9 a13d 51aa c5bd
00000020: 8793 acb9 6282 c0bd dbdf adbe e54d 463c
00000030: 79f8 10bd 2278 8abb bdac efbc 82d4 b2bc
00000040: 51d1 853c a959 1dbe 6304 943d 0944 223a
00000050: 27a4 893d f478 20bc 3d54 9f3d 51fa 513d
00000060: f102 3cbc 58c5 d6bc a971 8bbe c29c 4abe
00000070: f1a9 19be 1be9 a83d 56be c0bb c5bb debb

encoder.latency_model.net.network.1.running_mean f4 [32]
-7182.8193 -14541.555 -586.23846 -1130.8762 -8907.534 10073.745 13969.107 -12539.392
-126.39282 -15377.577 2812.9219 -4902.7104 -9608.004 -235.1073 -4319.722 -10218.144
-16224.94 4265.2964 15541.79 -77.71781 -2862.0515 -368.36844 12310.681 -15904.789
-10982.285 -10685.462 5735.859 15871.57 4117.705 22190.38 -417.96713 -478.42157
00000000: 8e76 e0c5 3836 63c6 438f 12c4 0a5c 8dc4
00000010: 232e 0bc6 fb66 1d46 6e44 5a46 91ed 43c6
00000020: 20c9 fcc2 4f46 70c6 c0ce 2f45 af35 99c5
00000030: 0420 16c6 781b 6bc3 c7fd 86c5 93a8 1fc6
00000040: c383 7dc6 5f4a 8545 29d7 7246 856f 9bc2
00000050: d3e0 32c5 292f b8c3 b95a 4046 2883 78c6
00000060: 2499 2bc6 d9f5 26c6 df3e b345 48fe 7746
00000070: a4ad 8045 c35c ad46 cbfb d0c3 f635 efc3

encoder.latency_model.net.network.1.running_var f4 [32]
8.700638e+09 3.471527e+10 5.7628826e+09 5.9296497e+09 1.4961505e+10 2.3397507e+10 3.607834e+10 2.3292856e+10
5.0073943e+09 3.790805e+10 1.9640143e+09 5.234551e+09 1.900465e+10 2.8945024e+09 5.698332e+09 1.8625305e+10
4.245022e+10 8.907136e+09 3.7867536e+10 6.1228605e+09 3.1075238e+09 1.8595708e+09 2.5070289e+10 3.8367134e+10
2.2936699e+10 2.038201e+10 8.634145e+09 3.9545168e+10 5.4235023e+09 7.378124e+10 6.0460913e+09 6.381734e+09
00000000: 4da6 0150 1053 0151 4ebf ab4f a3b7 b04f
00000010: 9df1 5e50 3453 ae50 fc66 0651 998b ad50
00000020: 633b 954f ef37 0d51 f620 ea4e 7400 9c4f
00000030: 7e98 8d50 9a86 2c4f d3d2 a94f f3c4 8a50
00000040: af23 1e51 07ba 0450 4c11 0d51 b879 b64f
00000050: 0d39 394f 99ad dd4e c8c9 ba50 c0ed 0e51
00000060: 48e4 aa50 99db 9750 a6a8 0050 3651 1351
00000070: 0aa2 a14f a36d 8951 0430 b44f c430 be4f

encoder.latency_model.net.network.4.weight f4 [64, 32, 3]
-0.06897205 -0.013895188 0.021631967 0.068678 0.22607182 0.18556778 -0.024164379 0.0036490124
-0.044552088 -0.0019781736 -0.010578618 0.043792315 0.23985831 0.19734012 0.21412598 -0.06866468
-0.03385446 0.062171835 -0.069455706 0.043176986 0.0062668105 0.0010677907 0.12761924 0.15763241
0.05338768 0.005289577 0.07249328 -0.0415277 0.15683605 -0.09578726 0.080210224 -0.024763081
0.13851984 0.06978096 0.16627082 0.027410379 0.039134495 0.0063014175 0.02862455 -0.056819078
-0.06557334 -0.18548998 -0.0255308 0.097638376 -0.019166993 0.08240116 0.13092683 0.16393909
0.13012883 0.07460626 0.18961032 0.12782197 0.12700377 -0.045355752 -0.096764095 0.048483837
-0.04256966 -0.10136992 -0.0071122916 0.002356551 0.23500848 0.25041932 0.28146735 -0.033899713
0.052598525 -0.08522791 -0.00397632 0.0015220846 -0.042270534 0.08584069 0.21382748 0.118109904
-0.019755457 0.13969605 0.02895758 0.13644946 0.14566362 0.12826706 -0.03386479 0.116864935
0.027204113 0.08314951 -0.06515092 0.056731667 0.031853955 -0.0009234356 0.03197566 -0.110149726
0.00031849978 -0.083226174 0.042133592 -0.030586319 0.018811664 0.03392601 -0.09300997 0.113471694
-0.01737767 -0.08733967 -0.15244497 0.0059697786 -0.11823284 0.06265038 0.06971388 0.08857212
0.06439351 -0.10915025 -0.019964753 0.039513156 -0.008654718 -0.05280207 0.13339444 0.02757636
-0.0044055437 -0.04077997 0.009235196 -0.071424894 -0.07676912 -0.07856383 -0.016562376 0.024910357
0.24017516 -0.08573077 -0.041298177 -0.12706761 -0.003293221 -0.096159354 0.12244287 0.05645726
-0.028291522 0.12751956 -0.043320864 0.1034904 0.19246052 -0.002524552 0.011471359 0.032402363
-0.00021443762 -0.0055943104 0.049778413 -0.027647467 0.032535423 0.007593197 0.073524415 0.039131332
0.10551697 -0.15322497 0.06585989 0.019380515 -0.092232324 0.057801794 -0.13226767 -0.055555493
-0.11133427 0.045839775 0.011724655 -0.06973322 -0.11274955 0.031287976 0.1121065 0.082604
0.017625839 -0.028153079 -0.095689245 0.015250258 -0.115621805 0.114116356 -0.15884975 -0.0014594689
0.13183142 0.08853894 -0.05555986 0.17079473 -0.0051486213 0.010520724 0.027314177 -0.015050289
0.025589237 -0.09479188 -0.06163504 0.054578315 -0.04144937 -0.043181892 -0.023685904 -0.0032947687
0.08139697 0.02083194 0.062459797 0.08323143 0.1326115 -0.018325277 0.052444197 0.13294378
-0.05022914 -0.15110041 -0.06964866 -0.025438465 0.0017071599 -0.05956286 -0.09950472 -0.19985272
-0.21270335 0.048204016 -0.008003209 -0.040502824 0.07766254 0.02085981 -0.045292635 0.037155032
0.046589624 0.04345292 -0.0738542 -0.109579034 0.008762581 -0.06506789 -0.046352476 -0.0011084987
-0.050304048 -0.117415994 -0.075903915 0.011183653 -0.1193435 -0.12747602 0.05598592 -0.024469001
0.09422412 0.04083407 0.04479511 -0.050035298 0.121915855 -0.122483015 0.063187465 0.11529005
-0.08087787 -0.11234491 0.15738915 0.005340881 -0.021760859 -0.041783288 -0.054265596 -0.04513812
-0.027994672 0.05214916 0.019948523 -0.035324354 -0.115492344 0.10175541 0.03199735 -0.05179759
-0.08971065 0.060476057 -0.17251307 -0.053362492 0.10094652 0.037357874 -0.06444681 0.02884759
00000000: 3841 8dbd a5a8 63bc 8635 b13c 0da7 8c3d
00000010: 5f7f 673e 7b05 3e3e 60f4 c5bc 4524 6f3b
00000020: 407c 36bd 3fa4 01bb f151 2dbc 925f 333d
00000030: 6b9d 753e 8713 4a3e d743 5b3e 11a0 8cbd
00000040: f9aa 0abd e5a7 7e3d cb3e 8ebd 5ada 303d
00000050: d159 cd3b 1cf5 8b3a 9eae 023e 646a 213e
00000060: 0aad 5a3d 3054 ad3b 5b77 943d f318 2abd
00000070: a199 203e 1c2c c4bd 4245 a43d f2db cabc
00000080: 25d8 0d3e 52e9 8e3d e642 2a3e bb8b e03c
00000090: 7e4b 203d 1f7c ce3b 087e ea3c 1fbb 68bd
000000a0: 514b 86bd 16f1 3dbe f825 d1bc a1f6 c73d
000000b0: 1904 9dbc f0c1 a83d af11 063e a6df 273e
000000c0: 7e40 053e 2bcb 983d 3529 423e c3e3 023e
000000d0: 470d 023e f4c6 39bd 412c c6bd fd96 463d
000000e0: 865d 2ebd 089b cfbd 3a0e e9bb 5d70 1a3b
000000f0: 10a6 703e f636 803e 7d1c 903e 6dda 0abd
00000100: 8d71 573d f88b aebd ca4b 82bb af80 c73a
00000110: de23 2dbd 3ecd af3d 97f5 5a3e 9be3 f13d
00000120: 32d6 a1bc 7b0c 0f3e 7238 ed3c 68b9 0b3e
00000130: d828 153e 7158 033e ceb5 0abd e256 ef3d
00000140: 29db de3c 4a4a aa3d d86d 85bd 775f 683d
00000150: 4b79 023d b712 72ba e9f8 023d 2e96 e1bd
00000160: 51fc a639 7c72 aabd 4694 2c3d 2990 fabc
00000170: eb1a 9a3c 00f6 0a3d 037c bebd d963 e83d
00000180: 9e5b 8ebc 24df b2bd 891a 1cbe 229e c33b
00000190: 0f24 f2bd d84e 803d 27c6 8e3d 4d65 b53d
000001a0: bfe0 833d 2b8a dfbd 1f8d a3bc 8cd8 213d
000001b0: 85cc 0dbc fc46 58bd 8d98 083e d2e7 e13c
000001c0: 615c 90bb e608 27bd 384f 173c 3747 92bd
000001d0: 2139 9dbd 13e6 a0bd d2ad 87bc ce10 cc3c
000001e0: 7af0 753e 9d93 afbd 4728 29bd 031e 02be
000001f0: 14d3 57bb 32ef c4bd 54c3 fa3d ba3f 673d
00000200: 9fc3 e7bc 7d94 023e 3871 31bd c6f2 d33d
00000210: 5f14 453e f472 25bb 5ef2 3b3c 57b8 043d
00000220: a9da 60b9 7a50 b7bb 73e4 4b3d f17c e2bc
00000230: dd43 053d 5ad0 f83b f893 963d 2d48 203d
00000240: 4819 d83d 02e7 1cbe 8de1 863d e3c3 9e3c
00000250: 4de4 bcbd 93c1 6c3d 2d71 07be 288e 63bd
00000260: 3903 e4bd 7dc2 3b3d c418 403c 4ad0 8ebd
00000270: 3ce9 e6bd d227 003d 1898 e53d 492c a93d
00000280: 1064 903c 49a1 e6bc b9f8 c3bd 38dc 793c
00000290: 20cb ecbd d6b5 e93d 82a9 22be a64b bfba
000002a0: d1fe 063e e753 b53d bc92 63bd d0e4 2e3e
000002b0: c4b5 a8bb 1d5f 2c3c fbc1 df3c 7d95 76bc
000002c0: 85a0 d13c 3f22 c2bd 0675 7cbd 838d 5f3d
000002d0: d1c6 29bd 7fdf 30bd f108 c2bc 0ced 57bb
000002e0: 74b3 a63d bfa7 aa3c d8d5 7f3d 3d75 aa3d
000002f0: 4fcb 073e e41e 96bc bacf 563d 6a22 083e
00000300: 12bd 4dbd 11ba 1abe f5a3 8ebd 5464 d0bc
00000310: c8c2 df3a 2ff8 73bd 21c9 cbbd 31a6 4cbe
00000320: e8ce 59be 9371 453d e41f 03bc 4ae6 25bd
00000330: 8a0d 9f3d 31e2 aa3c c584 39bd e02f 183d
00000340: c3d4 3e3d b0fb 313d df40 97bd f96a e0bd
00000350: ee90 0f3c 5042 85bd 18dc 3dbd 0b4b 91ba
00000360: 9e0b 4ebd cc77 f0bd 8373 9bbd a43b 373c
00000370: 5d6a f4bd 1389 02be 7e51 653d 3773 c8bc
00000380: 93f8 c03d a041 273d 147b 373d d0f1 4cbd
00000390: 05af f93d 60d8 fabd 6e68 813d 311d ec3d
000003a0: 4ca3 a5bd 1715 e6bd 9f2a 213e 8f02 af3b
000003b0: d443 b2bc f424 2bbd 9a45 5ebd c0e2 38bd
000003c0: 1555 e5bc 5c9a 553d 166b a33c 45b0 10bd
000003d0: 4087 ecbd 2465 d03d a70f 033d b629 54bd
000003e0: 38ba b7bd beb5 773d 44a7 30be a192 5abd
000003f0: 0dbd ce3d 9204 193d b0fc 83bd c851 ec3c

encoder.latency_model.net.network.4.bias f4 [64]
-0.056877553 0.017425764 0.039643727 -0.1797831 -0.33325556 -0.20843984 0.2371199 0.12114227
-0.38614547 -0.1076253 -0.2983385 0.12773356 0.19787927 -0.071479626 -0.06839612 -0.00073434337
-0.5792507 -0.12608132 -0.055719543 -0.2880641 -0.39434978 -0.31387416 -0.5114459 -0.027055128
-0.3859553 -0.21468613 -0.10502886 -0.2971214 -0.3204299 0.008275964 -0.215842 -0.22573414
-0.11323465 -0.091958255 0.0452733 -0.16613413 -0.0596387 -0.28001457 0.094920024 0.0971087
-0.16290382 -0.5896317 0.0021520553 -0.21870813 -0.26787248 -0.113692634 -0.11816986 0.064191096
-0.30322742 -0.12869577 -0.38460684 -0.03318408 0.11344633 0.11456767 0.029231077 -0.18015526
-0.11490795 -0.028152024 -0.20772304 -0.28156608 -0.678653 -0.31213695 0.0060096877 -0.056422558
00000000: 70f8 68bd 7ac0 8e3c 7661 223d 1019 38be
00000010: 79a0 aabe 4171 55be 8fcf 723e 7019 f83d
00000020: dcb4 c5be a76a dcbd d3bf 98be 96cc 023e
00000030: dda0 4a3e e963 92bd 4413 8cbd f380 40ba
00000040: c649 14bf 761b 01be 2d3a 64bd 237d 93be
00000050: 37e8 c9be 1db4 a0be 1eee 02bf b7a2 ddbc
00000060: ef9b c5be aed6 5bbe 5f19 d7bd 4c20 98be
00000070: 630f a4be e997 073c af05 5dbe da26 67be
00000080: 91e7 e7bd 9c54 bcbd 7f70 393d 111f 2abe
00000090: b647 74bd 125e 8fbe 6e65 c23d ede0 c63d
000000a0: 42d0 26be 1af2 16bf 7f09 0d3b 06f5 5fbe
000000b0: 9526 89be afd7 e8bd 0a03 f2bd 9f76 833d
000000c0: a040 9bbe d3c8 03be 30eb c4be 08ec 07bd
000000d0: 8d56 e83d 74a2 ea3d 0376 ef3c 9f7a 38be
000000e0: dc54 ebbd 139f e6bc 59b5 54be 6e29 90be
000000f0: 34bc 2dbf 6ad0 9fbe eaec c43b 571b 67bd

encoder.latency_model.net.network.5.weight f4 [64]
1.0769562 1.0275279 0.9860455 0.9822373 1.071492 0.98653156 1.0360886 0.9459458
1.0224632 0.96142524 1.0367888 1.1531204 1.1618716 0.98032993 0.9518771 0.96200377
1.0353845 0.9918136 1.0284487 1.023362 1.0302596 1.0417515 1.0319325 1.0114809
0.99970734 1.035594 0.9396006 0.99976015 1.0328339 1.0371022 0.9710253 1.0079917
0.9819535 1.0260938 1.1116263 1.0417848 1.0242181 1.0426908 1.0956696 1.0737638
1.033782 1.0350814 1.336912 0.9848432 1.0056719 1.0478371 1.0933578 1.0896398
1.0392325 1.0448327 1.0563151 1.0750654 1.1240158 1.0880914 1.1195982 0.9575279
1.0581152 1.0580863 1.0535907 1.0274456 1.0066946 0.9967476 1.0542887 0.98861206
00000000: b3d9 893f 0986 833f 7a6d 7c3f e773 7b3f
00000010: a626 893f 558d 7c3f 8d9e 843f 8129 723f
00000020: 13e0 823f f71f 763f 7fb5 843f 7399 933f
00000030: 35b8 943f e7f6 7a3f 38ae 733f e145 763f
00000040: 7b87 843f 7fe7 7d3f 35a4 833f 87fd 823f
00000050: 8cdf 833f 1d58 853f 5d16 843f 3578 813f
00000060: d2ec 7f3f 588e 843f aa89 703f 48f0 7f3f
00000070: e733 843f c4bf 843f 1d95 783f df05 813f
00000080: 4e61 7b3f 0b57 833f c549 8e3f 3459 853f
00000090: 9419 833f e476 853f e73e 8c3f 1871 893f
000000a0: f852 843f 8c7d 843f ef1f ab3f af1e 7c3f
000000b0: dbb9 803f 871f 863f 26f3 8b3f 5179 8b3f
000000c0: 9205 853f 14bd 853f 5535 873f be9b 893f
000000d0: c0df 8f3f 9446 8b3f fe4e 8f3f 8c20 753f
000000e0: 5270 873f 5f6f 873f 0fdc 863f 5683 833f
000000f0: 5edb 803f da2a 7f3f eff2 863f ae15 7d3f

encoder.latency_model.net.network.5.bias f4 [64]
0.021370389 0.06488585 -0.046506573 0.05048576 -0.0044535226 0.058866628 -0.06592972 0.017716426
0.07705102 0.08660354 0.09170569 0.051923994 0.03838155 0.049494088 0.06416258 0.025192466
0.09695656 0.028804906 -0.11612843 0.07984823 0.08440429 0.10455837 0.0817184 0.039403718
0.05027121 0.08197425 0.047659647 0.07927529 0.07270749 -0.04590726 0.014468235 0.07649711
0.05743935 0.07987668 0.004229665 0.092001244 -0.026734194 0.07849586 0.0034292547 0.02274288
0.07639834 0.061618656 0.081621744 0.039137855 0.056998204 0.07737061 0.0792424 -0.009717734
0.072857805 0.023644421 0.05383461 0.011261271 0.022287088 -0.017036948 0.12499576 0.024402931
0.07880989 0.019999076 0.060888298 0.057695936 0.10310055 0.062683314 -0.010976115 0.039006677
00000000: f410 af3c dfe2 843d ad7d 3ebd 28ca 4e3d
00000010: dbee 91bb 221e 713d 2906 87bd 0a22 913c
00000020: edcc 9d3d 325d b13d 31d0 bb3d 41ae 543d
00000030: f935 1d3d 50ba 4a3d ac67 833d 6e60 ce3c
00000040: 2991 c63d 44f8 eb3c bed4 edbd 7887 a33d
00000050: 28dc ac3d b322 d63d fa5b a73d cb65 213d
00000060: 2fe9 4d3d 1ee2 a73d c336 433d 155b a23d
00000070: aae7 943d 4009 3cbd 2d0c 6d3c 84aa 9c3d
00000080: 8645 6b3d 6396 a33d 0099 8a3b 266b bc3d
00000090: ab01 dbbc 70c2 a03d 59bd 603b 474f ba3c
000000a0: bc76 9c3d d863 7c3d 4d29 a73d 044f 203d
000000b0: f376 693d 7b74 9e3d d749 a23d 2137 1fbc
000000c0: 7936 953d f2b1 c13c ae81 5c3d 3281 383c
000000d0: 6993 b63c 1291 8bbc c7fd ff3d a8e8 c73c
000000e0: 1467 a13d 1ad5 a33c 0266 793d 9352 6c3d
000000f0: 6226 d33d 1c60 803d 2ad5 33bc 77c5 1f3d

encoder.latency_model.net.network.5.running_mean f4 [64]
0.25280342 0.032803092 0.003560691 -0.12633102 -0.0524162 -0.2465239 0.30452567 0.20485547
-0.30146298 -0.03559737 -0.22645931 0.061653696 0.12237913 0.040367562 0.005732045 0.07781417
-0.47682747 -0.0648148 -0.011783129 -0.25435048 -0.40697408 -0.3094622 -0.5372873 -0.1316147
-0.39569032 -0.24254651 -0.05526926 -0.33184794 -0.4019279 -0.12188408 -0.30681393 -0.16647568
-0.08415822 -0.13173395 -0.016750326 -0.283987 -0.0770143 -0.31656182 0.0015088825 -0.025161553
-0.3611914 -0.5725885 -0.047244176 -0.075599514 -0.25146478 -0.08804347 -0.29555586 0.031368446
-0.40892252 -0.18153147 -0.28961512 0.285555 0.07165459 0.044953085 -0.17367058 -0.2979017
-0.23654482 -0.17304096 -0.18561967 -0.36994398 -0.7261976 -0.3163333 -0.20652348 -0.019901106
00000000: 736f 813e 895c 063d 7b5a 693b eb5c 01be
00000010: 5fb2 56bd c370 7cbe caea 9b3e a2c5 513e
00000020: 5b59 9abe 8cce 11bd f3e4 67be 9688 7c3d
00000030: e9a1 fa3d 7558 253d e1d3 bb3b 095d 9f3d
00000040: bb22 f4be 9fbd 84bd 060e 41bc 3a3a 82be
00000050: e85e d0be d471 9ebe a98b 09bf 01c6 06be
00000060: ec97 cabe 1d5e 78be 0562 62bd f9e7 a9be
00000070: 7ec9 cdbe 5c9e f9bd b716 9dbe 9a78 2abe
00000080: 255b acbd 44e5 06be fb37 89bc be66 91be
00000090: acb9 9dbd 6414 a2be b2c5 c53a 9a1f cebc
000000a0: 14ee b8be 2995 12bf 1c83 41bd ebd3 9abd
000000b0: febf 80be 2350 b4bd 1953 97be 337c 003d
000000c0: 4b5e d1be 63e3 39be 6f48 94be 4434 923e
000000d0: a4bf 923d ba20 383d b3d6 31be 9286 98be
000000e0: ce38 72be a631 31be 1513 3ebe 4c69 bdbe
000000f0: 16e8 39bf 70f6 a1be e47a 53be a507 a3bc

encoder.latency_model.net.network.5.running_var f4 [64]
0.13606162 0.2477388 0.19095843 0.24635546 0.10479666 0.3074299 0.19270633 0.5152679
0.28704637 0.40361753 0.3318557 0.3201458 0.22717442 0.593822 0.6307122 0.21277061
0.33048913 0.24763708 0.39959726 0.1461938 0.14653297 0.097082876 0.1391263 0.22162563
0.15211079 0.23352712 0.8114048 0.21833456 0.36359558 0.75830746 0.34354326 0.1875487
0.24187942 0.36063063 0.21611993 0.16326858 0.36243376 0.05748202 0.503506 0.3078561
0.27616683 0.13276854 0.5288521 0.7740302 0.18879245 0.04036763 0.40794647 0.10841125
0.12277083 0.13858387 0.2832231 0.10175326 0.27514556 0.23211825 0.4176154 0.35689482
0.059959736 0.16799082 0.29137966 0.10540588 0.106827274 0.15611467 0.36690056 0.16151054
00000000: bd53 0b3e 3daf 7d3e 9b8a 433e 9b44 7c3e
00000010: a29f d63d 7467 9d3e cf54 453e 99e8 033f
00000020: bef7 923e f5a6 ce3e fee8 a93e 26ea a33e
00000030: 69a0 683e b804 183f 5b76 213f 8ae0 593e
00000040: df35 a93e 9394 7d3e 0398 cc3e d4b3 153e
00000050: bd0c 163e 63d3 c63d 2077 0e3e d4f1 623e
00000060: eec2 1b3e bc21 6f3e 3ab8 4f3f 1893 5f3e
00000070: 3329 ba3e 7020 423f e7e4 af3e c40c 403e
00000080: 3daf 773e 94a4 b83e 8b4e 5d3e e12f 273e
00000090: eb90 b93e 4472 6b3d c5e5 003f 519f 9d3e
000000a0: bd65 8d3e 7af4 073e da62 073f d826 463f
000000b0: cf52 413e 8758 253d 5cde d03e b806 de3d
000000c0: 466f fb3d eee8 0d3e 9e02 913e 0364 d03d
000000d0: e1df 8c3e 68b0 6d3e b0d1 d53e ebba b63e
000000e0: 5798 753d c905 2c3e b72f 953e 0adf d73d
000000f0: 42c8 da3d 86dc 1f3e 64da bb3e 0563 253e

encoder.latency_model.attn_layer.atten_w f4 [20, 64, 1]
0.30689177 -0.24911413 0.32605693 0.014189611 -0.038372908 0.16279727 -0.21847686 -0.22075334
0.19264257 -0.21316165 0.15676536 -0.12256818 -0.110768795 -0.133362 0.20610645 -0.11854511
0.33288363 0.23365098 0.18213154 -0.15522557 -0.10508427 0.026806537 0.06648683 0.37250495
0.04527807 0.043214347 0.24732055 0.14733231 -0.101460084 0.33726874 -0.017536256 0.36877954
-0.031747926 -0.14736824 -0.16445073 0.18057497 -0.24918345 0.23538943 0.25723472 0.1210012
0.20229797 0.114538096 -0.37265864 -0.11265302 0.07688775 -0.078670435 0.19307223 0.09991098
-0.08860718 0.087831676 0.11640842 0.21381444 0.24875808 0.17634806 0.02003942 0.019744886
0.17892636 0.2695865 -0.11485446 0.298658 0.11352208 0.45713982 0.0053065545 -0.102323964
-0.27675027 -0.014369407 0.25033906 0.07008214 -0.019756274 0.1739911 0.35606277 -0.17185512
0.018656652 -0.09522259 0.2225276 0.44994888 0.2861041 0.24130481 0.36170876 0.25836995
0.2832094 0.08840113 0.25110936 0.0009181017 0.14511499 0.24955596 0.21011057 0.4770339
-0.027710468 0.06717216 -0.05736619 0.39027408 -0.023767328 0.31963584 0.0053130565 -0.023536574
0.34800765 0.39822614 0.361829 0.34577748 0.041541867 0.31044888 -0.2267268 0.0729266
0.34985036 0.055089224 0.2508235 -0.033731837 -0.18659088 0.26967454 -0.12507853 0.079000436
0.37542304 0.12938163 0.1042337 -0.0017690839 0.17988172 0.02819039 -0.043850396 0.38635033
0.46075603 0.24231076 -0.006261538 0.31457818 -0.059415247 -0.13081864 -0.060718298 0.051833175
0.01820542 0.31786442 0.3251604 0.31719717 0.0049811723 -0.136773 -0.1662148 0.30058637
0.029983718 0.18325025 0.37901485 0.015866257 0.07459813 0.2210835 0.08992506 -0.085751414
0.25008282 -0.21988311 -0.1707011 0.232604 0.08421424 0.12715606 -0.015529472 0.4826343
0.3142575 0.49192297 0.17934506 -0.15569162 0.15397708 0.41031596 0.083187975 0.0891252
0.3539974 0.4319821 0.31080616 0.29609823 0.17153123 0.31527856 0.32049552 -0.11897835
0.41275972 0.1658535 -0.08189451 0.32805997 0.2536026 -0.0712506 0.3848506 0.4360259
0.31186664 0.32325098 0.10289202 -0.25948822 0.28949365 0.23524976 0.45134136 0.37525094
0.24510114 0.35657454 0.35002953 0.44249532 0.12519689 0.29254648 0.2674235 -0.12184077
0.024382848 0.18319844 -0.09074643 -0.04638854 -0.057183128 0.025467046 0.06943454 0.045405068
-0.10866533 0.048560284 0.022484796 0.48123384 -0.1244022 -0.16015454 -0.2464556 0.26516217
-0.19862147 -0.034326702 0.061731413 0.23142564 0.074613445 0.27274418 0.22608605 0.08736943
-0.21863052 0.28371432 0.20076793 -0.04651932 0.06339096 -0.3823978 0.30756116 0.07850596
-0.009502617 0.3112439 0.29510322 -0.086299285 0.19508983 0.07182903 0.012882575 0.11204034
0.19573182 0.26338932 -0.052656688 -0.06510215 -0.18006413 -0.01656676 0.31392217 -0.09654421
-0.045147996 -0.013607505 -0.21646063 0.24119659 0.24148302 0.032205943 0.15592836 0.2891074
-0.093868315 0.26961258 0.1043186 0.34890983 0.09584479 -0.110494174 0.32416913 0.28872624
00000000: eb20 9d3e c617 7fbe eff0 a63e 8b7b 683c
00000010: e92c 1dbd 54b4 263e 66b8 5fbe 2a0d 62be
00000020: 1844 453e 0c47 5abe 1987 203e 0705 fbbd
00000030: c0da e2bd 0c90 08be 920d 533e c7c7 f2bd
00000040: b96f aa3e 3442 6f3e b180 3a3e 74f3 1ebe
00000050: 6c36 d7bd 6299 db3c 3f2a 883d f8b8 be3e
00000060: 7f75 393d 8701 313d 9941 7d3e 48de 163e
00000070: 4eca cfbd 7dae ac3e 32a8 8fbc acd0 bc3e
00000080: 1d0a 02bd b3e7 16be c665 28be a5e8 383e
00000090: f229 7fbe ed09 713e 45b4 833e 7acf f73d
000000a0: 3327 4f3e f392 ea3d 1dcd bebe a0b6 e6bd
000000b0: 5377 9d3d f71d a1bd bab4 453e 219e cc3d
000000c0: ae77 b5bd 18e1 b33d 8a67 ee3d 2cf2 5a3e
000000d0: 70ba 7e3e 9694 343e b629 a43c 07c0 a13c
000000e0: 7938 373e 3e07 8a3e d138 ebbd b4e9 983e
000000f0: 447e e83d 3b0e ea3e 9be2 ad3b 3a8f d1bd
00000100: 36b2 8dbe a96d 6bbc 712c 803e 3a87 8f3d
00000110: e9d7 a1bc b92a 323e dc4d b63e cafa 2fbe
00000120: d6d5 983c 1004 c3bd 46de 633e b35f e63e
00000130: 3d7c 923e 9c18 773e e431 b93e 1149 843e
00000140: d300 913e a70b b53d 6891 803e c3ac 703a
00000150: 0699 143e 998b 7f3e 3a27 573e ca3d f43e
00000160: 1001 e3bc 8f91 893d cff8 6abd 01d2 c73e
00000170: b3b3 c2bc 4fa7 a33e 2619 ae3b c6cf c0bc
00000180: 0f2e b23e 4ce4 cb3e a741 b93e bf09 b13e
00000190: ce27 2a3d 28f3 9e3e 122b 68be 8b5a 953d
000001a0: 961f b33e 3da5 613d f06b 803e 652a 0abd
000001b0: ae11 3fbe c812 8a3e 9614 00be fbca a13d
000001c0: 7337 c03e 9e7c 043e 7a78 d53d 9be0 e7ba
000001d0: ea32 383e 88ef e63c 799c 33bd b6cf c53e
000001e0: 37e8 eb3e 5020 783e 962d cdbb 6410 a13e
000001f0: 675d 73bd 52f5 05be c0b3 78bd 064f 543d
00000200: 8823 953c 20bf a23e 6d7b a63e ab67 a23e
00000210: 1a39 a33b 390e 0cbe 3634 2abe 75e6 993e
00000220: 6aa0 f53c f4a5 3b3e 3c0e c23e f4f9 813c
00000230: e8c6 983d b763 623e a12a b83d 709e afbd
00000240: db0a 803e 0a29 61be 45cc 2ebe be2f 6e3e
00000250: 8478 ac3d 3335 023e 546f 7ebc d81b f73e
00000260: 5ce6 a03e 54dd fb3e 3ba6 373e a06d 1fbe
00000270: 2bac 1d3e ef14 d23e 755e aa3d 4687 b63d
00000280: 263f b53e c22c dd3e fc21 9f3e 309a 973e
00000290: e2a5 2f3e 316c a13e fd17 a43e ecaa f3bd
000002a0: 3e55 d33e 80d5 293e 4fb8 a7bd 7af7 a73e
000002b0: 33d8 813e d6eb 91bd 230b c53e c93e df3e
000002c0: fcac 9f3e 2781 a53e 0db9 d23d a4db 84be
000002d0: 8338 943e 50e5 703e 3716 e73e e420 c03e
000002e0: cbfb 7a3e f090 b63e 1237 b33e bf8e e23e
000002f0: 9d33 003e a7c8 953e bceb 883e a787 f9bd
00000300: 8abe c73c 5f98 3b3e 44d9 b9bd e901 3ebd
00000310: db38 6abd 44a0 d03c b233 8e3d aafa 393d
00000320: ee8b debd 26e7 463d 0932 b83c 4864 f63e
00000330: 95c6 febd 8dff 23be db5e 7cbe 56c3 873e
00000340: 6d63 4bbe 289a 0cbd 14da 7c3d d8fa 6c3e
00000350: efce 983d 20a5 8b3e 1a83 673e beee b23d
00000360: aee0 5fbe 0143 913e 1c96 4d3e 0b8b 3ebd
00000370: 1fd3 813d a5c9 c3be a878 9d3e bcc7 a03d
00000380: ddb0 1bbc 5c5b 9f3e c517 973e aebd b0bd
00000390: a1c5 473e 191b 933d 7011 533c 6875 e53d
000003a0: ec6d 483e f7da 863e 8aae 57bd 4754 85bd
000003b0: bb62 38be 04b7 87bc 68ba a03e f9b8 c5bd
000003c0: 1bed 38bd 03f2 5ebc dba7 5dbe 3dfc 763e
000003d0: 5347 773e 61ea 033d afab 1f3e e305 943e
000003e0: 083e c0bd a90a 8a3e fda4 d53d 4fa4 b23e
000003f0: 464a c43d c54a e2bd 7ff9 a53e edd3 933e

encoder.latency_model.attn_layer.atten_bias f4 [20, 1, 1]
0.08848193 0.15896267 0.18922865 0.23177116 0.20336531 0.26594025 0.092856884 0.10539215
0.21520664 0.21489069 0.1864203 0.20381713 0.13762513 0.11968367 0.09264884 0.16618861
0.119550936 0.23045202 0.15848577 0.24990803
00000000: 0436 b53d 1cc7 223e 28c5 413e 6b55 6d3e
00000010: ff3e 503e 5229 883e c02b be3d d7d7 d73d
00000020: 215f 5c3e 4e0c 5c3e f7e4 3e3e 70b5 503e
00000030: 9aed 0c3e b61c f53d adbe bd3d 592d 2a3e
00000040: 1fd7 f43d 9dfb 6b3e 184a 223e e4e7 7f3e

encoder.cpu_model.net.network.0.weight f4 [32, 1, 3]
-0.27291793 0.2062065 0.43613735 0.34362382 0.5936483 -0.16901435 -0.3284481 -0.00062080094
-0.6069062 0.3902481 -0.40272537 0.25766334 -0.18300833 -0.18690844 -0.60717994 -0.26034823
0.0012234919 -0.49255276 -0.16174066 -0.022047129 -0.31535572 -0.089354955 -0.46976805 0.47149444
0.41133386 -0.44286498 0.38751432 -0.14375444 0.3585237 -0.58598715 0.1748694 -0.5295408
0.10946754 0.63806957 -0.13006924 0.17525432 -0.117373355 0.25011572 0.5498263 0.37333193
0.20725285 0.55391574 -0.1317441 0.007957865 0.14150217 0.28832513 -0.01880753 0.33694455
-0.442934 -0.18288209 -0.025481109 0.46317855 0.2143898 0.4991842 0.03378447 -0.08631436
0.24813853 -0.27497205 0.32451415 -0.28802708 -0.2791953 -0.037188157 -0.5357968 -0.5531533
0.39533043 -0.17585 -0.51834774 -0.43009105 -0.45457435 -0.12947331 -0.42229873 -0.036345836
0.12929894 0.14336024 0.020294398 -0.1281578 0.24686201 0.41863915 0.51702493 -0.42132702
0.2457318 0.22214222 -0.58684427 0.090652816 0.42139506 0.4520549 -0.48473784 -0.102582574
-0.35030398 0.5169192 0.19925684 0.4613384 0.48752818 -0.12687175 -0.28566113 -0.14090493
00000000: e6bb 8bbe cc27 533e 654d df3e 76ef af3e
00000010: 56f9 173f 1912 2dbe 592a a8be 3fbd 22ba
00000020: 345e 1bbf 99ce c73e 0532 cebe 73ec 833e
00000030: 8966 3bbe ed64 3fbe 2570 1bbf 5d4c 85be
00000040: 935d a03a e02f fcbe 589f 25be 2e9c b4bc
00000050: 4e76 a1be bbff b6bd 7085 f0be b867 f13e
00000060: 5a9a d23e 33bf e2be 4768 c63e 5d34 13be
00000070: 6b90 b73e 4103 16bf f710 333e fc8f 07bf
00000080: 8530 e03d 8758 233f df30 05be de75 333e
00000090: 7161 f0bd 2b0f 803e 6bc1 0c3f 5d25 bf3e
000000a0: 173a 543e 6ccd 0d3f ede7 06be b461 023c
000000b0: f2e5 103e 5a9f 933e 4012 9abc ff83 ac3e
000000c0: 3fc8 e2be 7145 3bbe c2bd d0bc bd25 ed3e
000000d0: 0089 5b3e 1295 ff3e 9661 0a3d 95c5 b0bd
000000e0: 0718 7e3e 23c9 8cbe b826 a63e 4978 93be
000000f0: b0f2 8ebe 9c52 18bd fb29 09bf 749b 0dbf
00000100: c068 ca3e 0612 34be 70b2 04bf e534 dcbe
00000110: f8bd e8be a794 04be 8a37 d8be 5fdf 14bd
00000120: f166 043e 07cd 123e 7040 a63c cc3b 03be
00000130: 65c9 7c3e df57 d63e bf5b 043f 2db8 d7be
00000140: 1ea1 7b3e 4079 633e 6d3b 16bf 2fa8 b93d
00000150: 18c1 d73e bd73 e73e 8f2f f8be d016 d2bd
00000160: 0b5b b3be d154 043f fc09 4c3e 8c34 ec3e
00000170: 4b9d f93e abea 01be 2d42 92be 6249 10be

encoder.cpu_model.net.network.0.bias f4 [32]
-0.25971702 0.3861241 0.51883596 0.48470676 0.11679692 0.21619372 0.54686034 -0.5760202
-0.2131661 0.15911931 0.15679097 0.4188317 0.37963077 0.44345924 -0.5720562 -0.5628548
-0.50521 0.048629474 -0.39087167 0.42556518 0.5676003 -0.02447551 0.56422246 0.19676895
0.56089574 -0.42243525 0.5277197 0.551789 0.13721511 -0.2120355 0.4406799 -0.4737225
00000000: a1f9 84be 0fb2 c53e 6fd2 043f 7c2b f83e
00000010: 3933 ef3d e361 5d3e 0aff 0b3f 0f76 13bf
00000020: 3748 5abe 2cf0 223e d08d 203e 1c71 d63e
00000030: f75e c23e 170d e33e 4672 12bf 4117 10bf
00000040: 7155 01bf b32f 473d 5520 c8be aee3 d93e
00000050: 414e 113f dd80 c8bc e270 103f cd7d 493e
00000060: dd96 0f3f 6f49 d8be a318 073f 0b42 0d3f
00000070: 1e82 0c3e d61f 59be cca0 e13e c18b f2be

encoder.cpu_model.net.network.1.weight f4 [32]
0.9561708 0.9683547 1.050314 1.0306056 1.0066606 1.0885496 1.0676755 0.9889211
0.9944631 1.0491856 1.0358101 0.98148286 1.004573 0.9461116 1.0089377 1.022398
1.0286279 0.9594576 0.9699181 1.0521411 1.0682434 1.0390096 1.0320938 1.0657575
1.0146676 1.0005642 0.932927 1.0349026 1.0326303 1.0012528 1.0039384 1.030971
00000000: 9cc7 743f 18e6 773f b070 863f e2ea 833f
00000010: 41da 803f 9855 8b3f 97a9 883f ef29 7d3f
00000020: 2295 7e3f b74b 863f 6d95 843f 7642 7b3f
00000030: d995 803f 5f34 723f df24 813f f0dd 823f
00000040: 14aa 833f 039f 753f 8d4c 783f 8fac 863f
00000050: 33bc 883f 44fe 843f a61b 843f be6a 883f
00000060: a1e0 813f 7d12 803f 4ed4 6e3f b077 843f
00000070: 3b2d 843f 0d29 803f 0e81 803f dcf6 833f

encoder.cpu_model.net.network.1.bias f4 [32]
-0.014173764 0.018000819 0.07071412 0.03367536 0.08294857 0.065530285 0.070845746 -0.026079936
0.039228465 0.027365709 0.05754375 -0.03465596 0.0041870195 -0.048839856 -0.042553954 0.021827087
0.030770058 0.020206941 0.027039347 0.072138496 0.0814497 -0.0013138017 0.043333475 0.050322276
-0.01971133 -0.0219634 -0.06471658 -0.042050455 0.012373404 -0.0049004243 -0.004395297 0.037810035
00000000: 1339 68bc 7476 933c 91d2 903d 2def 093d
00000010: f1e0 a93d be34 863d 9317 913d 97a5 d5bc
00000020: 07ae 203d 0d2e e03c ffb2 6b3d 68f3 0dbd
00000030: 4433 893b 4d0c 48bd 0e4d 2ebd b8ce b23c
00000040: 7d11 fc3c 0789 a53c 9f81 dd3c 59bd 933d
00000050: 1acf a63d df33 acba 717e 313d bb1e 4e3d
00000060: a879 a1bc 97ec b3bc 208a 84bd 193d 2cbd
00000070: d1b9 4a3c bd93 a0bb 6c06 90bb b2de 1a3d

encoder.cpu_model.net.network.1.running_mean f4 [32]
104.001175 216.81165 -263.40546 70.2906 -276.10745 -212.24605 -140.5105 -26.522034
100.651955 -105.18923 -69.89303 193.57559 193.64331 320.95105 5.1777368 170.3808
-184.26982 332.21246 55.20004 -66.0888 -239.7105 -94.839775 -395.6213 -165.60416
83.36271 151.76118 97.22106 -77.503105 110.09101 18.97406 324.6272 -156.83115
00000000: 9a00 d042 c8cf 5843 e6b3 83c3 ca94 8c42
00000010: c10d 8ac3 fd3e 54c3 b082 0cc3 202d d4c1
00000020: cd4d c942 e360 d2c2 3bc9 8bc2 5a93 4143
00000030: b0a4 4143 bc79 a043 05b0 a540 7c61 2a43
00000040: 1345 38c3 321b a643 d7cc 5c42 772d 84c2
00000050: e3b5 6fc3 f7ad bdc2 87cf c5c3 aa9a 25c3
00000060: b5b9 a642 ddc2 1743 2f71 c242 9701 9bc2
00000070: 992e dc42 e0ca 9741 4850 a243 c6d4 1cc3

encoder.cpu_model.net.network.1.running_var f4 [32]
65017.67 238183.17 333842.62 27578.695 368818.6 216443.19 95410.195 16217.169
53252.703 60676.52 30319.256 183409.83 190322.67 491464.6 1970.2583 139340.61
166018.75 527007.94 16021.641 23656.574 276764.94 50073.47 752702.25 135503.42
33459.5 119113.48 50656.617 37829.76 82474.1 14013.391 508066.9 118490.37
00000000: acf9 7d47 cb99 6848 5402 a348 6475 d746
00000010: 5316 b448 cc5e 5348 1959 ba47 ad64 7d46
00000020: b404 5047 8504 6d47 83de ec46 751c 3348
00000030: abdc 3948 13f9 ef48 4448 f644 2713 0848
00000040: b020 2248 ffa9 0049 9056 7a46 26d1 b846
00000050: 9e23 8748 7899 4347 e4c3 3749 db53 0448
00000060: 80b3 0247 bda4 e847 9ee0 4547 c3c5 1347
00000070: 0d15 a147 90f5 5a46 5d14 f848 2f6d e747

encoder.cpu_model.net.network.4.weight f4 [64, 32, 3]
0.09149605 0.051426873 -0.0887434 0.028651671 0.131607 0.05639018 0.094337106 0.068075694
-0.001420454 -0.06487766 0.05589058 -0.005448569 -0.005521029 0.10033492 -0.005175962 -0.017786538
0.052710082 -0.07903866 0.05275486 0.09644123 -0.056827325 -0.11941682 0.049542338 0.040241998
0.11449873 0.102658145 0.08513486 0.045275196 0.08213466 -0.052461438 -0.100422576 0.038315997
0.11097686 0.11215788 0.013926 0.0021247354 0.005414284 0.09271151 -0.0029641818 -0.07204921
0.078126304 -0.07530829 0.042554677 0.0092886975 0.01042698 0.03219446 0.02131778 -0.087705575
0.11301837 -0.005825997 -0.015614311 0.08347268 0.1743277 0.024241103 -0.0015999705 0.09298263
-0.0130766705 0.13739906 -0.06028125 0.10122793 0.055963404 0.0056357966 -0.08084788 -0.01279301
-0.017404627 0.05860313 -0.028756414 0.09794267 -0.029393714 -0.04158355 0.064675786 0.084360614
0.10009916 0.18442927 0.09028623 0.14222713 -0.031253003 -0.05691715 0.022631707 0.08888535
-0.02372281 -0.05637166 -0.051249012 0.11506114 0.08926706 0.17272799 0.06401478 0.07061582
0.030215126 0.10372305 -0.057183616 0.06942864 0.064119734 -0.005051855 -0.0382846 -0.048198737
-0.084093235 -0.08997949 -0.12993398 0.010524901 -0.09403224 -0.05361995 -0.119287856 -0.005592513
0.03375413 -0.010138184 -0.017501116 -0.1040756 0.06377584 0.034365274 0.02174464 -0.0210754
-0.075998746 -0.009475405 -0.08270634 0.07049143 -0.015071848 -0.038165588 -0.104651295 -0.13443156
-0.040432714 0.020843286 -0.05868751 -0.094533205 0.034235884 -0.043918084 0.07228191 -0.10285214
-0.04316763 -0.07202737 -0.013819451 -0.003899257 0.017921532 0.032587554 0.023825143 -0.112492844
-0.09937076 -0.027015109 0.12787318 0.017494105 0.027765118 -0.113503255 -0.08120674 -0.123767175
0.019705145 -0.074110106 -0.04443381 -0.07249669 -0.11622953 -0.11688355 -0.030286979 -0.030151341
-0.00920888 -0.05043344 -0.038831502 -0.0026317039 0.030553665 -0.09985867 -0.06141291 -0.076660156
-0.11034904 -0.07830951 0.009972877 -0.11114797 0.015179824 0.041760262 -0.0069243093 -0.018249232
-0.055116147 -0.10891188 0.06483288 -0.11176583 -0.109221146 0.014835833 -0.110086024 -0.06827929
0.03975558 -0.02642445 0.05452692 -0.07128184 -0.119331814 -0.083303496 0.021945769 0.011687153
0.04185603 -0.13669881 -0.0818098 0.021672297 -0.0903068 0.0069148196 -0.0262943 -0.100706495
0.08524068 -0.12839688 -0.073313035 0.036423117 -0.10835706 0.04015515 0.016373575 -0.00941279
0.06279541 0.009137974 -0.04052785 -0.17865878 -0.042886566 0.077807404 0.04619376 -0.03483703
0.10283635 -0.09027752 -0.042405248 0.10601812 0.032781217 -0.07362217 0.056960855 0.04734021
0.015763702 0.02789252 -0.09523999 -0.02344374 -0.089545034 -0.094111405 -0.0122148795 -0.07628341
0.029166704 -0.013366669 -0.030548064 -0.09147749 -0.040264964 -0.05796392 -0.04297104 -0.06867885
-0.12153073 0.047376934 0.08716452 0.051273752 0.10979328 -0.15755482 -0.05284416 -0.12092367
-0.08955987 -0.01527555 0.053845055 -0.03267988 -0.04156782 -0.14364606 -0.010081076 -0.0107182395
-0.03220122 -0.06774692 -0.0839076 -0.0184577 0.033110835 -0.028611196 -0.013842624 0.09513831
00000000: 4862 bb3d fca4 523d 1abf b5bd e9b6 ea3c
00000010: fcc3 063e 64f9 663d d033 c13d 456b 8b3d
00000020: 872e baba 94de 84bd 85ed 643d e989 b2bb
00000030: bfe9 b4bb 657c cd3d 1e9b a9bb 13b5 91bc
00000040: 87e6 573d 05df a1bd 7b15 583d fb82 c53d
00000050: c5c3 68bd ce90 f4bd e8ec 4a3d cbd4 243d
00000060: 4f7e ea3d 6f3e d23d 2f5b ae3d 7c72 393d
00000070: 3736 a83d cee1 56bd 5aaa cdbd 3cf1 1c3d
00000080: d647 e33d 08b3 e53d e129 643c 253f 0b3b
00000090: 4e6a b13b 88df bd3d b842 42bb 898e 93bd
000000a0: af00 a03d 3c3b 9abd d04d 2e3d 9f2f 183c
000000b0: edd5 2a3c 57de 033d a0a2 ae3c fb9e b3bd
000000c0: 2d76 e73d 01e8 bebb 2bd3 7fbc b9f3 aa3d
000000d0: f682 323e 4795 c63c 1ab6 d1ba ad6d be3d
000000e0: 883f 56bc 57b2 0c3e 79e9 76bd 9750 cf3d
000000f0: e239 653d 7dac b83b 9393 a5bd c699 51bc
00000100: 2694 8ebc d609 703d 9292 ebbc 2b96 c83d
00000110: 16cb f0bc 8353 2abd bd74 843d 42c5 ac3d
00000120: ca00 cd3d 07db 3c3e fde7 b83d fda3 113e
00000130: 2603 00bd f521 69bd 2166 b93c 8609 b63d
00000140: 5756 c2bc f8e5 66bd 7cea 51bd 2da5 eb3d
00000150: a6d1 b63d 9bdf 303e 2e1a 833d 079f 903d
00000160: b685 f73c c06c d43d 5e39 6abd 9a30 8e3d
00000170: 3551 833d 088a a5bb 50d0 1cbd 0a6c 45bd
00000180: 1339 acbd 2b47 b8bd 6a0d 05be a270 2c3c
00000190: fa93 c0bd 98a0 5bbd 314d f4bd 6641 b7bb
000001a0: c541 0a3d a01a 26bc 805e 8fbc 9725 d5bd
000001b0: e89c 823d 9ac2 0c3d d121 b23c 51a6 acbc
000001c0: 3ba5 9bbd bb3e 1bbc f161 a9bd d05d 903d
000001d0: eaef 76bc 8553 1cbd 6b53 d6bd 6da8 09be
000001e0: c69c 25bd 8abf aa3c 5162 70bd a09a c1bd
000001f0: ed3a 0c3d 73e3 33bd 8a08 943d 25a4 d2bd
00000200: 8ad0 30bd 1683 93bd fb6a 62bc ad8a 7fbb
00000210: 2dd0 923c 877a 053d f22c c33c a662 e6bd
00000220: e682 cbbd ca4e ddbc 30f1 023e cc4f 8f3c
00000230: ac73 e33c 6574 e8bd b84f a6bd a579 fdbd
00000240: af6c a13c 0ac7 97bd 3a00 36bd 2579 94bd
00000250: bf09 eebd a560 efbd 661c f8bc f2ff f6bc
00000260: d8e0 16bc 4b93 4ebd c80d 1fbd aa78 2cbb
00000270: ae4b fa3c b482 ccbd 1b8c 7bbd 0000 9dbd
00000280: adfe e1bd bd60 a0bd 4765 233c 8ca1 e3bd
00000290: ccb4 783c cf0c 2b3d 51e5 e2bb 6a7f 95bc
000002a0: 78c1 61bd 310d dfbd 1ac7 843d 7ce5 e4bd
000002b0: 56af dfbd fe11 733c c874 e1bd 03d6 8bbd
000002c0: bfd6 223d 1778 d8bc 9f57 5f3d 37fc 91bd
000002d0: 3d64 f4bd 069b aabd 9dc7 b33c 797b 3f3c
000002e0: 3a71 2b3d c6fa 0bbe e58b a7bd 1a8a b13c
000002f0: c6f2 b8bd b695 e23b 2567 d7bc 353f cebd
00000300: aa92 ae3d 797a 03be 2525 96bd 6830 153d
00000310: 4eea ddbd ba79 243d e021 863c 1a38 1abc
00000320: e19a 803d 71b7 153c 8800 26bd 54f2 36be
00000330: d3a9 2fbd 7d59 9f3d ab35 3d3d 46b1 0ebd
00000340: dd9b d23d 6ce3 b8bd 20b1 2dbd 0720 d93d
00000350: 9945 063d 38c7 96bd c94f 693d cfe7 413d
00000360: e122 813c db7e e43c 2f0d c3bd 160d c0bc
00000370: 6363 b7bd 7bbd c0bd eb20 48bc 7a3a 9cbd
00000380: 03ef ee3c e0ff 5abc ef3f fabc 8d58 bbbd
00000390: e0ec 24bd 936b 6dbd 6702 30bd 7fa7 8cbd
000003a0: 1ae5 f8bd 510e 423d 5083 b23d 6d04 523d
000003b0: 4ddb e03d 0d56 21be 1e73 58bd d4a6 f7bd
000003c0: 2a6b b7bd 4d46 7abc a28c 5c3d 56db 05bd
000003d0: 0543 2abd f417 13be 192b 25bc 8e9b 2fbc
000003e0: 6de5 03bd e6be 8abd bfd7 abbd 9a34 97bc
000003f0: 3a9f 073d 0762 eabc 2ccc 62bc e0d7 c23d

encoder.cpu_model.net.network.4.bias f4 [64]
-0.07916991 0.08323945 0.0034685247 0.098762594 -0.06989739 -0.12424738 0.024452047 -0.051227685
0.046293497 -0.0959324 0.0129851885 -0.02177348 -0.049005624 -0.031693585 0.075047866 -0.021179546
-0.002402827 0.015232474 0.006634019 0.05005891 0.03540725 0.007915808 -0.14709048 0.0567811
0.033604894 -0.09701104 -0.1846832 -0.035875063 -0.011809561 -0.024851846 -0.08084868 -0.07525224
-0.03167429 0.068993114 -0.01205959 -0.009220261 -0.10368991 -0.027010227 -0.0072653773 0.08818251
-0.07293088 0.07564976 -0.08080525 -0.07711044 -0.02402402 -0.013624911 0.08781069 -0.036651984
-0.030090706 0.018670645 0.08278623 -0.03125422 -0.016300268 -0.005903786 0.01286742 0.02027501
-0.012923546 0.0058039264 0.099617384 -0.065772094 0.12083393 -0.07091898 -0.015231689 -0.1713046
00000000: d523 a2bd 7279 aa3d 3050 633b 0b44 ca3d
00000010: 5d26 8fbd 6975 febd a94f c83c 1fd4 51bd
00000020: 409e 3d3d 3578 c4bd d4bf 543c 4c5e b2bc
00000030: 1fba 48bd 22d1 01bd b2b2 993d ba80 adbc
00000040: bf78 1dbb a091 793c 2f62 d93b 920a 4d3d
00000050: 3107 113d 4eb1 013c e39e 16be 4c93 683d
00000060: 49a5 093d b9ad c6bd 981d 3dbe bbf1 12bd
00000070: e47c 41bc 1996 cbbc fe93 a5bd d91d 9abd
00000080: e6bc 01bd 434c 8d3d 9695 45bc 9410 17bc
00000090: 605b d4bd 8d44 ddbc 6712 eebb 0899 b43d
000000a0: c95c 95bd 43ee 9a3d 397d a5bd 14ec 9dbd
000000b0: 06ce c4bc 053b 5fbc 17d6 b33d 6420 16bd
000000c0: c980 f6bc 2ef3 983c d48b a93d 6d04 00bd
000000d0: 2488 85bc 8c74 c1bb dfd1 523c c717 a63c
000000e0: 48bd 53bc dd2e be3b 3304 cc3d 85b3 86bd
000000f0: c877 f73d f83d 91bd 568e 79bc 796a 2fbe

encoder.cpu_model.net.network.5.weight f4 [64]
0.9638191 1.0602788 1.0020344 1.0216811 1.0464493 1.1522491 0.9951008 0.96823794
1.1150486 1.0488462 0.9925558 1.0268576 0.9993815 0.99099344 0.9826184 0.98299766
1.0157031 1.1472557 0.94662136 1.1365284 0.95749533 0.9261834 1.0703237 1.1465459
1.0390257 0.8858005 1.005895 1.0485466 1.0542768 1.0099785 1.0606745 0.97276044
0.9611348 0.98378605 0.9462353 1.0203446 1.0586922 1.0091461 1.0699917 0.988675
1.0018878 0.91484547 0.9581033 0.9795246 0.9858137 1.0655409 0.97788894 0.99476856
0.97332174 0.9603722 0.9524976 0.9785668 1.0305874 0.98870987 1.0376275 1.0242292
1.1121966 1.0077664 1.0074413 1.1093403 0.99595 1.006228 1.0554702 1.1001543
00000000: d9bc 763f 37b7 873f aa42 803f 72c6 823f
00000010: 0df2 853f e67c 933f edbe 7e3f 71de 773f
00000020: eab9 8e3f 9840 863f 2318 7e3f 1270 833f
00000030: 77d7 7f3f bfb1 7d3f e18c 7b3f bca5 7b3f
00000040: 8f02 823f 46d9 923f c755 723f c379 913f
00000050: 6a1e 753f 5b1a 6d3f 5e00 893f 04c2 923f
00000060: cbfe 843f d2c3 623f 2bc1 803f c636 863f
00000070: 8bf2 863f fa46 813f 2fc4 873f d406 793f
00000080: ee0c 763f 67d9 7b3f 7a3c 723f a79a 823f
00000090: 3a83 873f b32b 813f 7df5 883f ce19 7d3f
000000a0: dc3d 803f 5033 6a3f 4246 753f 20c2 7a3f
000000b0: 495e 7c3f a563 883f ee56 7a3f 27a9 7e3f
000000c0: 9d2b 793f f4da 753f e2d6 733f 5b83 7a3f
000000d0: 4aea 833f 171c 7d3f fad0 843f f119 833f
000000e0: 755c 8e3f 7dfe 803f d6f3 803f ddfe 8d3f
000000f0: 94f6 7e3f 14cc 803f a619 873f dbd1 8c3f

encoder.cpu_model.net.network.5.bias f4 [64]
-0.043903243 -0.012461371 -0.0018344413 -0.014356513 0.057281774 0.050234936 -0.021595625 -0.027069876
0.046510495 0.00892405 -0.0050847186 0.05969512 -0.05751301 -0.007847021 -0.016574904 -0.12116197
0.00045947984 0.05858198 -0.019578163 0.04917679 -0.037184775 -0.059923027 0.008551518 -0.028218076
0.036502756 -0.058459863 0.0060889805 -0.006444405 -0.08875834 -0.01223764 0.015830275 -0.022307353
-0.06819699 -0.022440843 -0.098071545 0.023505805 -0.0017865316 -0.048839256 0.026965661 -0.024662869
-0.005589258 -0.07573973 -0.067744166 -0.03220123 -0.050293133 0.019965198 -0.04351899 -0.041970402
-0.027223403 -0.04870506 -0.05308753 -0.06770315 -0.010405165 -0.018789163 -0.016041124 -0.05540777
0.023245031 -0.04033658 0.016525535 -0.0026158625 -0.06525007 -0.010174733 0.025650846 0.04283749
00000000: e3d3 33bd c72a 4cbc a371 f0ba 9437 6bbc
00000010: 4ba0 6a3d 26c3 4d3d 4fe9 b0bc a5c1 ddbc
00000020: ca81 3e3d 2e36 123c b69d a6bb df82 743d
00000030: c392 6bbd cb90 00bc 18c8 87bc c423 f8bd
00000040: 57e6 f039 a9f3 6f3d 6262 a0bc 9a6d 493d
00000050: 104f 18bd d971 75bd ab1b 0c3c 9829 e7bc
00000060: ea83 153d 9c73 6fbd 1286 c73b 962b d3bb
00000070: efc6 b5bd 6280 48bc 7eae 813c e9bd b6bc
00000080: ddaa 8bbd dcd5 b7bc bcd9 c8bd 3f8f c03c
00000090: 0e2a eaba ac0b 48bd 17e7 dc3c c909 cabc
000000a0: 1826 b7bb 6e1d 9bbd 74bd 8abd 70e5 03bd
000000b0: 2c00 4ebd 0e8e a33c f840 32bd 28e9 2bbd
000000c0: 9d03 dfbc f57e 47bd 4f72 59bd f3a7 8abd
000000d0: 6d7a 2abc bbeb 99bc ad68 83bc 42f3 62bd
000000e0: 5d6c be3c f837 25bd 8f60 873c e46e 2bbb
000000f0: d4a1 85bd ecb3 26bc b921 d23c 5d76 2f3d

encoder.cpu_model.net.network.5.running_mean f4 [64]
0.5222141 -0.671411 -0.49685857 -0.4964203 -0.54983675 -0.93133885 -0.5633919 0.696735
1.0662935 0.7413353 0.481702 0.86406296 -0.65930456 -0.38737836 0.5344084 0.34423795
-0.1284812 -1.0287335 0.44132242 -0.7672519 0.7410302 0.57354724 1.1415926 -1.2916734
-0.5312262 0.18921776 0.66277874 -1.0013599 0.7646158 -0.37084746 0.9965079 0.08310623
0.37963614 0.378723 -0.41006565 -0.26982024 1.097436 -0.5733409 1.0698372 0.6616688
0.20883961 0.3737236 0.49680805 0.5196494 0.51966405 0.9854439 0.66957515 0.83508134
0.6176949 -0.07786957 0.8016963 0.5329998 0.92550486 0.41884965 1.1092268 0.8959529
-0.90227854 -0.22741947 0.52466995 -1.5410209 1.4675899 0.17330727 -0.31091568 -0.2941889
00000000: d3af 053f 97e1 2bbf 3f64 febe cd2a febe
00000010: 1ac2 0cbf 396c 6ebf 743a 10bf 3a5d 323f
00000020: 4e7c 883f 26c8 3d3f a5a1 f63e 3b33 5d3f
00000030: 2fc8 28bf 7556 c6be fdce 083f f53f b03e
00000040: 9390 03be 8aad 83bf 03f5 e13e 9f6a 44bf
00000050: 28b4 3d3f fed3 123f b51f 923f 8e55 a5bf
00000060: 71fe 07bf 4dc2 413e deab 293f 902c 80bf
00000070: dcbd 433f b8df bdbe 241b 7f3f 9933 aa3d
00000080: ab5f c23e fbe7 c13e 20f4 d1be e125 8abe
00000090: c878 8c3f 78c6 12bf 6df0 883f 2063 293f
000000a0: 0dda 553e b358 bf3e a05d fe3e be07 053f
000000b0: b408 053f 0d46 7c3f 4769 2b3f e4c7 553f
000000c0: 4121 1e3f 157a 9fbd f83b 4d3f ad72 083f
000000d0: e3ed 6c3f 7673 d63e 25fb 8d3f 2b5d 653f
000000e0: bafb 66bf a6e0 68be c550 063f 2c40 c5bf
000000f0: fcd9 bb3f 7677 313e 5730 9fbe ed9f 96be

encoder.cpu_model.net.network.5.running_var f4 [64]
2.3790681 2.6360486 1.8536769 4.308778 2.0953395 5.2736077 1.5819618 0.26636356
1.6070693 1.980194 2.8186936 0.6421869 2.2901742 2.1363955 1.3308 0.5374779
2.0595112 8.792246 1.363724 5.1246505 3.7546554 2.9109106 0.98540324 0.78237134
2.2606533 0.6199109 0.71310735 0.6369709 2.0960023 1.552074 0.937078 1.3610271
0.89047724 1.7185792 1.1242565 1.918497 1.3530711 4.67353 1.1536503 3.017086
1.9618353 0.8256447 2.1046417 2.5358644 1.8328756 0.7954378 1.8315623 0.4137739
4.6142673 0.30958408 0.9408142 1.2154315 0.56209075 4.3975005 0.61368835 3.0699382
14.048317 0.62742025 0.53799677 0.9148747 0.7486656 0.61777115 2.9525936 1.4277635
00000000: a742 1840 05b5 2840 4945 ed3f 82e1 8940
00000010: 0b1a 0640 65c1 a840 b97d ca3f ce60 883e
00000020: 72b4 cd3f ff76 fd3f 7a65 3440 5c66 243f
00000030: 3792 1240 b4ba 0840 a857 aa3f 2798 093f
00000040: 08cf 0340 0aad 0c41 828e ae3f 23fd a340
00000050: 464c 7040 5c4c 3a40 6343 7c3f 7d49 483f
00000060: 8bae 1040 7bb2 1e3f 348e 363f 8610 233f
00000070: e724 0640 5caa c63f 58e4 6f3f 2336 ae3f
00000080: 51f6 633f 67fa db3f a3e7 8f3f 4f91 f53f
00000090: 6f31 ad3f 8f8d 9540 d0aa 933f f017 4140
000000a0: 6b1d fb3f 735d 533f 73b2 0640 9a4b 2240
000000b0: ab9b ea3f d0a1 4b3f a270 ea3f 2cda d33e
000000c0: 14a8 9340 ce81 9e3e 33d9 703f 4293 9b3f
000000d0: 2ee5 0f3f 53b8 8c40 ae1a 1d3f de79 4440
000000e0: e8c5 6041 9d9e 203f 28ba 093f 3a35 6a3f
000000f0: 8ca8 3f3f 4026 1e3f 4bf7 3c40 f4c0 b63f
