results/d07fe124/model.ckpt (torch_old, 651797 bytes, 89 tensors)

encoder.latency_model.net.network.0.weight f4 [32, 1, 3]
00000000: dd68 c43e 1007 16bf 41e5 1ebe cf1c c83d
00000010: 9161 c43e b0b3 173e a495 863c 8344 903e
00000020: ab54 683e b22a 5bbe 1fa3 cf3e 795f 7f3d
00000030: dcd9 d4bc b598 d7bd 8288 bd3e 39bf fd3e
00000040: 42b5 0f3f 5833 9dbe 68f8 cabe f365 43be
00000050: f3b5 b8be 69bc 0fbf 085d 063f e0d2 ce3e
00000060: dcb2 0abf 6e17 b2bd fc95 ca3d 78d3 0bbf
00000070: dbbc d73e b94b 95be c4e1 1f3e f9e0 c5be
00000080: c764 0bbf 32e9 2abe 3a6b 38bc 4d4c 83be
00000090: 74a5 683e 5b04 a43e d892 a33e 42e2 8dbc
000000a0: e196 86be 658c c0bd 7374 e63e 35a4 0dbe
000000b0: 5e4e 553b e72d 2a3d 9216 153d 1f07 b6bd
000000c0: e0cf a3be 4de6 ce3e 2666 0d3f cd07 e9bd
000000d0: 94d0 923e a84e 113f 71c7 1a3e d316 db3e
000000e0: c804 f63e 2533 7c3e faee c1be ceb2 c1be
000000f0: d6d4 c2be 38b4 023f 3e60 febd 9e38 85be
00000100: dc23 e23e 57f9 ba3e 7eb4 70bd 59c5 e1be
00000110: f77a 85be 66d3 84be 439c 903e 77fa 86bc
00000120: acc5 f0be 541f c6be ee53 bbbe 01d1 f2bc
00000130: e031 a3be ed3f b5bd a568 403e e6ad 3bbe
00000140: e4e7 863e efec 0abf cd07 053f c974 0b3c
00000150: 6dea 1fbf 3cc2 4ebc 18ef d0be b843 5fbe
00000160: 194d 4bbe ec42 d8bd f9cc 21be 0422 993d
00000170: 0e10 eabe a39d d9bd 361a 5e3e 6726 f13e
0.38361254 -0.58604527 -0.15517141 0.0977112 0.38355687 0.14814639 0.016428776 0.2817727
0.22688548 -0.21403006 0.4055414 0.06234691 -0.02598279 -0.105271734 0.3701821 0.49559954
0.5613595 -0.30703235 -0.39642644 -0.1908186 -0.36076316 -0.56146866 0.52485704 0.4039526
-0.5417917 -0.08695875 0.098918885 -0.5461955 0.42136273 -0.29159334 0.15613467 -0.38648203
-0.5445065 -0.1669052 -0.011256034 -0.2564415 0.22719365 0.32034573 0.3194797 -0.017319802
-0.26286986 -0.09401778 0.4501072 -0.13832171 0.0032547931 0.041547682 0.036398478 -0.08888077
-0.31994534 0.4041008 0.5523399 -0.11378441 0.28674757 0.56760645 0.15115143 0.4279085
0.48050523 0.24628885 -0.37877637 -0.3783173 -0.38053006 0.5105624 -0.124207005 -0.26019758
0.44167984 0.36518356 -0.05876588 -0.44095877 -0.26070377 -0.25942534 0.28244218 -0.016476853
-0.47025812 -0.38695776 -0.3658747 -0.029640676 -0.3187399 -0.088500835 0.18789919 -0.18328056
0.26348794 -0.5426778 0.5196503 0.0085117305 -0.6246708 -0.012619551 -0.40807414 -0.21803176
-0.19853629 -0.10559639 -0.15800847 0.07477191 -0.45715374 -0.1062577 0.21689686 0.4709961

encoder.latency_model.net.network.0.bias f4 [32]
00000000: 9320 21be 909c dc3e 1777 c03d 5708 adbe
00000010: bedb c4be a426 db3d 64eb 8ebe 14c8 cb3e
00000020: 6b45 a7be e0e8 833e 5f5a fcbe b7d8 9fbe
00000030: d3d5 afbe 4f48 d33e ff94 d2be d720 b93e
00000040: 7b24 093f f96e 92be 1a2d 07bf 0d7e ed3e
00000050: 5ae5 6f3e 74b9 aebd d23c e53e eb0c 843d
00000060: 165f 053e 0213 80be d348 8dbd 660e 043f
00000070: 5327 88bd d37e 0abf c470 d83e 5384 ffbe
-0.15735082 0.43088198 0.093977146 -0.33795425 -0.384489 0.107007295 -0.27913964 0.39801085
-0.3267015 0.25763607 -0.49287698 -0.31220028 -0.34342822 0.41266105 -0.411293 0.36157867
0.5357129 -0.2860029 -0.52803195 0.46385232 0.23427334 -0.08531466 0.44772965 0.064477764
0.13024554 -0.25014502 -0.06898656 0.5158447 -0.066481255 -0.5409977 0.42273533 -0.49905643

encoder.latency_model.net.network.1.weight f4 [32]
00000000: 75a7 7a3f 1268 7c3f 46d5 753f 1a76 7e3f
00000010: a383 753f 8d7d 733f 8689 833f b6a3 7a3f
00000020: f67a 833f 511e 833f 71c9 813f 8603 853f
00000030: 5109 773f 9d91 803f 9da6 773f dd5d 883f
00000040: 6637 793f 83e9 7b3f ce6a 7f3f d55b 813f
00000050: 294f 843f 5ad0 7e3f bf4b 803f 636d 803f
00000060: fa8d 813f 17d8 803f f061 7b3f c663 813f
00000070: 8e43 833f e5aa 833f c6b9 813f 38f0 7a3f
0.9791177 0.985963 0.96028554 0.9939896 0.95903987 0.9511345 1.0276344 0.97906053
1.02719 1.0243627 1.01396 1.03917 0.9649859 1.0044438 0.96738607 1.0653645
0.97350156 0.98403186 0.99772346 1.010615 1.0336658 0.9953667 1.0023116 1.0033382
1.0121453 1.0065945 0.98196316 1.0108573 1.0254991 1.0286528 1.0134819 0.98022795

encoder.latency_model.net.network.1.bias f4 [32]
00000000: 6bbb 653d 13a9 5c3d 5395 053d 936d 553d
00000010: 900c fa3b ccd1 473d 879d 4e3d 5cc2 96bd
00000020: 7991 003c 1da1 40bd 4f88 90bd a3d5 87bc
00000030: 0e7c cc3c 3054 643d e678 d0bd 3887 8fbc
00000040: a279 c8bd 663a ccbd 7eb0 523d 6590 813c
00000050: 6a38 b93b 79db 6a3d 3b18 803c ce09 c13b
00000060: 766d 213d 334b 283d 075d 1bbd 60a8 b3ba
00000070: a369 a13b c17f 39bd 3243 4e3d b664 a5bd
0.05608694 0.05387218 0.03261311 0.05210645 0.007630892 0.048784062 0.0504432 -0.0736129
0.007847183 -0.04702865 -0.07057249 -0.016581362 0.024961498 0.05574435 -0.101793095 -0.017520532
-0.097888246 -0.09972076 0.051437847 0.015815923 0.005652477 0.05733821 0.015636554 0.0058910614
0.03941103 0.04108734 -0.037930515 -0.0013706796 0.004925923 -0.04528785 0.05035705 -0.0807585

encoder.latency_model.net.network.1.running_mean f4 [32]
00000000: 34aa f7c5 727d 5946 4c5b 3646 afa2 b345
00000010: e72d a845 b24a 8246 89b2 a3c6 3632 fa45
00000020: 3b49 37c6 0305 0fc6 4d9e 85c6 a1e3 15c6
00000030: dcb0 9546 8558 01c6 4f2b d545 a543 71c3
00000040: df27 5d46 83a0 7f46 4e5d b746 63da 31c6
00000050: 3795 3943 7866 3e46 7748 83c6 64cd 5943
00000060: 182b d3c6 7178 16c6 c51b b945 9e3b 4cc3
00000070: 686f b4c6 1e88 35c6 fd62 3ac6 39e8 4846
-7925.2754 13919.361 11670.824 5748.3354 5381.738 16677.348 -20953.268 8006.2764
-11730.308 -9153.253 -17103.15 -9592.907 19160.43 -8278.13 6821.4136 -241.26424
14153.968 16360.128 23470.652 -11382.597 185.58287 12185.617 -16804.232 217.8023
-27029.547 -9630.11 5923.471 -204.23288 -23095.703 -11618.029 -11928.747 12858.056

encoder.latency_model.net.network.1.running_var f4 [32]
00000000: f3b2 ba50 9cf6 3651 14b4 0151 e85d 3150
00000010: 697c 1050 b5f6 9751 c1b6 c751 8b06 f950
00000020: 7b36 1351 a5a5 bd50 8e34 9551 b24c a850
00000030: 13ca a851 fbe9 8350 7b20 5b50 1caa 894d
00000040: 67f1 6651 4a9a 8751 6244 0052 3e08 1251
00000050: a892 ae4f 7b8e 2651 f4cc 8551 264a 0d4f
00000060: 732d 2752 f9d3 b250 1c6e 0d50 e72f 0e50
00000070: b4e6 f351 0816 fa50 fc04 0751 75eb 2951
2.5058318e+10 4.911384e+10 3.4817e+10 1.1902886e+10 9.69629e+09 8.158489e+10 1.07220574e+11 3.3423645e+10
3.951714e+10 2.5453996e+10 8.010398e+10 2.2588789e+10 9.061809e+10 1.7705196e+10 1.4705356e+10 2.8870336e+08
6.1993284e+10 7.280114e+10 1.3772577e+11 3.920022e+10 5.8576937e+09 4.4709687e+10 7.183365e+10 2.3704468e+09
1.7950551e+11 2.400189e+10 9.491214e+09 9.542016e+09 1.3094345e+11 3.3565983e+10 3.6244013e+10 4.5612487e+10

encoder.latency_model.net.network.4.weight f4 [64, 32, 3]
00000000: 9cf2 82bd f0e0 eabd 98a2 c1bd 0b7d 283d
00000010: e9cb edbc c5f4 b7bc fd7c 22bd 73e4 49bd
00000020: b49d f4bc d545 9f3d 618b 823d aadf 1cbd
00000030: 2be0 cabc 74ae 8a3d 7fb1 333d 625d a43d
00000040: 1c73 a9bd 1c79 403d c4bf 25bb 4b50 033d
00000050: 7964 af3d 1504 1abd 31c7 3ebd 7db4 993d
00000060: 8552 b03d 3972 30bd 895b 04bd 7739 af3d
00000070: 884b 94bc 1f00 1d3d 1088 15ba 9f69 62bc
00000080: f432 32bd 741c 933d 09f2 063d acb4 843b
00000090: 01ee 78bd 03b1 e33c 6b46 ac3d 6ff1 633d
000000a0: e810 7dbd 877d d9bd 6b62 60bc 87c1 aebd
000000b0: e3c1 4fbd 105c b33d 845c 75bc 20d9 eabc
000000c0: 8a01 e0bd 0f83 9e3d be0b 30bd d86c 1b3d
000000d0: ac8b d93c f720 933d fac0 ab3d 2d21 e73d
000000e0: e1b6 cfbc e686 c1bd 3442 18bd d4cd a1bd
000000f0: ac14 823d fc98 8a3d 4db2 643d 9131 aebd
00000100: 35ad d93d be49 a53c c8e2 bcbd 03e7 ac3d
00000110: 987d a53d 2393 85bd 407a 1fbc 55d8 f03d
00000120: 6b0d d4bd e320 a63c 59ff 9a3d 7745 003d
00000130: 125d 383d b271 2f3d 52e3 9cbd 898f 1b3d
00000140: 04f1 1cbd a05b 25bb 599b 8b3d d0bd d83d
00000150: 1173 87bb dd3d cfbd 4b35 8fbc 0d66 833d
00000160: 0e8a be3c 5766 76bc 40c7 f73c a991 98bd
00000170: fa18 a03d 216c 55bd ef95 63bd 4d0d 9fbd
00000180: ad3a ffbc 2755 063d 33d0 3d3c 92a8 16bd
00000190: 1d45 333d 1382 4dbb 9332 5abd 30b9 ba3d
000001a0: 9c88 2bbd 60dd 4abd e40a b1bd e55a a7bd
000001b0: fe16 90bd acb3 d73d 1cc1 98bc d7a5 6fbd
000001c0: 52cc 8dbd 0b9d 003a e249 5c3d 459a 82bd
000001d0: 371c 02be 82c5 b83d 24f7 1f3c 4bba 7a3d
000001e0: 4b7b 3dbd b6f9 ffbc 6460 83bd db0e 903b
000001f0: 18e0 51bd 0bc8 18be 23bf 12bd 5971 45be
00000200: 3297 46bd b1b7 c3bc 2069 973c b5c0 c6bd
00000210: 2abc f0bb f180 283d 9de4 083d efc1 9dbd
00000220: a6c5 8f3d fbab bcbd 2a45 97bc f2fb 6fbc
00000230: a4eb 3cbd 841a 81be 5f15 1dbe 1388 da3b
00000240: 3505 bb3d a7e6 d0bc e7d3 1cbd f617 883d
00000250: 113e 323d 15ec 1bbd 080f cabd 2ad2 abbd
00000260: 528f 963d ae39 9cbd 3f26 843d ab28 90bd
00000270: 3a1f 5ebe 6030 c4bd 4cfd 29be 57c1 57bc
00000280: 77f8 1d3d c18e aebd 58a1 f43b f80a 0b3d
00000290: 2f5c f6bd 1c39 13be d700 2abe 5359 40bd
000002a0: 05d4 b7bc ca1c 843c 8864 27bd 6087 a83c
000002b0: 45c3 16bd a13e 62bd e868 e0bb f0a3 9b3d
000002c0: 4448 02bd a52e 84bd 61a8 49be 3bd1 38be
000002d0: 9b58 403d c89e 5e3d 568d 623d 6eec 0abd
000002e0: ee19 863b b61c 53bc dfe8 d6bd a050 df3c
000002f0: b390 9a3d bb4c c13d b8b1 43bd ff92 5abd
00000300: f30e 75bc 48d5 a1bd 1a3b 193d 7f75 f5bb
00000310: 7419 98bd 5b5f 993d c83f 913d 54fb 363d
00000320: b9ff f63a 2c14 773d b64e b4bc 75ca 92bd
00000330: 6a4f 013d e4bc f5bd e772 b33b 5e23 543d
00000340: 98fd af3b 295e a0bd 6855 823d 3a3e 8e3d
00000350: f0fe b8bd fab2 d53c 7d5c 54bd 19cd a93d
00000360: d558 b13d 003f adbd 45d0 613d 4bf7 abbd
00000370: 9621 95bd 5786 97bc 1e36 adbb cbe1 3bbd
00000380: 5176 28bd ac73 2ebd ff23 cfbb 6fad fdbb
00000390: 9261 8c3d 9c38 643d cd86 9e3d 27f0 f83c
000003a0: d9ef 6cbd 5d1c 0cbd 912d 86bb aa53 a6bd
000003b0: 2b5f 35bd 2d32 363d c8de 133e 27a4 2ebd
000003c0: 6fc2 7e3b 03dc a2bd 0b10 e8bd 26bf 9dbd
000003d0: 8a03 c5bc a77b 683d 25de 80bc b2b2 a939
000003e0: d97a 15bd fb8e 983c d099 fc3b 3488 8b3d
000003f0: 4b24 d2bd 4eaf e4bc 9b03 07bd 564d 67bd
-0.0639393 -0.11468685 -0.094548404 0.041134875 -0.029027896 -0.022455582 -0.03966998 -0.04929013
-0.029860355 0.07776991 0.06374241 -0.03829924 -0.024765095 0.067715555 0.043870445 0.08025624
-0.082739085 0.0469905 -0.0025291303 0.032058995 0.085640855 -0.03760155 -0.046576682 0.075051285
0.08609489 -0.04307768 -0.032313857 0.085558824 -0.018102422 0.038330194 -0.0005704174 -0.013819127
-0.043505624 0.071831614 0.032945666 0.004049858 -0.060773853 0.027794367 0.08411869 0.05565017
-0.0617837 -0.106196456 -0.01369534 -0.08533006 -0.050722014 0.08757794 -0.014975671 -0.028667986
-0.109377936 0.07739841 -0.04297995 0.0379456 0.026555859 0.07184022 0.08386417 0.11285625
-0.025355758 -0.09449558 -0.03717251 -0.07900587 0.06351599 0.06767461 0.055834103 -0.08505548
0.1062874 0.020176765 -0.092229426 0.084424995 0.08080596 -0.06522205 -0.0097337365 0.11760012
-0.10354122 0.020279353 0.07568235 0.031316247 0.045010634 0.042833038 -0.076605454 0.037978683
-0.038315788 -0.0025231615 0.068167396 0.10583079 -0.00413359 -0.10119221 -0.017481467 0.06415949
0.023259189 -0.015039048 0.030246377 -0.074496575 0.07817264 -0.052105073 -0.05556291 -0.07766209
-0.031155908 0.03279605 0.011585283 -0.036781855 0.043767083 -0.0031358048 -0.053270888 0.09117353
-0.041878328 -0.049527526 -0.08644655 -0.08171634 -0.070356354 0.105323166 -0.01864677 -0.058507767
-0.06923737 0.0004906214 0.053781398 -0.06377081 -0.12706076 0.090220466 0.009763513 0.06121282
-0.04626016 -0.031247001 -0.064148694 0.004396302 -0.051239103 -0.1492006 -0.035826813 -0.1928152
-0.048484035 -0.023891302 0.018482745 -0.09704725 -0.0073466497 0.041138593 0.033421148 -0.077030055
0.0702012 -0.0921249 -0.018465597 -0.014647471 -0.046123162 -0.25215542 -0.15340184 0.0066690533
0.091318525 -0.025500609 -0.038288023 0.06645195 0.043516222 -0.038066942 -0.09866148 -0.08389695
0.07351555 -0.07628189 0.06452607 -0.07039007 -0.216916 -0.09579539 -0.16600531 -0.013168654
0.038567033 -0.08523322 0.0074655227 0.033946007 -0.120293014 -0.14377254 -0.16601883 -0.046960186
-0.022439966 0.016127009 -0.04086736 0.020572364 -0.036807317 -0.05523551 -0.0068484433 0.07599628
-0.0318072 -0.06454209 -0.19693138 -0.18048565 0.0469595 0.054350644 0.05531057 -0.033916883
0.0040924465 -0.012885263 -0.104936354 0.027260125 0.075471304 0.09438463 -0.047776908 -0.053362843
-0.014957177 -0.07902008 0.03740988 -0.0074908133 -0.0742673 0.07488891 0.070922434 0.04467328
0.0018844522 0.06032197 -0.022010189 -0.07167522 0.031569876 -0.11998919 0.005476344 0.05179154
0.005370807 -0.078304596 0.06363946 0.069454625 -0.090330005 0.02608632 -0.051846016 0.082910724
0.086595215 -0.08459282 0.055130262 -0.08396777 -0.07281797 -0.018496675 -0.0052859923 -0.04586963
-0.04112846 -0.042590782 -0.0063214297 -0.007741622 0.068545476 0.05571805 0.07740555 0.030387951
-0.057845924 -0.034206737 -0.0040947874 -0.081214264 -0.044280212 0.044481445 0.14440453 -0.042637017
0.0038873216 -0.0795212 -0.11331185 -0.07702474 -0.02404954 0.05675855 -0.015730927 0.0003236733
-0.03649411 0.018622866 0.0077087656 0.06813088 -0.102608286 -0.027915623 -0.032962423 -0.056470238

encoder.latency_model.net.network.4.bias f4 [64]
00000000: 98a9 4b3d 0447 8bbd 5528 4d3d 701f 0f3d
00000010: 3125 3a3d 60a5 78bd 8f0f 0c3c 8fe6 ab3d
00000020: d6dd b23d 2b4c 8d3d e664 973c 5a09 6e3d
00000030: dd2b 26b6 6b95 063d d76e d43d 0e0a 583d
00000040: 83a2 013d 2aab 87bd 0d2f d1bd 9a02 a1bd
00000050: b82c 803d ef4f 7abd 2868 85bd 76d5 4cbd
00000060: 6208 1d3d d63f 223d 1924 883c 1fb0 80bd
00000070: 7b09 f5bc dacc 8abd a5e5 613d 90d6 f2bd
00000080: c045 88bc 22ca a4bd b490 513c b019 92bd
00000090: 1505 37bd 6d77 5dbd e2d4 e9bb 4ac2 7fbd
000000a0: 461f d13c a8fd b7bd bbb6 c5bd a119 cbbc
000000b0: 1182 a1bc 7302 ae3c 521f 9e3b 646d 5539
000000c0: aeaa f63c 6de4 a73d a7ec 113c c588 1abb
000000d0: 4add 99bd e89f a1bd ca7b f43c ae8a a23d
000000e0: 59a2 06b9 065b 51bb f948 40bc 241a 583c
000000f0: ab94 7fbb c513 5dbd 4d12 74bd 6df9 9b3c
0.049722284 -0.068006545 0.05008729 0.03494209 0.045445625 -0.06070459 0.008548631 0.08393585
0.08733718 0.068992935 0.01848073 0.058114387 -2.476146e-06 0.03285734 0.103727035 0.052743964
0.031649124 -0.06624444 -0.10214052 -0.07861824 0.062585294 -0.061111387 -0.06514007 -0.05000826
0.038338073 0.03961166 0.016618775 -0.062835924 -0.029911747 -0.067773536 0.055150647 -0.11857331
-0.016634822 -0.08046366 0.012790848 -0.07133806 -0.04468258 -0.05406897 -0.0071359733 -0.062441148
0.025527608 -0.08983928 -0.09653994 -0.024792494 -0.01971534 0.021241402 0.004825511 0.00020354014
0.030110683 0.08197866 0.00890652 -0.0023580056 -0.07512911 -0.07891828 0.029844183 0.07936607
-0.00012839715 -0.0031945123 -0.011736148 0.013189826 -0.0038998525 -0.05397393 -0.059587765 0.019039834

encoder.latency_model.net.network.5.weight f4 [64]
00000000: 781f 7f3f ec57 8c3f 6b59 7c3f b046 7b3f
00000010: dd67 873f e949 863f 3533 803f ad1b 803f
00000020: 3274 853f 6ffe 7e3f 0c1b 823f 5b77 823f
00000030: 8473 7f3f 902d 793f d1ed 853f 428e 823f
00000040: 6614 853f 2402 7e3f 9aed 823f 8dd0 813f
00000050: eee9 803f 4fa7 823f a237 7c3f 0e09 893f
00000060: 519d 7b3f 1a29 823f f679 823f 0a3e 823f
00000070: 6c3c 7a3f e16e 823f c484 813f 8720 823f
00000080: ea80 863f 9540 813f 7982 813f 6fef 813f
00000090: ed24 7f3f d6da 813f 4953 853f a2de 833f
000000a0: 775d 753f ff60 7d3f c9a4 7c3f bf08 723f
000000b0: 39be 7f3f 2b6f 7c3f ec55 813f 3be0 813f
000000c0: 43d5 833f 05d3 7f3f 1571 7f3f 54cc 7c3f
000000d0: 22a9 863f b5e8 833f 9cd2 823f 15d1 833f
000000e0: 214c 823f ad41 7e3f bfe0 7e3f e2c6 793f
000000f0: fd35 7f3f 6aa7 823f b6d0 7e3f 796a 843f
0.9965739 1.0964332 0.9857394 0.98154736 1.0578572 1.0491306 1.0015627 1.0008446
1.0426085 0.99606985 1.0164504 1.0192674 0.9978564 0.9733515 1.0463201 1.0199664
1.039685 0.99222016 1.022876 1.014177 1.007139 1.0207309 0.9852239 1.0705888
0.9828692 1.0168793 1.019347 1.0175183 0.97748446 1.0190088 1.0118642 1.0166177
1.0508091 1.0097834 1.0117942 1.0151194 0.9966572 1.0144908 1.0416042 1.0302317
0.9584574 0.9897613 0.9868894 0.94544595 0.9989963 0.9860713 1.0104346 1.0146555
1.0299457 0.99931365 0.99781924 0.9874928 1.0520365 1.0305392 1.0220523 1.0298182
1.0179483 0.99318963 0.99561685 0.97569096 0.99691755 1.0207341 0.9953722 1.0344993

encoder.latency_model.net.network.5.bias f4 [64]
00000000: b2b5 483d cb0a 203c 0dab fc3c 6a6e a33c
00000010: ec54 143c c1f6 863c 58a0 923d de28 9bbd
00000020: 9027 243c b784 063d 05ea 1a3d 68c0 be3b
00000030: 2578 8b3c 28ee a0bb 43e2 d13c a816 2a3d
00000040: 9858 6e3b ce6d bd3c ee93 4d3d 1436 1cbd
00000050: 13ea 343d 8cf5 153d 2d92 d2bc b237 ac3d
00000060: 40c7 5b3d 6339 543d fc31 893d 5423 2d3d
00000070: 4a4e 8b3c e9cd 2abd 1fdb 353d 56a8 483d
00000080: b4d5 0f3d d8fe 673d 5b01 1e3d 21a0 663d
00000090: c9c6 373d f44c 6c3d 965f 2d3d af9e 513d
000000a0: 5806 0c3d b42d 9c3c 25bd 63bd 1cd6 893c
000000b0: 50a6 5b3d 4685 083d eacf 54bc e3f5 5c3d
000000c0: 9739 d1bd 7e69 703d b335 fd3c 7735 083d
000000d0: 099e f63b 9e28 5d3d 7707 3e3c 4bb5 4f3d
000000e0: 81e2 763d dc6a 5f3d df08 4bbd 3c28 bbbc
000000f0: 904f 9c3a f8cc b33c b5dd d43c d48f 4b3d
0.049001403 0.009768198 0.030843282 0.01995011 0.00905345 0.016475083 0.071594894 -0.07576154
0.010019198 0.03284141 0.037820835 0.0058212765 0.017025063 -0.004911203 0.025620585 0.041525513
0.0036368724 0.023123648 0.050189905 -0.03813751 0.044168543 0.036611125 -0.025704468 0.084090605
0.053656816 0.05181254 0.06698987 0.04227002 0.017005105 -0.041700277 0.044398423 0.048988663
0.035115913 0.056639522 0.03857551 0.056305055 0.04486731 0.057690576 0.042327486 0.051176723
0.034185737 0.019064762 -0.055600304 0.016825728 0.053625405 0.033330224 -0.012989024 0.053945433
-0.102160625 0.058694355 0.030909395 0.033254113 0.0075261635 0.053993814 0.011598459 0.050710004
0.060274605 0.05454527 -0.049569007 -0.022846334 0.0011925567 0.021948323 0.025984624 0.049697712

encoder.latency_model.net.network.5.running_mean f4 [64]
00000000: 6c9a 583d 2b11 36be 7b50 c53c 4837 30bc
00000010: d0aa d6bd 0a37 42be 8974 823d 2c47 723e
00000020: f114 21bc fb29 ac3d 2b7f 9f3d 4543 213e
00000030: c4b4 0cbc a408 683c c485 90bd 024e 703d
00000040: 8850 84bd bb33 9bbc 47c0 0cbe 16de 3ab7
00000050: 5f3c 823d 1c71 fcbd 9813 aebd 2ebf a5be
00000060: b4e0 f03d bec5 aa3c 4bbd ce3d 1f4e 51bd
00000070: 928d 623d 437e ae3d bc49 8d3b 6025 2bbe
00000080: e914 0dbe 82e3 debc cbea 22b9 2dac e6bb
00000090: c136 fbbc e7cf 92bd e371 bcbd b3b1 50bd
000000a0: 67a9 e93d 1c15 abbd b1f5 f6bd 2739 d93d
000000b0: a9be 84bd 6a1c af3d 3cff 833c b11a 2fbd
000000c0: 7884 0c3e ed50 bd3d 8ff9 b7bc dacf 5a3d
000000d0: fef6 68be 61fd c2bd 757f 47bd 0b53 923d
000000e0: e436 8c3d c1df d8bd d9cb 70bd dfcc 223d
000000f0: 8820 a33d e2fe 58be db48 cbbd 6355 76bb
0.052881643 -0.17779987 0.024086228 -0.010755368 -0.10481799 -0.18966308 0.063698836 0.23659962
-0.009831653 0.08406445 0.07787927 0.15748318 -0.00858802 0.014162216 -0.07056764 0.058668144
-0.064606726 -0.018945565 -0.13745223 -1.1138172e-05 0.06359171 -0.123262614 -0.08499831 -0.3237242
0.11761609 0.020846244 0.100946985 -0.051099893 0.055310793 0.08520176 0.0043117683 -0.16713476
-0.13777508 -0.027208094 -0.00015536991 -0.007039568 -0.030665757 -0.071685605 -0.0920141 -0.050950717
0.11409264 -0.08353636 -0.12058581 0.10606604 -0.06481678 0.085503414 0.016112916 -0.042750064
0.13722408 0.09243951 -0.022457866 0.05342088 -0.2275047 -0.095209844 -0.048705537 0.071447454
0.06846407 -0.10589553 -0.058788154 0.03974616 0.07965189 -0.2119098 -0.099260055 -0.0037587516

encoder.latency_model.net.network.5.running_var f4 [64]
00000000: 0cb5 e23d d149 f83e daa7 c23d 8113 b03e
00000010: 8802 8d3e 4a71 563e b104 a83e 8984 743e
00000020: fe6b 9a3d 7fa4 103e ba02 043f 0f08 703e
00000030: d38c ee3d 05fc e93d 7ddd f03d 17e7 7e3d
00000040: ce3c 083e 7ddf 963e ae5c a23d 70fd 623e
00000050: 37e4 5f3d b0d3 f43d 66f3 933e f752 4d3d
00000060: 5fcb b53e f641 9d3d b4e9 ce3e d950 6f3d
00000070: 7e86 893e 11c2 ee3e 0c29 523d 3922 063d
00000080: 19cb 233e 2ee6 8f3e a723 313d ffc8 a13e
00000090: ae46 c53e bd23 5b3d a93a ec3c 44db 433e
000000a0: 9c1a 013f d64b e53d 4371 9a3e 71b6 673e
000000b0: 2ca0 973e 3556 aa3e f800 2a3e 42fe 9e3e
000000c0: 17d8 763e ce86 6e3e ee01 a83d 8329 823d
000000d0: b81d 423e 7c12 3c3d dd51 643e 34f7 5e3d
000000e0: 7802 c63e 4d7d 8c3d 9e89 be3e 805a 043e
000000f0: 1fe8 503e 0944 ea3e d133 893e f577 273d
0.11069688 0.48493817 0.095046714 0.3438988 0.27540994 0.20941654 0.3281608 0.23878683
0.07540129 0.1412525 0.5156666 0.23440574 0.11647954 0.11425022 0.117609955 0.062232103
0.13304445 0.29467383 0.079278335 0.22166991 0.054661002 0.11954439 0.28896636 0.05012795
0.35506722 0.07678597 0.40412676 0.05842671 0.26860422 0.46632436 0.051308677 0.03274748
0.15995444 0.281053 0.04324689 0.3159866 0.38530487 0.05350088 0.028836565 0.19126612
0.5043123 0.11196105 0.30164537 0.2262819 0.2961439 0.33268896 0.16601932 0.31053358
0.24105869 0.23293611 0.08203493 0.06355574 0.1895665 0.045916066 0.22296853 0.05443497
0.38673759 0.06859837 0.3721437 0.12925148 0.20401047 0.45755032 0.26797345 0.040885884

encoder.latency_model.attn_layer.atten_w f4 [20, 64, 1]
00000000: 3db9 0a3d 9e47 203e 86ae cd3d 2e7e 323e
00000010: 7044 cfbd cb07 363e 4dcb 97be c7d1 50bd
00000020: 70be 463e bc9d 763e 0727 e23c ba00 0c3e
00000030: dd6b 1abe 46e2 b23d 462a 6abe 9b29 353e
00000040: 7689 e03d df74 51bd 738b 3d3e a119 3dbc
00000050: 2203 ad3d 3d99 8fbb 78f2 3fbe a5c1 6b3e
00000060: 20f4 0b3e c24b 873e 32cb 013e fb15 09be
00000070: 8005 97bd 4caa 00be 15a6 83be 47d1 533e
00000080: d0bd 9cbe 1b2d 98bd 6803 183e 2999 fa3d
00000090: 5bf3 a4bd eadd e9bb 461f ea3d f2ee c7ba
000000a0: e4bb 8d3e 960e 47be a2ca 223e b8e8 923e
000000b0: bd2b 7ebe 6af5 603d b0a4 89bd a7dd 67bd
000000c0: 70bf 9b3e f40a 583e 5c79 8a3d 165f 353e
000000d0: 0f3d 87be ac4c 1f3d d38f c03d 3983 7f3e
000000e0: 1616 e13d 0294 003e ec63 e9bc 5bb2 b8bb
000000f0: c4ae 50be c6bd 7ebe 4e2b 223e 1138 94be
00000100: 04c8 8e3e ab7c d23d bb63 fabd 50fd 32be
00000110: 0b91 eebd 546d 02be 4f59 96be 2c6e 813e
00000120: 375b d9bd ad13 95be 3f01 95be 9d51 ebbd
00000130: 5ed7 733c bef5 30be 786f bf3d 263d 58be
00000140: c3d1 aabd 0b7e 92be 7a96 4e3e 3aac bc3d
00000150: 0bde 723e 64fc 0cbe 8cd6 223e 858e 7f3d
00000160: 82fe 063d 7b8d 483e 6b1c 2abc 3558 82be
00000170: f73a 8cbe 65c5 59be 9494 adbd 2be9 7d3e
00000180: ff43 c23d c920 05be 8353 99bd cb1e e43d
00000190: 25a3 c53d b078 5a3e 3730 f03d 5089 953e
000001a0: a2c6 85be cb6a bcbc d4b4 2cbe adc0 dabd
000001b0: abe6 6bbe f305 23be effd 41be b188 773e
000001c0: d417 263e 57b3 80be c7a9 83bd b2f6 053d
000001d0: d048 9d3e c469 78be b0f8 943e 7738 343e
000001e0: a10b 063d b607 5e3e 20ba a73d 99a6 4d3e
000001f0: c5ef 7fbc 5366 8c3e 9750 7cbe 9989 5a3e
00000200: 2b38 b43d c7b0 9dbd 7a5e e03d 978c 203d
00000210: b2c4 703d 7144 54be 5d06 a5be 738b 9d3d
00000220: c41c 85be f4cf 5abe 843a 97bd f832 7b3e
00000230: 18d8 c73d cbdd 503e 50ec 4abe f4a5 73be
00000240: 0865 e9bc 74de bfbc 684b 3e3e 0182 443d
00000250: 8a0d 713d 7f09 24be 38b9 aa3d c68b 02bd
00000260: e3e7 99be ef5f 0ebe f4f9 c6be 5cb5 72be
00000270: b2cb 7ebe 0e5e 81bc 04e9 91b9 c4c7 90be
00000280: d998 a63c be67 19be 5850 223d 3818 b4be
00000290: 8d3c 693e 5f82 fdbc ca86 6bbe 9614 00be
000002a0: cd5c 88be eb6a a53c eb79 7cbe c600 92be
000002b0: 54c3 debd a91b 8cbe 5ca7 e8bb 38ff 80bd
000002c0: 520c 93bd c8d4 cd3d f41d 5ebe a588 a13d
000002d0: 9e33 abbd 3f2f ccbd fdcb a0be eae0 db3d
000002e0: 36d3 9dbe 3a1b bebc b0d5 4f3e e2ab d43d
000002f0: 1199 61be 0387 c73d 2b4c 8fbe 871b 06bc
00000300: ac57 6c3c d9ac 3bbe 1823 db3d db4d f23d
00000310: 0c72 2bbe a1f3 a8bc f7f1 42be aaa0 91be
00000320: 45b9 b6be d874 9a3d fbdd 06be 3b07 1f3d
00000330: 5a92 7fbe e9bf d63d 02bb 003d 731f 623e
00000340: b566 a9be 3313 9abe 8d0b 49be e36e 483d
00000350: 9684 0fbe cf52 40bd 33f0 413e 24c3 a83d
00000360: e81c ed3c 197c 34be 78f6 bebe c336 553e
00000370: 1761 2bbe 80cd c5bc 32e2 70be 98bd 713e
00000380: a2a7 0b3d 394e a1be bc27 8cbe 1532 16be
00000390: 8ed3 8a3e 6cfa 1e3e 0ecf 96bd 68dc 80be
000003a0: 5b41 8fbe 8fbf 333e d39c e43d d0be 3cbe
000003b0: b1ba 53be 4797 103e e72b ef3d 0ef4 b4be
000003c0: 19d2 65bd 08a7 a9be e3f7 d23a 3735 69be
000003d0: 76ef 613e 804a 7b3e 0aa1 2cbe 9156 37be
000003e0: 3d75 663e 9d3c 31bc e0ce 99bd 6fdd cf3d
000003f0: 09ae 5dbe fc7c 89bc f475 febd 9167 a6be
0.033868063 0.1565232 0.10043053 0.17430946 -0.10120475 0.1777641 -0.29647294 -0.05098131
0.19408584 0.24083608 0.0276065 0.13672152 -0.15080209 0.087345645 -0.22867689 0.17691652
0.109637186 -0.051136848 0.18510227 -0.011541755 0.08447863 -0.004382281 -0.18744838 0.23023088
0.13667345 0.26424986 0.12675169 -0.13387291 -0.07374096 -0.12564963 -0.25712648 0.20685302
-0.30613565 -0.07430478 0.1484505 0.12236244 -0.08054229 -0.00713705 0.11431746 -0.0015253706
0.27682412 -0.19439158 0.15897611 0.28693175 -0.24821372 0.054921545 -0.06720865 -0.05660787
0.30419493 0.21097928 0.06761429 0.17712054 -0.26413772 0.03889148 0.09402432 0.24952401
0.10990541 0.1255646 -0.02849003 -0.005636496 -0.20379168 -0.2487708 0.15836832 -0.28949025
0.27886975 0.10277685 -0.12226053 -0.17479444 -0.116487585 -0.12737018 -0.29365012 0.25279367
-0.10613101 -0.29116574 -0.29102513 -0.11490176 0.0148828905 -0.17281243 0.09347433 -0.21117076
-0.0834079 -0.28611788 0.2017459 0.09212537 0.23717515 -0.13768154 0.15902156 0.062391777
0.03295756 0.1958522 -0.010382752 -0.25457922 -0.27388737 -0.21266706 -0.08475605 0.24795978
0.094856255 -0.13000788 -0.07486632 0.11138686 0.09650258 0.21335101 0.11727946 0.29206324
-0.26128107 -0.023000142 -0.16865855 -0.10681281 -0.23037212 -0.15920238 -0.18944524 0.24173237
0.16220027 -0.25136825 -0.06428867 0.03270597 0.30719614 -0.24259096 0.29095984 0.17599665
0.032725934 0.21682629 0.081897974 0.20083083 -0.01562113 0.27421817 -0.24640118 0.21341552
0.08799776 -0.07699733 0.1095552 0.039196577 0.058781333 -0.20729233 -0.32231417 0.076926135
-0.2599851 -0.2136839 -0.07384208 0.24531162 0.097580135 0.20397107 -0.19816709 -0.23793775
-0.028490558 -0.023421504 0.18583453 0.047975544 0.058850802 -0.16019247 0.08336109 -0.03187158
-0.30059728 -0.13903783 -0.38862574 -0.23701996 -0.24882391 -0.01579192 -0.00027830165 -0.2827741
0.020336555 -0.14980981 0.039627403 -0.35174727 0.22777005 -0.030945955 -0.23000637 -0.12507853
-0.266333 0.020192584 -0.24655883 -0.28516215 -0.108771 -0.27364853 -0.007100029 -0.06298679
-0.07180084 0.100503504 -0.21691114 0.07887391 -0.083594546 -0.09969949 -0.3140563 0.10736258
-0.30825204 -0.023206342 0.20296359 0.103843465 -0.22031046 0.09742548 -0.279878 -0.008185274
0.0144251995 -0.18327655 0.10700053 0.11831256 -0.16742724 -0.020623984 -0.19037615 -0.2844289
-0.35688224 0.075418174 -0.13170616 0.038825255 -0.24958172 0.10485823 0.031428345 0.2208231
-0.33086172 -0.30092773 -0.19633313 0.048933875 -0.14015421 -0.046953972 0.18939285 0.08240345
0.028944448 -0.17625464 -0.37297416 0.20821671 -0.16736256 -0.024145842 -0.23523787 0.2360748
0.034095414 -0.31504992 -0.27374065 -0.14667542 0.27114528 0.15525216 -0.07363711 -0.25168157
-0.2797955 0.17553543 0.11162724 -0.18432164 -0.20676686 0.14120208 0.116782956 -0.3534245
-0.056108568 -0.33135247 0.0016095605 -0.22774206 0.22064003 0.24540138 -0.16858307 -0.17904116
0.2250566 -0.010817674 -0.075101614 0.10149657 -0.2164842 -0.01678323 -0.124248415 -0.3250089

encoder.latency_model.attn_layer.atten_bias f4 [20, 1, 1]
00000000: b2dc 07bd 4d38 debb 0087 77bd 5290 adbd
00000010: d06f 25bd ff5d a4bd 77e4 a6bd 5b0c 74bd
00000020: 3967 cbbd fb74 bbbd 7ead a6bd 5bc5 bdbd
00000030: 58c0 b8bd b043 87bd 2671 a7bd 36ad aabd
00000040: 0c17 b2bd 698b aebd 4d08 e4bd 03c2 dabd
-0.033169456 -0.006781614 -0.06043148 -0.084747925 -0.040389836 -0.08025741 -0.08149045 -0.059582096
-0.099317975 -0.09153172 -0.0813856 -0.09266158 -0.09021062 -0.06604707 -0.08175878 -0.083338186
-0.08695802 -0.08522684 -0.11134396 -0.10681536

encoder.cpu_model.net.network.0.weight f4 [32, 1, 3]
00000000: 1054 9d3e 1656 a63d b2bf 443e 9ced 013f
00000010: 6530 f7bd 2b1a 5a3c 34e0 08bf 8375 a73e
00000020: f6b1 ddbe f679 703b c030 c83d f11a c9bc
00000030: e479 d9be 176d ca3e ddfe a13e 9396 d8bd
00000040: ee89 48bd 624c e6bd 4047 0d3f cf2f 183e
00000050: d919 a73e 50a5 93be 010e 9bbe 1fbf f5bd
00000060: 7e28 9bbe 9f8e 033f 5a6b 6fbd ddb3 9cbe
00000070: aa62 64be d769 00bf 043a db3e 3e19 843e
00000080: 07d1 ea3e c298 1ebf a042 b1bd 71f3 183d
00000090: 6cc6 0b3f e8cf 3cbe 1e95 f3bd 36d1 c4be
000000a0: c511 f5be ccfb 3dbe 026f 18be 7e68 fd3e
000000b0: 90ac 3dbd 5e83 80be 8be9 8b3e ec00 a13e
000000c0: fafb 323d 11fb e4be d559 c73c 5a8e d6be
000000d0: 3b5c 8e3d a179 9ebe 68c4 033f e313 563e
000000e0: 1c2a 92be d5be 983d 19de fd3e 800c aebe
000000f0: d9df 8dbe 9b2e 8b3e 52ad 0dbe 9b44 ad3e
00000100: 736e 0e3f 5df0 843d 47aa 28be f5f7 aabd
00000110: a53b 043f d2f4 823e 11b1 d9bc 4262 1abe
00000120: 3807 bdbe 79c5 0d3f c6bc d13e 09c5 3d3e
00000130: 7b6f 52be c187 143f ba86 c03e 7850 0abf
00000140: 21df 00be 7222 24be fd8f fabe 7d92 023f
00000150: dadf fb3e c876 82bd 25a0 8ebe 0ae0 7d3e
00000160: 5563 3f3e 331a db3e 66cc dbbe 5abe f6be
00000170: c3d7 e13e fad9 b0bd 9f33 3f3e 0f7a 0d3f
0.30728197 0.08121888 0.19213751 0.5075319 -0.120697774 0.013311903 -0.53467107 0.32706842
-0.43299836 0.0036693788 0.09774923 -0.02454898 -0.42475808 0.39536354 0.31639758 -0.10575595
-0.048959665 -0.112450376 0.55186844 0.14861988 0.32636908 -0.2883706 -0.30284122 -0.11999344
-0.3030433 0.513895 -0.058451988 -0.30605975 -0.22303262 -0.501615 0.428177 0.25800508
0.458626 -0.6195184 -0.08655286 0.03734154 0.5459964 -0.18438685 -0.11893676 -0.38440865
-0.4786512 -0.18553084 -0.14886096 0.49493784 -0.046307147 -0.25100225 0.27326617 0.31446016
0.043697335 -0.44722798 0.024334827 -0.4190548 0.06951185 -0.3095217 0.5147157 0.20906024
-0.28547752 0.07458273 0.4958351 -0.33993912 -0.27709845 0.27183995 -0.13835648 0.33841404
0.5563728 0.06491158 -0.16471206 -0.08348075 0.5165351 0.25577408 -0.02657369 -0.15076545
-0.3691957 0.55379444 0.40964335 0.18532194 -0.20550339 0.58019644 0.37602788 -0.54029036
-0.12585117 -0.16028765 -0.4893798 0.51004773 0.49194223 -0.06370312 -0.27856556 0.24792495
0.18690236 0.42793426 -0.4292938 -0.48192102 0.44109926 -0.08635326 0.18672036 0.5526437

encoder.cpu_model.net.network.0.bias f4 [32]
00000000: bc23 c8be 54f1 c5be c87d 833e 1406 9d3e
00000010: a367 1ebe f550 243e 5970 58bd 1a85 13be
00000020: 4185 0abf 5900 073f bab0 7d3e 525a aebe
00000030: 0aa4 df3e 7ea3 f63e deb7 083f 2d09 783e
00000040: 6f23 833e caef f5be 9090 023f e7c3 1fbd
00000050: 8fe1 82b9 3fec 00bf 2510 9cbe caf1 bcbe
00000060: 1123 7abd 00e7 69be cdcc 4d3e 88f7 dcbe
00000070: e627 3a3e 17d9 d9be 0deb c83d 65b5 3dbe
-0.39089763 -0.3866068 0.256819 0.306687 -0.15469222 0.16046508 -0.052841518 -0.14406243
-0.5410958 0.52734905 0.24774447 -0.34053284 0.4367984 0.4817161 0.5340556 0.2422225
0.2561297 -0.48034507 0.51001835 -0.039005186 -0.00024963586 -0.5036048 -0.30481067 -0.3690322
-0.0610686 -0.22842026 0.20097657 -0.431576 0.18179283 -0.4254844 0.098104574 -0.18526228

encoder.cpu_model.net.network.1.weight f4 [32]
00000000: 01a6 7d3f ee4c 7c3f 0d5f 853f 2a61 803f
00000010: eb05 7a3f 99b1 833f af85 7a3f 70ed 7f3f
00000020: 1ffe 7f3f 57c5 823f 7d17 803f 7433 823f
00000030: 2f6f 7e3f 7e2e 843f ac9a 7e3f 5ff5 803f
00000040: 8da9 823f d9a1 7a3f ae59 813f 1faa 7d3f
00000050: 50db 823f 9300 813f 1d92 7f3f 2b87 7b3f
00000060: 787f 7f3f 02da 7f3f 9152 823f 9322 813f
00000070: 3c24 813f 876a 7e3f 28b0 813f 0663 7d3f
0.99081427 0.98554885 1.0419632 1.0029652 0.9766528 1.0288574 0.97860235 0.99971676
0.99997133 1.0216473 1.0007168 1.0171952 0.993884 1.0326688 0.9945476 1.0074881
1.0207993 0.9790321 1.0105493 0.9908771 1.0223179 1.00783 0.99832326 0.98253125
0.99803877 0.9994203 1.0181447 1.0088676 1.0089183 0.993813 1.0131884 0.9897922

encoder.cpu_model.net.network.1.bias f4 [32]
00000000: 0b39 76bd 652d 17bd c1bc dc3b 32cc 4b3b
00000010: 7058 43bc ec60 443c 8bc1 cabc aa2c 44bc
00000020: f9b1 90bc db82 df3a 36fe 2cbd 0a6c b03b
00000030: 87e9 9cbc b91a 033c 1010 c6bc ae4d 48bc
00000040: bae9 1c3c e332 0ebd 9ab7 8ebc 0013 cebc
00000050: 5f41 9d3c 3285 95bc 3083 30bd 1709 4bbd
00000060: bae7 1abc 52a4 0cbc 64c6 6d3b d9f3 d13b
00000070: 50e1 63bc 0e3e 42bc b1b6 f43b db21 6dbc
-0.060112994 -0.036908526 0.0067363684 0.0031097052 -0.011922941 0.011985999 -0.024750492 -0.011973539
-0.017662989 0.0017052548 -0.042234622 0.005383973 -0.019154323 0.008001977 -0.024177581 -0.0122255515
0.009577209 -0.034716498 -0.017421532 -0.025155544 0.01919621 -0.018251989 -0.04309386 -0.049569216
-0.009454662 -0.008584099 0.003628158 0.0064072427 -0.013908699 -0.011855615 0.0074680676 -0.014473404

encoder.cpu_model.net.network.1.running_mean f4 [32]
00000000: 11d4 2243 38bd e042 ee58 34c3 491e ae41
00000010: 620a a142 ec9f 96c2 123e 9043 ed59 48c3
00000020: de83 2842 06b1 90c3 fdfc a043 6f73 3cc3
00000030: 4697 8842 2137 93c3 557a a942 7f5a bd42
00000040: 8dbb d5c2 c1a0 39c3 1b83 f642 ac82 7f42
00000050: 812a 24c2 fbb4 8643 11d8 9442 78c7 ac41
00000060: 71f7 2643 f085 1c43 e912 a2c2 a6c0 1dc2
00000070: 9b67 2742 f508 7243 1f0b 04c3 d65f 3743
162.82838 112.36957 -180.34738 21.764788 80.52028 -75.31235 288.48492 -200.35127
42.128777 -289.383 321.97647 -188.45091 68.295456 -294.4307 84.73893 94.67675
-106.86631 -185.62794 123.256065 63.87761 -41.041508 269.4139 74.422005 21.597397
166.96657 156.5232 -81.036934 -39.438133 41.851177 242.03499 -132.04344 183.37436

encoder.cpu_model.net.network.1.running_var f4 [32]
00000000: 27a9 f847 4059 8247 2661 1a48 677b 1845
00000010: f01f 3b47 4e5f d446 7b68 c248 9832 3d48
00000020: 115a 8046 ea70 c448 276d f148 efca 2e48
00000030: 443c 0247 df54 cd48 8cca 1b47 44c7 4a47
00000040: d449 6847 a3c8 1f48 811e ac47 5b11 e646
00000050: 3d14 2046 f6df ad48 fcfc 1347 5e20 c445
00000060: 691a 1748 1dd1 ed47 6ea7 2d47 3f96 b946
00000070: 5b8d b046 da74 8948 cab3 d047 5e10 2748
127314.305 66738.5 158084.6 2439.7126 47903.938 27183.652 398147.84 193738.38
16429.033 402311.3 494441.22 178987.73 33340.266 420518.97 39882.547 51911.266
59465.83 163618.55 88125.01 29448.678 10245.06 356095.7 37884.984 6276.046
154729.64 121762.23 44455.43 23755.123 22598.678 281510.8 106855.58 171073.47

encoder.cpu_model.net.network.4.weight f4 [64, 32, 3]
00000000: 1f94 803c af8a 1b3b ac48 8fbd 529f c9bd
00000010: 1d85 97bd 967e 523d feda e7bc 594d 2cbd
00000020: 25ed 67bd ee69 cb3d dc6c 02bd 9df2 afbd
00000030: 30a7 babd 8480 9bbd 1cc3 acbd 268b 07bd
00000040: 9226 cbbd 5fc0 8c3a f7ac 3cbd 966e 68bc
00000050: 3fb2 033d 32e0 b03d c904 8abd 128c 0d3c
00000060: 4f6b bc3d ed94 5e3d 6432 8b3c c4f9 593b
00000070: 0d66 b43d d6e3 623d 01d2 2cbd 74ff 823d
00000080: e59a 6f3d 54d2 153d 9763 973c f406 603d
00000090: 1786 60bd 3f67 553d e743 733c f85d 26bc
000000a0: 0b5d d9bb e9e2 713d 0a1d 78bd 58af cdbd
000000b0: 9f74 573d 0f0a c23c 0aa6 b5bd 5218 85bd
000000c0: ebfd e4bd 866b 783d 367f f33c 0d38 d2bd
000000d0: 485d ad3d 8546 233d f706 60bd 2363 acbd
000000e0: 5ff0 003b 3d66 a5bd d113 c33d de60 df3c
000000f0: 8212 7bbd fa7d 4fbc 042c 1dbd acf6 aabd
00000100: 72f2 ca3d 9ff9 eebc 0b27 d33c a833 59bd
00000110: e492 ca3c 6e61 80bc 96b3 9cbd 70b4 253d
00000120: f3f0 373d 418f 89bd df35 173d 583d fb3c
00000130: b069 dcbb 29a4 88bd d80b e2bc 6c45 193c
00000140: 89d7 7abd f004 643d 1731 af3c 6ec1 833d
00000150: 8a91 bd3c 5d1d 1fbd 5fa9 4bbc 5492 d83c
00000160: 2cd8 47bd dda3 aebc 3842 883d 5b8c b1bd
00000170: 7134 593d dec2 e2bc 980c 313d a095 d3bd
00000180: 3056 ac3d 4af0 063d ccc1 cbbd 602a 553d
00000190: c238 a83d bdd7 ff3c 57ec 4f3c fac5 d9bd
000001a0: faa6 e2bd 9d10 9abc 9192 fc3c 1b43 91bd
000001b0: 1e6c bdbd 2377 663d b2b5 163d 8ef6 56bd
000001c0: 1736 8fbd d817 9cbd dc82 0e3d 65d0 a13d
000001d0: 1dc1 083d 517e 31bd cce4 4dbc f406 8dbb
000001e0: 4307 593d 2cbf 33bd 9e83 b5bd d010 24bd
000001f0: c3ba f8bd 47a4 27bd d4f7 6cbd 30d2 473d
00000200: 88de aa3d 3adb 47bd b16a 44bc c434 13bc
00000210: f1be 66bc 9d64 dcbd 3235 ad3d af7b bebd
00000220: a6d4 debd f7a8 8fbd 6461 fbbc 00ae 84bd
00000230: d8f4 523c 036b bcbd 5217 bdbd 8b18 04bd
00000240: 419e 493d 0cf2 6e3c 4ace b1bd 7ae5 58bd
00000250: 42dc 9bbd c84f bcbd d8af 5abd 04c1 a4bc
00000260: fd53 bebd 3784 b6bd 94df d5bd b2c0 cebd
00000270: 8d80 43bd 239d 5e3d 984a d9bd 6643 55bd
00000280: 0b05 4d3d 5efb f93c 5943 a33d 90c4 93bd
00000290: 4256 e33c cbc4 aa3d fb97 8bbd 058c aebb
000002a0: 835f 71bd 34b3 3d3d 7fc2 993d 3d2f 99bd
000002b0: ec68 71bd 4f7e 27bd 3feb b8bd 4812 0a3d
000002c0: 35b8 00bd 323b 48bd 83e5 02be 4df6 02be
000002d0: b4b4 82bd 14bf db3c 71cc a3bd 4281 973d
000002e0: 4cdf 88bd 0364 9bbd f83a 563d 764a a83c
000002f0: 1834 10bc f62a b73c a055 053d 2c64 b4bd
00000300: d844 ae3c 818b 03be a286 debd 322f a8bd
00000310: 73ae 073d 2b68 bcbc 8e5c 51bd 27cd 653d
00000320: a079 2d3d 96dc 053d 6731 0e3d d870 63bd
00000330: 830c 1a3d 01b0 723d 81c0 67ba e624 393d
00000340: 2c85 813c 1ce5 c9bc 49f5 cabc e7e4 8bbc
00000350: 5f9a 4abd f114 db3d 1bd7 94bd 8703 b6bd
00000360: 6bc7 e23c 9544 003d 4946 7c3d c798 103d
00000370: 9f0c 92bd effa 2ebd 98bb b1bd 35d9 02be
00000380: fa46 a6bd b76e 11bd 84e7 99bc fe59 d9bd
00000390: 0ef3 723d 9123 cebd c73a 03be 7fd1 ed3d
000003a0: 9e9c 1fba 0eae e33c 6bad 353d cc73 df39
000003b0: c4c4 57bc cbdd 21bd 4fa9 c8bd 6a51 923d
000003c0: aa95 b9bd 626a ac3d b067 09bd 0092 7b3d
000003d0: 320e 143d 2e78 863d 9d3c 653d ee8b 9abd
000003e0: 8d9a 73bd fd39 cbbd 72aa 04be b833 9cbd
000003f0: c929 cebc b33c 32bd e51e d9bc 52dd 60bc
0.01569563 0.0023733785 -0.06996283 -0.09844841 -0.07398436 0.051390253 -0.028302666 -0.042065952
-0.056622643 0.09932314 -0.031842098 -0.08591197 -0.0911392 -0.07592872 -0.08435652 -0.033091687
-0.09919466 0.0010738483 -0.04606339 -0.014186522 0.03215241 0.08636512 -0.06739194 0.008639352
0.09200155 0.054341245 0.016991802 0.0033260444 0.08808527 0.055393063 -0.042192463 0.0639638
0.05849733 0.036577538 0.018480105 0.05469413 -0.054815378 0.052100416 0.014847732 -0.01015424
-0.006633406 0.05905429 -0.06057457 -0.1004321 0.052601453 0.023686437 -0.0886956 -0.06498779
-0.111812435 0.060649417 0.029723745 -0.10264597 0.084650576 0.039862175 -0.054694142 -0.08417346
0.0019674522 -0.08076141 0.09525264 0.02726787 -0.061296947 -0.0126643125 -0.038372055 -0.0834783
0.09909524 -0.029171763 0.025775453 -0.05302778 0.024728246 -0.015671458 -0.07651441 0.04045528
0.04490752 -0.06716777 0.03691661 0.0306689 -0.006726466 -0.06671936 -0.027593538 0.00935493
-0.061240707 0.05566877 0.021385713 0.06433378 0.023140687 -0.038846362 -0.012430518 0.026436962
-0.048790142 -0.02131837 0.06653255 -0.08669349 0.053028528 -0.02768081 0.0432249 -0.10331273
0.084148765 0.032944 -0.09949073 0.052042365 0.08213951 0.031230802 0.012690625 -0.10633464
-0.110670045 -0.01880675 0.030831607 -0.070928775 -0.09249137 0.05626596 0.036794372 -0.052481227
-0.06992739 -0.07621735 0.034792766 0.07901076 0.033387292 -0.043333355 -0.012566756 -0.0043038074
0.05298544 -0.043883488 -0.088629946 -0.040055096 -0.12144997 -0.04092815 -0.057853535 0.048784435
0.08343226 -0.048793055 -0.011988328 -0.008984748 -0.01408361 -0.10761378 0.08457412 -0.093009345
-0.10880403 -0.07014649 -0.030686088 -0.064785 0.012875758 -0.09200098 -0.092329636 -0.03224997
0.04922319 0.014584076 -0.08681925 -0.05295322 -0.0761037 -0.091949046 -0.053390354 -0.020111568
-0.09293363 -0.08911937 -0.10443035 -0.100953475 -0.047730017 0.054349076 -0.10609931 -0.05206623
0.050053637 0.030515369 0.0797183 -0.07215226 0.027751092 0.083383165 -0.06816097 -0.00532675
-0.058928978 0.04631348 0.075078 -0.07479713 -0.058937952 -0.04089194 -0.09029245 0.03370884
-0.031425674 -0.048884578 -0.12782864 -0.12789269 -0.06382123 0.026824512 -0.079979785 0.07397701
-0.066832155 -0.07587435 0.05230233 0.020543318 -0.008801483 0.022359353 0.03255236 -0.08808169
0.021273062 -0.12846185 -0.10865523 -0.08212127 0.033125352 -0.02299889 -0.051113658 0.05610385
0.04235232 0.03268107 0.034715082 -0.055527538 0.03760959 0.05924988 -0.0008840636 0.045201205
0.015810572 -0.02464538 -0.024775164 -0.017076923 -0.049463626 0.10697354 -0.072675906 -0.088873915
0.02768298 0.031315405 0.061590467 0.03530195 -0.071313135 -0.042719778 -0.08678359 -0.1277817
-0.081190065 -0.035505977 -0.018787153 -0.10612868 0.059313826 -0.100653775 -0.1281539 0.11612224
-0.00060887064 0.027792957 0.044354837 0.0004262015 -0.013169471 -0.03951816 -0.09797918 0.07144435
-0.09061749 0.084187284 -0.03354615 0.061418533 0.03614635 0.06565891 0.05596601 -0.07546221
-0.059473563 -0.0992317 -0.12955645 -0.07627052 -0.02516641 -0.04351492 -0.02650399 -0.013724642

encoder.cpu_model.net.network.4.bias f4 [64]
00000000: be3a d03d e1f0 b4bd b273 a5bd 72ab e63c
00000010: 6a00 fbbc 459a 3f3b f746 673d f5fa 0f3c
00000020: d512 1abd 1989 603b 04a9 913d d9cd 853b
00000030: 366c bfbc 91d9 e9bc 2d58 6f3d 4504 de3c
00000040: 7ec8 c3bd 0d20 b9bd ae09 b0bd f875 25bd
00000050: d920 bfbd 2f30 993d c670 aa3d a738 273d
00000060: 9d6f a43d 03f2 6ebd b36c ab3d c9fc 5c3d
00000070: 5191 cebd a446 9bbd b46a a73d f47c 923d
00000080: 7761 86bd 33d5 91bc 3eee dcbb 698a a83c
00000090: 529e babc 921b 64bd ce66 9a3d 13fb 2a3d
000000a0: 9f32 183b 078e 6e3d 1619 c9bc 7ba9 c23d
000000b0: 6357 abbd c213 8fbd 98dd a0bd ca18 85ba
000000c0: 2f91 863d 4881 18bd 2595 34bd 31af 5d3d
000000d0: da79 493c 38ff a6bd 0f4b a4bd 8ac6 3f3d
000000e0: 08f4 ce3d fac9 853d b44c be3d a1e6 dc3d
000000f0: 5204 b4bd 839c 553d 4176 3dbd 5fb6 763d
0.10167454 -0.088350065 -0.08078708 0.028157923 -0.030639846 0.002923624 0.05646416 0.00878786
-0.037615616 0.0034261404 0.07112315 0.004083377 -0.023367029 -0.028546127 0.0584337 0.027101645
-0.09559725 -0.09039316 -0.08595596 -0.040395707 -0.09332437 0.074798934 0.08322291 0.040825512
0.08029101 -0.05833627 0.08370342 0.053952012 -0.10086311 -0.07581833 0.08174649 0.07152739
-0.06561559 -0.017801857 -0.006742268 0.020573812 -0.022780571 -0.055690356 0.0753914 0.04174335
0.0023223532 0.058240917 -0.024548095 0.09504982 -0.08366277 -0.069861904 -0.07854766 -0.0010154482
0.0657066 -0.037232667 -0.044087548 0.054122154 0.012297118 -0.08154148 -0.08022129 0.0468202
0.10105139 0.065326646 0.09291974 0.107861765 -0.087898865 0.052151214 -0.046255354 0.060232516

encoder.cpu_model.net.network.5.weight f4 [64]
00000000: f2ff 803f 7687 833f dee0 853f e900 813f
00000010: b7d9 813f eaf9 893f febd 7b3f e4cd 803f
00000020: 9b70 7f3f 9d0b 813f 6f0d 803f 8960 853f
00000030: 6091 833f e206 743f e873 7c3f a325 7f3f
00000040: 50d3 7b3f 4d85 7e3f 40e2 813f 855b 7f3f
00000050: 7815 883f 9bc3 783f 4803 823f 3312 833f
00000060: 3fc3 853f 4969 7f3f ac32 843f 56d9 803f
00000070: 7657 823f 7700 7c3f 8113 833f 1e7d 813f
00000080: 286b 773f bc6e 833f bec2 803f 0ce8 833f
00000090: 1b67 813f 8c1f 7d3f bbce 763f 55ba 803f
000000a0: 7f45 7d3f 1e72 793f 53c1 813f 3bf1 7f3f
000000b0: 18aa 7c3f 50a2 813f f898 833f ff0b 823f
000000c0: fc2a 843f ec78 853f 2da2 833f 950b 813f
000000d0: 823e 833f 4309 853f 1776 7b3f 68b3 803f
000000e0: 2673 853f 8a07 823f 26f5 853f 7e9f 863f
000000f0: 5334 833f b96e 833f b8e5 873f 6c06 7e3f
1.0078108 1.0275714 1.0459249 1.0078403 1.0144566 1.0779393 0.9833678 1.0062833
0.997812 1.0081669 1.00041 1.0420085 1.027874 0.95323 0.9861436 0.99666804
0.9836931 0.9942215 1.0147171 0.9974902 1.0631552 0.9717347 1.0157251 1.0239929
1.0450209 0.9977003 1.0327964 1.0066326 1.0182941 0.9843821 1.0240327 1.0116308
0.9664788 1.0268168 1.0059431 1.030519 1.010959 0.9887626 0.96409196 1.0056864
0.9893417 0.97439754 1.0137123 0.99977463 0.9869704 1.0127659 1.0281057 1.0159911
1.0325618 1.0427527 1.0283867 1.008166 1.0253451 1.0393451 0.98227066 1.005475
1.0425766 1.0158551 1.0465438 1.0517423 1.0250343 1.0268165 1.061698 0.9922855

encoder.cpu_model.net.network.5.bias f4 [64]
00000000: 4f2f 9b3c baeb 053d aa16 5b3c 3fa6 0e3c
00000010: c386 13bd 94ca 253c 8531 cdbb 2045 153d
00000020: 2ddb a13c 5350 d23b 0a17 bfba 35f8 be3c
00000030: b2b5 86bb 48d9 a4bc 8bad 61bc 6c78 a9b9
00000040: 17f7 86bb 25d4 5e3c 65c1 803d db8a b93b
00000050: c23d 2b3d 2b6c a93c 8a23 703c fc85 00bd
00000060: d531 853d b71e e9bc 2efc 0c3c fe06 5bba
00000070: a103 fe3c bbf9 743b 6ffb 153d f04c 1cbc
00000080: ff49 9b3c dc29 0b3d 8a27 f2bc a89a 863c
00000090: e288 1a3d c98f 69bc ad11 82bc dfd3 263c
000000a0: 06b8 08bd 16c3 5abd a25a e4bc 4cb5 bc3c
000000b0: 07b1 80bd a065 1fbd 63fa 173c df43 2abc
000000c0: bec0 243c e6fa b83c 542c 93bb e9a1 a73b
000000d0: 76ce 2ebc 4f7f d43c dd1b e4bc 694e 49bd
000000e0: 873b fe3c 7c30 313c fa90 933c f6fe a33b
000000f0: ad0f 7c3c 6bbf f4bc cb45 bd3c 7531 15bd
0.018943457 0.03269551 0.013372103 0.008706628 -0.03601719 0.010119099 -0.0062620067 0.036442876
0.019757831 0.006418267 -0.001457901 0.023311714 -0.0041110152 -0.020123139 -0.013774286 -0.00032323913
-0.004118811 0.013600384 0.06286887 0.005662305 0.041806944 0.020681461 0.014656911 -0.031377777
0.06503645 -0.028457029 0.008605046 -0.0008355229 0.03100759 0.0037380296 0.03661674 -0.009539828
0.018956183 0.033975467 -0.02955987 0.016431168 0.037728198 -0.014255472 -0.01587757 0.01018235
-0.033378623 -0.053408705 -0.027875248 0.023035668 -0.06283765 -0.038915277 0.009276005 -0.010392158
0.010055719 0.022580575 -0.0044913683 0.0051157367 -0.010669341 0.025939612 -0.027845317 -0.049147043
0.031034244 0.010814782 0.018013466 0.005004759 0.015384597 -0.029876431 0.023104569 -0.03642412

encoder.cpu_model.net.network.5.running_mean f4 [64]
00000000: 2db2 4abd 874a 0cbf a9e6 ebbe 411e b0be
00000010: 1d50 de3e a47a c3be ab5e b43e 7797 163e
00000020: 8f19 bc3c 00ea 6b3d 1169 1d3d 78d6 a6be
00000030: 9e51 9bbe 8172 ef3d c822 b73c 3073 db3d
00000040: ccc6 583e d3bc 1b3d 6b45 02bf 5e59 7b3e
00000050: 24c1 2abf e5ea 5b3e 1827 293e 574d cf3e
00000060: 99d9 bfbe aa08 ac3e 39e3 91be bbcb cd3e
00000070: 3083 92bd aaae abbe b2cc bfbe 0aed c13e
00000080: a42b 783e a27b 05bf e60b 083f c341 5dbe
00000090: 8796 e7be 54cc 403e 990d 073e 441c b13d
000000a0: 5a4f eb3e f91e ac3e aad6 8d3e dcc3 41be
000000b0: 908d 9b3e b7f0 883e 3103 9fbe 7845 a83e
000000c0: 4e80 e7be 519f 0ebf 33ed 7b3e c7f0 f63d
000000d0: d8ad c23e 0e5e 0abf f3e7 2a3e f3a5 c43e
000000e0: b5f8 b2be a276 183e 1215 47be 1f6a 4fbe
000000f0: e323 683e 0a90 913e 619f bebe a5c1 fc3e
-0.049486328 -0.5480122 -0.46074417 -0.34398082 0.43420497 -0.38179505 0.35228476 0.14706217
0.022961406 0.057596207 0.038430277 -0.32585502 -0.30335706 0.11691762 0.022355452 0.1071533
0.21169585 0.038021874 -0.50887173 0.2454581 -0.6670096 0.21476324 0.1651882 0.40488693
-0.374707 0.3360036 -0.2849367 0.40194497 -0.07153928 -0.33531696 -0.37460858 0.3787616
0.24235398 -0.52141774 0.53143156 -0.21607117 -0.4523203 0.18827945 0.13188781 0.08647969
0.45958978 0.3361738 0.27702838 -0.1892237 0.3038144 0.2674615 -0.31057122 0.328655
-0.45215076 -0.5571185 0.24602203 0.120576434 0.38023257 -0.54049766 0.16690044 0.3840786
-0.34955373 0.14889005 -0.19441631 -0.20255326 0.2266994 0.28430206 -0.3723097 0.4936649

encoder.cpu_model.net.network.5.running_var f4 [64]
00000000: fe03 a13e 5282 6a3e 9119 e23f 817b d23f
00000010: 88b1 7e3f bb7e b23f ed15 b23d e3df 123d
00000020: 7116 ff3d c7e9 d43e 9780 4e3e 4c5a 813f
00000030: 5959 3e3f aefe 0d3e 479c ff3d 1f2a c03e
00000040: 8739 b53f e637 463f a594 0f3e 6e3b 733f
00000050: 737b 8d40 e08f f83e 60bb 073f 3a39 1c3f
00000060: 3a8b 8e3e 4cf7 563f b176 d43f 3eb6 e53d
00000070: 3fea f23e a945 903e 89ec 653e e39f da3e
00000080: 68a1 823e 89ff 0f3e 5494 be3f ca73 543f
00000090: cfa0 d13d 1c79 e33e e2f6 be3d 23bb 303e
000000a0: 8c9c 633f 3ee5 783e 0100 cf3e 7357 8b3e
000000b0: 9c37 f63e 9248 c23e b54c 383f 6af0 353f
000000c0: 36d5 3e40 6fc9 6a40 ac29 aa3e 9411 1d3e
000000d0: 8793 3e3f 719b 2c40 19b2 a23e 6bc4 7a3e
000000e0: 838f 0f40 1e5e a33e 909a 0e3f 2be4 633f
000000f0: cf11 ed3d 98bf 383e 62aa b83f b434 853f
0.31448358 0.22901276 1.7664052 1.644394 0.9948964 1.3944925 0.08695588 0.035858046
0.12455452 0.41584608 0.2016624 1.0105681 0.74355084 0.13866684 0.124809794 0.37532136
1.4158181 0.77429044 0.14021547 0.9501256 4.4213195 0.48547268 0.53020287 0.6102482
0.27840596 0.83971095 1.6598722 0.112164006 0.4744434 0.28178146 0.22453512 0.4270011
0.25513768 0.14062323 1.4889016 0.8298918 0.1023575 0.44428337 0.09324433 0.17258887
0.88910747 0.24306199 0.4042969 0.27215156 0.48089302 0.37945992 0.71992046 0.7106997
2.9817634 3.6685445 0.33234918 0.15338737 0.7444386 2.6969874 0.31776503 0.2448899
2.2431343 0.31907743 0.55704594 0.8902003 0.11575662 0.18041837 1.4426997 1.0406709
