results/b1e80431/model.ckpt (torch_old, 651959 bytes, 90 tensors)

encoder.latency_model.net.network.0.weight f4 [32, 1, 3]
00000000: fbf6 d83e 275c 093f f0d3 9fbd 0059 71bd
00000010: 44c8 983e 43fd 95be b2c3 35be 4703 633e
00000020: cba0 e8be 194a 403e 34b4 9cbe f562 a8bd
00000030: ec9b babe 0cdd 3f3e 2df0 7bbe 8496 893d
00000040: 4331 053f 52c6 033f b1fa 773e c32f 903e
00000050: 7229 c23e df37 01bf 1d74 113e 6f4c 9dbe
00000060: dcda 56be bebc 5a3e 30a8 5bbb 5ba9 83be
00000070: be4a 14be 39b9 94be df32 b4be 8d70 ca3e
00000080: 5652 de3e 9597 a33e 7136 563b 68b4 713e
00000090: 5727 ad3e 60a2 ebbe d3c4 053f baa1 02bf
000000a0: 6e04 f93e e72b 9e3c ce37 683e dba1 edbe
000000b0: eac5 9b3e 167a 113e 96a9 653e 4462 333e
000000c0: 6439 c03d 0181 dc3e d14f 0bbf 65ee fc3e
000000d0: 6405 db3d adec 0ebf 717d febe ac28 d23e
000000e0: 01cc 133f 9b5d cdbe c344 e93d e5cb 9c3d
000000f0: ca91 033e 6c1d 8d3d 149a 443e b2ef f0bd
00000100: 88ab 093f 4df9 883d ce55 ec3d bffe a6be
00000110: 3a3d afbe 25c5 fabd 35b9 2bbe 5f51 efbe
00000120: 9a4b a0be be58 09bd c850 7e3e 1c15 e5be
00000130: d9b7 c2be 9747 32be 0293 3fbc f58c 23be
00000140: 6df6 293e 9e8e 78be cfba ffbc 6bcd 8c3e
00000150: 70d8 f1be af21 13bf eabb a23e 62ab 11bf
00000160: e795 4e3e d475 dcbe cc60 15bd 5d2f a4bd
00000170: 052e dbbe d34e 993d 3681 8cbe 47ec d73e
0.4237593 0.5365624 -0.07804096 -0.058922768 0.2984029 -0.29294786 -0.17750433 0.22169219
-0.45435175 0.18778266 -0.30606234 -0.082219996 -0.36447084 0.18736666 -0.24603339 0.06718162
0.5202829 0.5147449 0.24216725 0.2816144 0.37922245 -0.5047588 0.1420445 -0.30722377
-0.20981926 0.21361062 -0.0033516996 -0.25715145 -0.14481637 -0.29047564 -0.35195062 0.39538994
0.43422192 0.31951585 0.0032686258 0.23603976 0.33819076 -0.4602232 0.52253455 -0.51028025
0.48636192 0.019308044 0.22677538 -0.46412548 0.30424434 0.14206728 0.22427973 0.17517954
0.093859464 0.43067172 -0.54418665 0.4940063 0.106943876 -0.5582989 -0.4970508 0.41046655
0.5773316 -0.40110478 0.113900684 0.07656077 0.12848583 0.068903774 0.19199401 -0.11764468
0.5377736 0.06688175 0.115398034 -0.3261623 -0.342264 -0.122446336 -0.1676987 -0.4674177
-0.3130768 -0.033531897 0.24835503 -0.44742668 -0.3803089 -0.17410122 -0.011692764 -0.1597174
0.1659791 -0.24273154 -0.031217007 0.2750047 -0.4723544 -0.5747327 0.31783992 -0.56902134
0.2017437 -0.43058646 -0.036469266 -0.08016846 -0.42808548 0.07485738 -0.2744233 0.42172453

encoder.latency_model.net.network.0.bias f4 [32]
00000000: da12 14be f676 e63e ec20 2cbe d073 803e
00000010: 441a dc3e fe11 dbbe 2055 033f 0ce2 cfbe
00000020: 897a 38be fd6c 81bc eb8b 11bf 9fc0 ccbd
00000030: de5a eabc 6305 823e a9d9 a43e 6a71 7ebe
00000040: 6549 f0be 3da6 30be 9d0f 1f3e 7514 ef3e
00000050: 2dbf 4dbe 63b0 eebe 1b5b 27be 520a c03e
00000060: 6344 62bd 3dfb f23e 1ec0 62be 44a7 843e
00000070: 7602 97be 822d b63e f216 c6be 67e9 a7bd
-0.14460316 0.45012635 -0.16809434 0.25088358 0.4298879 -0.42787164 0.51301765 -0.40602148
-0.18015493 -0.01579904 -0.5685412 -0.09997677 -0.028607782 0.25394735 0.32197312 -0.24847952
-0.46930996 -0.17250915 0.155333 0.46695295 -0.20092459 -0.46618947 -0.16343348 0.37507874
-0.055241 0.47457305 -0.221436 0.25908864 -0.29494065 0.35581595 -0.3868938 -0.08198815

encoder.latency_model.net.network.1.weight f4 [32]
00000000: ed99 7c3f 1429 843f 7efe 803f febb 7d3f
00000010: 62d9 773f f86c 803f 0298 7b3f 6d89 7f3f
00000020: f124 7f3f b2b0 7d3f cd05 7b3f 9c5c 7e3f
00000030: 9627 7a3f a039 823f f904 813f 735c 7b3f
00000040: efed 863f ea87 7e3f e78f 803f 173a 813f
00000050: f7a8 7e3f dbe4 7a3f 5947 7b3f 5f43 833f
00000060: 6858 7c3f 2b71 823f 3239 7d3f 299a 7e3f
00000070: 14be 7f3f f279 813f f181 833f 26aa 7e3f
0.9867237 1.0325036 1.0077665 0.9911498 0.96816075 1.0033255 0.9827882 0.9981907
0.99665743 0.9909774 0.98055726 0.9936006 0.97716653 1.0173836 1.0079643 0.9818794
1.0541362 0.9942614 1.0043916 1.0095853 0.9947657 0.98005456 0.9815574 1.0254935
0.985724 1.0190786 0.989154 0.9945398 0.9989941 1.011534 1.027403 0.99478376

encoder.latency_model.net.network.1.bias f4 [32]
00000000: 02d0 04bc 58f4 a7bc 48ca 773d 0bb3 4cbd
00000010: fb97 6dbd eae2 67bd 0400 243d 1ee0 023d
00000020: 4167 4bba 4677 a1bc 12a2 3c3d 4d93 c03c
00000030: 5b54 1f3d 207e c4ba c430 bf3c 3361 673d
00000040: e743 16bc 779b 383c 2a34 61bd c762 5d3d
00000050: e9d2 2d3d 3bd1 ef3c 5ac8 2d3c 0030 473d
00000060: 0100 99bc 610a 2f3d c120 63bb ca88 74ba
00000070: 16b5 233d 4a2e 493d ad9e 5c3d eb61 173d
-0.008106234 -0.020502254 0.060495645 -0.049975436 -0.058006268 -0.056612886 0.040039077 0.031952016
-0.00077592215 -0.019710194 0.046053 0.023507738 0.038898807 -0.0014991201 0.023338683 0.05648918
-0.009171463 0.011267534 -0.05498139 0.05404928 0.042437468 0.029274574 0.01060685 0.04862976
-0.01867676 0.042734507 -0.0034656974 -0.00093282445 0.03996762 0.04911641 0.053862263 0.036958616

encoder.latency_model.net.network.1.running_mean f4 [32]
00000000: 2cfc 8d46 9862 8ac4 013a 04c6 a7e9 7bc5
00000010: 112e 06c6 6c6d b046 609b 9046 793c 56c6
00000020: f3ce d5c1 9b2a 5cc6 5f61 1746 21d9 3246
00000030: f522 0046 bee9 c9c2 ba38 b544 6084 2d46
00000040: 5f5e d6c3 15a0 8544 2513 1d46 c00d 85c5
00000050: e74b f945 1915 1e46 9932 31c6 0762 72c6
00000060: 7c01 ebc4 555e a0c6 8ef5 f0c2 9238 52c1
00000070: 2bab 69c6 6b9d 7fc6 b259 2ec6 1709 8d45
18174.086 -1107.081 -8462.501 -4030.6033 -8587.517 22582.71 18509.688 -13711.118
-26.72605 -14090.651 9688.343 11446.282 8200.739 -100.95653 1449.7727 11105.094
-428.73727 1069.0026 10052.786 -4257.7188 7977.488 10117.274 -11340.649 -15512.507
-1880.0464 -20527.166 -120.4796 -13.138811 -14954.792 -16359.3545 -11158.424 4513.136

encoder.latency_model.net.network.1.running_var f4 [32]
00000000: c8d5 7b51 c3dd 004f b6c5 6a50 a505 914f
00000010: 50b9 6450 1632 bc51 7ccf 7551 358e 0b51
00000020: 2476 804e c9ea 0d51 0f91 bb50 e4b1 bc50
00000030: f849 8250 e0a7 b74f 3c37 654f 70c2 b150
00000040: 4a1e c64f 4147 1f50 5da6 eb50 498d b14f
00000050: cf43 3650 6045 aa50 6189 cb50 c5e1 2f51
00000060: 5d4e 584f 1aac 9851 35dd 204e c7cf 154f
00000070: 42f6 3f51 7b8e 4651 816e bc50 4b7b c24f
6.7601465e+10 2.162017e+09 1.5755303e+10 4.8661325e+09 1.53494e+10 1.0103677e+11 6.598425e+10 3.7461643e+10
1.077613e+09 3.809559e+10 2.5174768e+10 2.5326199e+10 1.7487086e+10 6.162465e+09 3.8456023e+09 2.385848e+10
6.6477476e+09 1.0688988e+10 3.1628388e+10 5.957653e+09 1.2231589e+10 2.2853386e+10 2.7318225e+10 4.721294e+10
3.6290143e+09 8.19653e+10 6.747129e+08 2.513422e+09 5.1529392e+10 5.329962e+10 2.5290869e+10 6.52572e+09

encoder.latency_model.net.network.4.weight f4 [64, 32, 3]
00000000: b3ce cebc b2a2 a4bd 6354 0bbd 153c f33c
00000010: 13b6 86bd df62 b73d bba8 8ebd 9977 1cbd
00000020: aab8 363c e35b 3abd 2c0f c8bd 1a80 edbd
00000030: fcce 94bd 87ad e3bd ff2e febc f57a 56bd
00000040: 6bcd 8abd c08a 80bd c402 82bd dbd5 e5bc
00000050: 6a4b edba 3f68 033c 856c bebd b208 34bd
00000060: f6c4 b9bd b60d 5ebd 056b b6bd e312 fdbc
00000070: ce62 99bd a902 fabc f500 ed3b 2b68 3bbd
00000080: cb92 3039 a3a3 9cbd 2de9 60bc 9cdc 183d
00000090: befa 303d b128 993b 08f3 473d 7db9 ac3c
000000a0: 8d14 d6bd 2e5b 03bd a8d4 cabd e47b 8a3c
000000b0: bf6a ce3c f2df 86bd 0000 34bc 54f4 4e3d
000000c0: d566 00be f023 d7bd bc76 11bd dc66 a3bd
000000d0: a71e 583d bec8 c43d 80b1 62bd f5dd 88bd
000000e0: 1c8d cb3c bacb 17be 3948 573d 861a d5bc
000000f0: 406a 323d aabb 703d 74fe 0bbd c48a 643d
00000100: 8aa0 babd 4e9a c3bd 3131 543d 7417 053d
00000110: a898 fdbd 1027 a9bd f250 ec3c 3536 243d
00000120: f173 10be dc3d 3b3c bbba 6d3d 5663 ed3b
00000130: e73f 553d 41b4 b0bd 04ba dfbd 9eca 09bd
00000140: d276 573d b298 f13c 756f d6bd c5a9 aa3c
00000150: c2ec 04be 8aa9 c4bd e4bc 463d 6604 b6bd
00000160: eff1 1fbd f1fe dbbd 133d 66bd 1713 f6bc
00000170: adf2 f03c b1ec adbd 0899 54bd e8a3 793d
00000180: 93c3 7bbd f7f2 803d fe13 303c 01a9 023d
00000190: e04e 72bb 8a30 9b3d 12a9 f2bc 20d4 c3bc
000001a0: 11a8 cbbd c2d0 463d c7c5 813d 9430 95bd
000001b0: 6da7 5bbd c7ed 3abd 2b61 adbb 426c 0cbd
000001c0: 3256 68bd 6f04 32bd 0562 7c3d cbee babd
000001d0: 0222 e13c d331 c6bd 4c26 15bd d0d8 283d
000001e0: 0e9d 913d 57b2 893c d794 1ebd 3d95 393d
000001f0: 9e52 75bd a5c4 9fbc eaa5 61bd 8c4b 8a3c
00000200: ff97 e7bc f80e a63c 4dca 093c edfa af3d
00000210: 8acb ba3d 4dc2 53bd 8df2 9fbd 07ce 9f3d
00000220: 6d45 dd3d 53e2 49bc de31 713d 7a0d 5e3d
00000230: 3430 febb c3b1 a53d 630b b7bd b88f ca3b
00000240: 8cf6 453d 50a2 0cbd d42f 823d 18c5 e53c
00000250: d0d6 85bc 40cb dd3d 316e 8cbc 5d9b c6bd
00000260: 96ec 883c 6fe9 e7bd d36f e73b da66 9bbc
00000270: b5a7 c7bc 14a0 a6bd c75f 273d 4775 a03d
00000280: 196f 913c 418d 93bc a1d6 763c 08b0 333c
00000290: 3e8f d6bd d0ff a03c 1e9e 01be 4b54 353c
000002a0: 51b3 71bb 4514 35bd 2dd7 1e3e a833 69bd
000002b0: e11f 4e3d cae1 85bc 75a1 733d 8415 883d
000002c0: 37ab c53b 9de4 66bd 4c84 093d 5cd4 5e3c
000002d0: 55ce 62bd cbcf aebd df2f 19bd bf00 d0bc
000002e0: e91b 5cbd c356 8e3d 18d2 0c3d 7804 603d
000002f0: 7027 f6bb b07b 9e3d 9c82 2c3d 3cf2 333c
00000300: c3ef a7bd 5315 6dbd 5523 c8bb abc3 2abd
00000310: d3a3 b4bc 4c9d d53c a151 34bd 34f5 5cbd
00000320: 2d94 5ebd defd d33d 003b cc3c 3e30 a8bc
00000330: 325a e33c 26c8 7b3d 7433 76bc 98b7 453d
00000340: abaf 083d c97c 84bb 9ab8 d43d 7c93 a4bd
00000350: db60 66bd e862 9fbd 7667 943c 42f2 8c3d
00000360: 93b1 1dbd d96c 843d 43ac eb3d bcf4 d5bd
00000370: fd16 debd f119 b73c 7818 463d a430 36bd
00000380: 6281 a4bc 7451 5f3d 90d4 aabd 9775 4fbd
00000390: f1ab be3d db8a 0bbd 3318 c03d e1ab e23c
000003a0: 7169 f03c aad8 683d ec4f 22bd 4ee5 943d
000003b0: 2e77 86bd a193 8ebd c5c1 4abd 0e94 0d3d
000003c0: ca6f 0c3d ebe2 01bd db86 613d d7ab b9bc
000003d0: 2844 43bc d16b 763c d0f9 543b e68a 933d
000003e0: dead babd 35d2 803d 5cb5 6cbd 1f64 b0bd
000003f0: 3277 d8bc 7f6d 993a a2e6 bc3d 8dba a63c
-0.025245046 -0.08038844 -0.034016024 0.029691735 -0.06577697 0.08954405 -0.069657765 -0.038199995
0.011152426 -0.045497786 -0.09768519 -0.11596699 -0.07266042 -0.11117082 -0.031028269 -0.052363355
-0.067774616 -0.062764645 -0.06348184 -0.028056076 -0.001810414 0.00802046 -0.09298042 -0.043953605
-0.090707704 -0.054212295 -0.08907131 -0.030892795 -0.074895486 -0.030518847 0.00723278 -0.04575364
0.00016839353 -0.07648399 -0.013727468 0.037319764 0.043207876 0.0046740402 0.048815757 0.021084541
-0.104531385 -0.032069378 -0.09903842 0.016904779 0.025197385 -0.06585683 -0.010986328 0.05052598
-0.12539227 -0.105049014 -0.035513625 -0.07978603 0.052763607 0.09608601 -0.05534506 -0.0668296
0.02484756 -0.1482381 0.05255911 -0.026013624 0.04355836 0.05877272 -0.034178212 0.0557964
-0.09112652 -0.09550916 0.051804725 0.03249307 -0.123826325 -0.08259404 0.028847191 0.04009076
-0.14106728 0.011428323 0.05803941 0.007244508 0.052062895 -0.08628131 -0.109241515 -0.033640496
0.05260355 0.029491756 -0.104704775 0.020832906 -0.12980941 -0.096026495 0.048519984 -0.08887558
-0.039049085 -0.107419856 -0.05621059 -0.0300384 0.029412592 -0.08492411 -0.051903754 0.06094733
-0.06146581 0.06296342 0.010746954 0.031899456 -0.0036973283 0.075776175 -0.029621635 -0.02390486
-0.099441655 0.04853893 0.06336551 -0.07284656 -0.053626467 -0.04563692 -0.0052911243 -0.03428293
-0.056722827 -0.04346126 0.061616916 -0.091275774 0.027482037 -0.09677472 -0.036413476 0.041222394
0.07110034 0.016808672 -0.038716163 0.04530834 -0.059893243 -0.019502947 -0.05508987 0.016881727
-0.02827072 0.02027081 0.008410049 0.08592782 0.09120853 -0.05169897 -0.07809935 0.078029685
0.108042575 -0.012322026 0.058885448 0.05421207 -0.007757211 0.08090546 -0.08937719 0.0061816834
0.04833083 -0.03433448 0.06356779 0.028048083 -0.016337782 0.108297825 -0.017142387 -0.09697602
0.016714375 -0.11323821 0.007062891 -0.018969942 -0.024371961 -0.08136001 0.040862825 0.07834869
0.01775317 -0.018011691 0.01506582 0.010967262 -0.1047654 0.01965323 -0.12657973 0.01106746
-0.0036880563 -0.044208784 0.1551177 -0.05693403 0.05032337 -0.016343016 0.05948015 0.06644729
0.0060323733 -0.056370366 0.033573434 0.013600435 -0.055372555 -0.08535727 -0.03739917 -0.02539098
-0.053737555 0.06950142 0.03438005 0.05469176 -0.0075120255 0.07738435 0.042116746 0.010983046
-0.08200028 -0.057881664 -0.0061077275 -0.04169051 -0.022050774 0.026075982 -0.04402316 -0.05394478
-0.05434053 0.10351156 0.024930477 -0.020530816 0.02775297 0.061470173 -0.015026916 0.04827079
0.033370655 -0.004043196 0.103867725 -0.08035943 -0.056244712 -0.07782537 0.01811574 0.068821445
-0.038499426 0.064660735 0.11507466 -0.1044707 -0.108442284 0.022351237 0.04836318 -0.04447998
-0.020081226 0.05452104 -0.08341324 -0.05064925 0.09310139 -0.03406797 0.09379616 0.027669849
0.029347153 0.056847252 -0.039627 0.07270299 -0.065657005 -0.06961752 -0.0495012 0.034565024
0.034286298 -0.031710546 0.05506025 -0.022664947 -0.011918105 0.015040354 0.0032497533 0.07204227
-0.09115194 0.06290094 -0.057790145 -0.086128466 -0.026424024 0.0011705606 0.09223677 0.020352626

encoder.latency_model.net.network.4.bias f4 [64]
00000000: 9f7e 8c3d 9398 013d 0507 47bd 3ff1 a9bd
00000010: 4326 0fbd 89f1 1dbc 45ef aebd c90a 83bd
00000020: 11ff 753d 3f9e a83d 954b ae3d 6aa9 583d
00000030: 614b be3c 64cf 9b3d c88f a83d 8632 23bc
00000040: 30c9 363d c0b6 ac3c 8f19 ccbd b675 903d
00000050: 1dd7 d13d 1402 bf3d c67d f8bc d1dd f1bc
00000060: d1b3 743d 34a7 c9bd 00dc a0bd fadf cb3d
00000070: c5d7 2d3d 0b8a bcbd f333 ccbd 02a6 74bd
00000080: fb1f 69bd 0b02 dc3c b168 f53c 9d01 163d
00000090: e811 ee3c 2068 babd ecd4 66bd cbbf 4abc
000000a0: 099e 8abd ea10 9ebd d3d8 efbc c3db d0bd
000000b0: 9201 8cbd 295c a0bc c727 583c 2900 d3bc
000000c0: 043b 9f3d c388 6fbc 8b9f cb3d 46ab 9c3c
000000d0: 7679 913c 6c3b 9b3d edfc ce3d 6a37 6b3c
000000e0: 116f ab3c 0c21 44bd b46d bf3d 4571 4bbc
000000f0: ba2f a0bc 2bfe 113d afb1 cabd 70ed 8ebc
0.068600886 0.031639647 -0.04859068 -0.08297967 -0.0349486 -0.009640106 -0.08541731 -0.063985415
0.060057703 0.08233308 0.0851051 0.05289594 0.023229303 0.07607916 0.08230549 -0.009960776
0.04462546 0.021083236 -0.099658124 0.070537016 0.10246108 0.09326568 -0.030333411 -0.029524716
0.0597418 -0.098463446 -0.07854462 0.099548295 0.042442102 -0.09206017 -0.09970846 -0.05972863
-0.056915265 0.026856443 0.029957147 0.036622632 0.029061273 -0.091018915 -0.056355402 -0.012374829
-0.06768424 -0.0771807 -0.029278195 -0.10198166 -0.06836237 -0.019575195 0.013193077 -0.025756912
0.07774928 -0.014620009 0.0994254 0.019124638 0.017758112 0.07579693 0.101068355 0.014356473
0.020926984 -0.04788308 0.09347096 -0.012417142 -0.019554008 0.035642784 -0.09897172 -0.017447203

encoder.latency_model.net.network.5.weight f4 [64]
00000000: b4d3 823f 9115 843f d6f3 813f 12a7 813f
00000010: 123b 833f e6f6 823f 31e5 803f ba98 7e3f
00000020: d165 7f3f a0be 823f 9997 843f 85c5 823f
00000030: 975a 823f 2b5d 833f db15 853f 82d2 7e3f
00000040: a5fd 813f 166d 843f 41a0 843f 1f7b 883f
00000050: 5d87 843f 8466 813f ca99 843f 7f52 843f
00000060: fb64 843f 1dd2 793f 2509 853f 3b1c 7f3f
00000070: 53ed 803f df6f 883f 1783 833f 65d8 7e3f
00000080: e932 803f be20 813f cc37 813f de4e 823f
00000090: ea89 7c3f 4c00 813f a195 7f3f 3d0f 843f
000000a0: ef76 7b3f 5597 823f 27f0 7d3f 39a8 783f
000000b0: 577b 803f 486a 803f 9b14 823f 6948 813f
000000c0: a72d 843f b14c 803f e99c 803f fb1f 813f
000000d0: 3b57 7c3f dbd4 823f 08c9 7d3f 24c8 7a3f
000000e0: c7ba 813f 3003 853f c0a1 823f 3904 843f
000000f0: da9c 793f 5654 7f3f 8ed3 7e3f 9b42 853f
1.0220857 1.0319082 1.0152538 1.0129111 1.0252402 1.0231597 1.0069944 0.9945179
0.99764735 1.0214424 1.0358764 1.0216528 1.0183896 1.0262808 1.0397295 0.9953996
1.0155531 1.034579 1.0361406 1.0662574 1.035381 1.010941 1.0359433 1.0337676
1.0343317 0.9758623 1.0393416 0.9965245 1.0072426 1.065914 1.027438 0.9954894
1.0015537 1.0088117 1.0095153 1.0180318 0.9864794 1.0078216 0.9983769 1.031715
0.98228353 1.0202433 0.9919457 0.9713169 1.003764 1.0032434 1.0162538 1.0100223
1.0326432 1.0023404 1.0047885 1.0087885 0.98570603 1.0221208 0.99134874 0.9796164
1.0135125 1.0391598 1.0205612 1.0313789 0.9750496 0.9973806 0.99541557 1.0410951

encoder.latency_model.net.network.5.bias f4 [64]
00000000: 3176 9b3c f97c 443d c28e 1e3d 4ed5 9c3c
00000010: d922 1a3b ea21 3c3d f034 133d 64ea aa3c
00000020: 36ce 2f3d 0dc6 b73c f6cb 113d 0174 213d
00000030: ea70 0c3d 22cf 263d 9863 443d 78a1 c23c
00000040: dd8c 8cbc 7937 3f3d c32f 4fbb 5b42 b73c
00000050: 02e1 893c c4d1 483b 9fe1 223d 42ee f43c
00000060: 6917 3c3b b3a0 d1bc 8f80 623c 2c23 1c3d
00000070: 4e58 243d 5029 1e3d 5385 1e3d 2da4 653c
00000080: 35ea 0c3d 8152 5c3d 1593 f53c aeec 493d
00000090: 9546 babc c8cb 1b3d c754 fa3c e45d 0e3d
000000a0: b266 88bc 299e 7e3c 58c7 383c a2c9 b73c
000000b0: 0b04 123d 33c4 c03c 2da4 283d d49d 1f3d
000000c0: 73e7 9b3c cd42 cd3b 54a6 113d 17b2 863b
000000d0: 8d6e 1d3d 1181 203d 1cc4 c93c baba 90bb
000000e0: 5713 193d 3d81 273d 30f3 f93b 944d 323d
000000f0: dc8d 2c3c 09e1 1bbb e193 7e3c beb8 e6bb
0.018977256 0.047970746 0.038710363 0.01914468 0.0023519306 0.04593078 0.035939157 0.02086372
0.042921267 0.022433305 0.035594903 0.03941727 0.03428737 0.04072488 0.047946543 0.023758635
-0.017157013 0.046683762 -0.0031614162 0.022370508 0.016830925 0.0030642608 0.03976595 0.029898766
0.0028700477 -0.025589323 0.013824596 0.03811948 0.040123276 0.038613617 0.038701367 0.014016193
0.034403045 0.05378962 0.02997736 0.04929798 -0.022738734 0.038036138 0.030558003 0.03475751
-0.016650531 0.015540638 0.011277996 0.022435013 0.035648387 0.023531055 0.041172195 0.038968876
0.019031262 0.006264067 0.035559013 0.0041105854 0.038435508 0.039185587 0.024629645 -0.004416791
0.03737196 0.040894736 0.007627867 0.043531016 0.010531869 -0.0023785254 0.015538187 -0.007041066

encoder.latency_model.net.network.5.running_mean f4 [64]
00000000: 732d b0bd f670 bebb fa51 eebd c593 0abe
00000010: 8af8 18be 3733 03bc f85d bcbd fac4 f9bd
00000020: ba13 7bbd 2b12 0f3e fff1 963d 89e0 5d3c
00000030: 2478 04bd cf57 00bc 1a49 a43d 790a 03bd
00000040: 9336 59bd a2fa 9fbb 77b6 17be 59fc ba3b
00000050: cd22 11bd aea5 2e3c 9f01 aabc db2d 87bc
00000060: 7eb0 0b3b 9b1d 82bd 1512 1abe 87de 50ba
00000070: 74e9 9a3d 0be5 2fbe c874 17be 2853 97bd
00000080: b78b d7bd bad0 6f3d 31e8 b63c ae00 2c3d
00000090: d489 203d 28c7 94bd 78c4 a6bc 0343 6cbd
000000a0: 6a1c 1f3d 79e9 c8bd 884b 87bd 80c7 b1bd
000000b0: 98dd 89bd e83b faba bd8a f2bc 2420 c5bc
000000c0: a120 99bc 5431 21be e19b 083e 8b1f dbbc
000000d0: 40de 963b b8e1 8c3d 8516 c33d d0e5 c4bc
000000e0: 9e5e 8d3a 83d1 aebd 4773 05bd 2254 89bc
000000f0: c0d8 a4bd b0bb 793d 6f0a c9bd d632 a9bd
-0.08602419 -0.005811806 -0.116367295 -0.13532932 -0.1493856 -0.008007816 -0.091976106 -0.121957734
-0.06129811 0.13971774 0.07370376 0.013542303 -0.032341138 -0.007833435 0.080217555 -0.03199241
-0.05303056 -0.0048821727 -0.14815699 0.0057063517 -0.03543358 0.010659618 -0.020752726 -0.016501358
0.0021314914 -0.06353303 -0.1504596 -0.00079677295 0.07564059 -0.17177217 -0.14790642 -0.07388908
-0.10524695 0.058548667 0.022327514 0.041992836 0.039193943 -0.072645485 -0.020357355 -0.057681095
0.038845457 -0.098101564 -0.06606203 -0.0868063 -0.06731719 -0.001909134 -0.029607171 -0.024063177
-0.018692316 -0.15741473 0.13340713 -0.02674844 0.004604131 0.0687899 0.0952578 -0.024035364
0.0010785644 -0.08536055 -0.03258064 -0.01676375 -0.08049154 0.06097001 -0.09816443 -0.08261649

encoder.latency_model.net.network.5.running_var f4 [64]
00000000: 2924 2b3f 9d9b 503d 019d 3a3d 68c6 773d
00000010: 8089 c33e bde7 593e 7d08 933d 8bd5 023e
00000020: 09cd 743d 3206 223e 537c d03d 2dd1 de3d
00000030: cba9 9b3d 8854 673d 10a7 863d 4e0c 473d
00000040: 05d1 453f f1a4 fc3d 9f4a 7e3e 8691 003e
00000050: a876 e93e f324 633e 13e7 e83d e2ee 223e
00000060: 386c aa3e bebc 893e b41f ed3d 4295 0f3e
00000070: e745 b53e aed9 ab3e 899c 343e 9dd2 583e
00000080: 1900 c03d c3de 5a3f bf39 5f3e b7d7 ca3d
00000090: 5be4 da3d 0713 003f 1a39 943e 837b 5f3e
000000a0: fffa 2a3e e49b 833d de87 863e 9310 a73d
000000b0: 6a43 df3d ef2f c73e 23a3 bd3d b061 dc3d
000000c0: e235 e33d 84d1 e83e 0278 493e 6fc2 ed3d
000000d0: cb5e a13d 3c77 b03e 79b9 783d d207 c93e
000000e0: 69b0 163e d961 8c3d 1eb6 023f b7e6 b83e
000000f0: 92e7 2f3f 762f f23d d601 983d 5516 023e
0.6685205 0.050929654 0.045559887 0.06049195 0.38190842 0.21279807 0.071793534 0.12776773
0.05976585 0.15822676 0.10179963 0.10879741 0.07600745 0.0564771 0.065748334 0.04859572
0.77272063 0.123361476 0.24833153 0.12555513 0.4559834 0.22182064 0.11372199 0.15911439
0.3328569 0.2690181 0.115783125 0.14021781 0.35404894 0.33564514 0.17637838 0.21174093
0.093750186 0.8549616 0.21799372 0.099044256 0.106880866 0.50029033 0.28949815 0.2182446
0.1669731 0.06426218 0.26275533 0.08157458 0.1090153 0.38903758 0.092596315 0.1076082
0.11094262 0.45472348 0.19674686 0.11609351 0.078794084 0.3446597 0.060723756 0.3926378
0.14715733 0.068546005 0.5105914 0.3611352 0.68712723 0.11825459 0.07422225 0.12703831

encoder.latency_model.attn_layer.atten_w f4 [20, 64, 1]
00000000: 9751 fdbd 0b5c 303e f49d fa3b a031 17be
00000010: d022 9c3d 2fd9 813e 2510 2ebe 08b2 6d3e
00000020: 69d3 863e 4129 7abd 54e6 27bc 2f5a 633e
00000030: d12e 65bd 135c 773c dd14 82be 3772 75be
00000040: dfb8 913e d2af 13be de00 af3e daa5 d8bd
00000050: d162 8f3b 497f 043e 18d3 b0be 7cd0 a13e
00000060: b5c1 2bbd cfc5 85be bce5 f53d f61a 843c
00000070: 71c8 22be 0191 8c3e 6ea4 d23d 777b d53d
00000080: acf7 7f3e e2e3 9ebd 1632 903d 92b8 aabd
00000090: 5622 bb3d a016 80be f9e7 a3bd ddd3 0fbe
000000a0: 8d5f b13c 3b76 83be 56ef 833e 2e4a 4e3e
000000b0: ddcd 09bd 1bcc 8fbd 4285 e93d 1007 e03b
000000c0: 0b8a 4d3e 7bb0 17be 4812 25be dd40 a43d
000000d0: 73bd 87be bc3b 443d e024 383e 722b 3f3e
000000e0: 1360 4d3e 463c 9ebe e228 5fbe a77e f13d
000000f0: c09e 7dbe a7b0 263e 54b9 11be 40a5 ea3d
00000100: 5d21 3f3e 68f5 633d 24fe 803e 01e7 76be
00000110: b24a 91bd d743 60be 40e8 74be 542c ddbd
00000120: 11b6 2b3e f1dc 8fbe c283 afbe bb51 a83d
00000130: 5824 d23d bc10 bb3d 6d94 9abd 9b5e bebb
00000140: 46fb 18be 8025 2e3e 081e 73bd afa6 b9bd
00000150: 3586 e03d 1afc 44be a3b9 9b3d da34 413c
00000160: 235b 6f3e 84f9 51bd ff29 b23e eb05 8e3e
00000170: ee4e bd3d 9f89 4bbe 64e9 b1bd 8788 33be
00000180: 0cbb 6d3e 5faa 95be 11f2 783e fe8c 24bd
00000190: 986a 86bd 008c 103d fb67 113e ad47 e2bc
000001a0: 8d59 eabd 8a39 783c 14ea b33c 424d 2c3e
000001b0: 6f5b 203d 4016 803e 3b09 193d f01c 44be
000001c0: 74ba e8bd a9a2 77be d8df 0ebe 9b79 8e3e
000001d0: d2e6 603e 6adf 70be 8bd7 45be b5c5 0a3e
000001e0: 6728 a23e c310 93be d293 b53e 22c6 62be
000001f0: 72b0 56be 00aa 5abd 055a 653e b4ff c6bd
00000200: 75a1 183d 1936 893d 4d81 a1be 8c02 52be
00000210: 6428 773e 2777 c7bd c3ce 0f3e 3bda 873e
00000220: 7b8c 1b3d 4c9b 443e bea1 21be 0ffe 5cbd
00000230: 415e 7f3e 03cc 81be 4109 71be c4ca c23d
00000240: 3dca 0d3d 0168 95bc 44d3 45be 6f22 783e
00000250: e80b 183d 4d07 4c3e dbd8 25be add4 c4bd
00000260: 1307 e93b 06e8 2d3e 952e 693e f3b8 913d
00000270: 2fd6 a6be 9a78 e53d 9b67 91be 5984 5f3d
00000280: 07dc 61be 9566 9abd 88a8 dcbd 0ede 3cbe
00000290: b789 6fbe 0d4d 0dbe a308 6e3d fe88 9cbe
000002a0: 88ba 57bd af47 4a3d 6296 893e c946 a1be
000002b0: b380 8ebe f3d3 5abe 47be 6abe f74d 1dbe
000002c0: f78a 2bbe 5510 f9bd c344 5c3d 075c 4b3e
000002d0: 4339 8f3d 006b e8bd c7c7 363e 21c6 d63d
000002e0: c06d 293e ea79 98bd a3c1 11be 0997 1dbd
000002f0: dd9e ef3d d51c e63d 7c58 80be 2e65 d33d
00000300: d90e 233d f5fc 97be 02f0 c1bd 4aef 313b
00000310: c965 89be 06e8 4fbe 5f17 38be d735 9bbe
00000320: 5489 693d 8dcb 22be 6633 99be f91c 9dbe
00000330: dfde 84be dcd8 94be e316 3bbd 7770 9a3d
00000340: 3a07 8e3e 7871 3fbe 1668 283e bb34 783c
00000350: 0ef5 d0bd 5d2d 8e3e 788d 77be 59aa 1d3e
00000360: 7e84 3b3d 74bd 27be 3c30 50bd 2a5f c13d
00000370: d322 9a3d ca47 8e3d 78ac b0bc faf7 97be
00000380: 03ae a3bc 25a4 313e 9eb3 80be 534f 59be
00000390: dbe5 5bbe 7a54 95be 0cfb 8a3e 35d3 87bd
000003a0: 473a 30be 524e d3bd 518e 7e3e 1645 24bd
000003b0: 4438 373d 69da 243e 0c77 703e a25d c33d
000003c0: 9552 83be 116c 9c3e 187e 68bd d527 8fbe
000003d0: 675c 44be 52f5 363d 9b47 21be e50b 8b3e
000003e0: 3769 66be 54f3 79be 8c70 923d f74e febd
000003f0: f0a1 83bd afa3 443e 24dc 80be 506e 33be
-0.12369078 0.17222612 0.007648224 -0.14765024 0.076238275 0.2536101 -0.16998346 0.23212445
0.26333168 -0.0610745 -0.010247786 0.22202371 -0.05595285 0.015097636 -0.25406542 -0.23969351
0.28461358 -0.14422539 0.3418035 -0.10578509 0.0043757935 0.1293918 -0.34536052 0.31604373
-0.04193278 -0.26127478 0.12006709 0.016126137 -0.15896775 0.2745438 0.10285269 0.1042394
0.24996823 -0.07758309 0.07040803 -0.08335985 0.091374084 -0.25017262 -0.0800323 -0.14045663
0.021652007 -0.2567614 0.25768536 0.20145485 -0.033643592 -0.07021352 0.1140237 0.0068367794
0.2007219 -0.14813416 -0.16120255 0.08020184 -0.26511726 0.04790853 0.17982817 0.18668917
0.2005618 -0.3090536 -0.2179294 0.11791735 -0.2476759 0.16278325 -0.14230853 0.114573
0.18665071 0.05565396 0.25193894 -0.24111558 -0.07094325 -0.21900879 -0.23916721 -0.107994705
0.16768672 -0.28098252 -0.3428021 0.08218714 0.10260838 0.09134051 -0.07547841 -0.0058096177
-0.14939603 0.17006493 -0.059354812 -0.090649955 0.10963098 -0.19236794 0.07603767 0.011792386
0.2337461 -0.051263347 0.34797665 0.2773889 0.0924357 -0.19876717 -0.08687094 -0.1753255
0.23215884 -0.29231545 0.24311091 -0.040173523 -0.065633 0.035289764 0.14199822 -0.027622068
-0.11442862 0.015150437 0.021962203 0.16826347 0.039149698 0.25016975 0.03736232 -0.19151664
-0.11363688 -0.24183144 -0.13952577 0.27827153 0.21963051 -0.23522726 -0.19320504 0.13551982
0.3167145 -0.28723726 0.3546434 -0.22145894 -0.20965746 -0.05338478 0.22397621 -0.0971674
0.037263352 0.066997714 -0.3154396 -0.20508784 0.24136502 -0.097395234 0.14043717 0.26533684
0.03797577 0.19199866 -0.15784356 -0.053953227 0.24938299 -0.2535096 -0.23538686 0.09511331
0.034616698 -0.01823807 -0.19318873 0.24231885 0.03712073 0.1992466 -0.16196005 -0.09610877
0.007111439 0.16983041 0.22771676 0.071153544 -0.32585284 0.112046435 -0.28399357 0.054569576
-0.2205659 -0.07539097 -0.10774332 -0.18444082 -0.23392378 -0.13798924 0.058113705 -0.30573267
-0.052668124 0.04938477 0.26872545 -0.31499317 -0.27832565 -0.21369915 -0.22924148 -0.15361772
-0.1675223 -0.12161318 0.053776514 0.19859324 0.06993344 -0.11348534 0.17849647 0.10487009
0.16545773 -0.07445128 -0.14234023 -0.038474116 0.11700223 0.11235968 -0.25067508 0.10322033
0.03980908 -0.29685178 -0.09469606 0.0027150684 -0.26835468 -0.20303354 -0.17977665 -0.30314514
0.057015732 -0.15897961 -0.29922026 -0.30686167 -0.25951287 -0.290717 -0.045676123 0.07540982
0.27739888 -0.18695629 0.16445956 0.015149291 -0.102029905 0.27768984 -0.2417506 0.15397014
0.04578065 -0.16380864 -0.05082725 0.09441979 0.075261734 0.069472864 -0.021566615 -0.2968138
-0.019980436 0.17347772 -0.25137037 -0.21221666 -0.21474402 -0.29166013 0.2714466 -0.066320814
-0.17209731 -0.10317673 0.24858977 -0.040104948 0.044731393 0.16098942 0.23482913 0.095393434
-0.25648943 0.30551198 -0.056760877 -0.27960077 -0.19175874 0.04466755 -0.15749972 0.27157512
-0.22501074 -0.24409229 0.07150373 -0.12417405 -0.064273715 0.19203065 -0.25167954 -0.1752255

encoder.latency_model.attn_layer.atten_bias f4 [20, 1, 1]
00000000: adb7 fcbb a309 99bc 2809 8dbc e905 debc
00000010: b98a a1bc 3b02 07bd e61a 02bd 17a0 fdbc
00000020: 3607 ffbc 31e0 02bd 04ae 24bd d592 0cbd
00000030: 233e 09bd 3ecc 06bd 234d 0ebd 6da1 1dbd
00000040: 3349 d0bc a748 07bd b103 18bd 56e3 13bd
-0.0077123255 -0.018681353 -0.01721628 -0.027102428 -0.019719468 -0.03296111 -0.031763934 -0.030960126
-0.031131368 -0.031952087 -0.040205017 -0.034319717 -0.033506524 -0.032909624 -0.034741532 -0.038484026
-0.02542553 -0.03302827 -0.037112895 -0.036105476

encoder.cpu_model.net.network.0.weight f4 [32, 1, 3]
00000000: df9f 923e 8fb2 bb3e 96d5 b4bd 7f32 df3e
00000010: 6f6e d83d 5152 9abe 0cfd ccbe c659 0cbf
00000020: 9ca3 d23d 28d7 343c 05db 47be c78b c3be
00000030: 460b 383d a04b 523e f220 3fbe dd19 aabe
00000040: b3ae 0bbf 666c e9be bd8e e93e ab95 9c3e
00000050: 8176 4f3d d5b3 ba3e 7398 b9be a3d6 143f
00000060: 16d0 b0be 0720 a8be 69ec 84bd fd8e bf3b
00000070: 5ec0 3e3e 93dd e4be fe6a b13e c734 053f
00000080: 9296 e73e f051 63be bbe9 0b3f 7737 63be
00000090: b4be d3be 4ddb 0ebf 0e67 bdbc f5ec 243e
000000a0: 42ab 09bf f17d b53e 2ae5 e33e 0803 a63e
000000b0: 3d4a a33e efc8 22bd e865 593e 852c d4be
000000c0: 3c35 b03e 7848 ea3e 8fa8 c53e 95d2 da3e
000000d0: 96d7 fbbe d3de c23e 713f c33e 1701 133f
000000e0: d932 1b3e 02f8 ebbd 215a 97bd fd31 093f
000000f0: ecdf bc3e 70a8 01bf 7e63 b3be a1bf a8be
00000100: f7f5 c53d 70de d6be d637 923e 51ef df3e
00000110: b645 8d3e 796c 083f d0c8 f43e 8888 9ebe
00000120: dcb6 03be bdd5 c73e f913 023f 28a2 ebbd
00000130: 8aa7 113f 2865 02bf 048c 59be 9cbf 423e
00000140: 2717 0abf ceec b53e caf8 513e fbe2 de3e
00000150: faa7 bfbe 77fc 073f 8d33 843e 4e6f 10bf
00000160: 41d5 073f ed55 1abe 8dc4 083f 10ee 44be
00000170: bdbf ea3e 6662 213a dd5b 14be e312 d1be
0.28637597 0.36659667 -0.08829801 0.43593213 0.105679385 -0.30140927 -0.4003681 -0.54824483
0.10285112 0.011037625 -0.19517143 -0.3819258 0.044932626 0.20536661 -0.18664911 -0.33222857
-0.54563445 -0.45590514 0.45616713 0.30582938 0.050650124 0.36465326 -0.36249122 0.5814001
-0.34533757 -0.32836935 -0.06490404 0.005845903 0.1862807 -0.44700298 0.3465194 0.52033657
0.45232064 -0.22199225 0.5465352 -0.22189127 -0.41356432 -0.55803376 -0.02312043 0.16106017
-0.53776944 0.35447648 0.44510776 0.32424188 0.31892577 -0.039742406 0.2123028 -0.41440216
0.34415615 0.45758414 0.38605163 0.42738786 -0.49187917 0.38060626 0.3813434 0.5742354
0.15156116 -0.11521913 -0.073902376 0.535919 0.3688959 -0.5064764 -0.35036844 -0.329587
0.09666055 -0.4196658 0.28558224 0.4373727 0.27592248 0.53290516 0.47809458 -0.3096354
-0.12862724 0.39030257 0.50811726 -0.11505538 0.5689627 -0.509356 -0.21244818 0.19018406
-0.5394158 0.3553223 0.20505062 0.43532547 -0.37432843 0.53119606 0.2582058 -0.5641984
0.53059775 -0.1507184 0.5342491 -0.19231439 0.4584941 0.0006156325 -0.14488168 -0.40834722

encoder.cpu_model.net.network.0.bias f4 [32]
00000000: f4db e23e 2367 0bbf c6de 5bbe b371 93be
00000010: 4970 02be 5257 1dbe a943 2d3d a31e 77bc
00000020: 5687 99be 539d 223d 2dc8 233e 75b5 ea3e
00000030: 2514 973e dc28 e53e 457d 05bd aa1f 53be
00000040: 0124 02be a7d4 07bf 3aed 29bd e7f0 0ebf
00000050: 9fef 983d 5e87 87be 8ddf 953e 37eb fbbe
00000060: 09f8 58bd 5562 19be 0483 dc3e dd39 113f
00000070: 9aab f5be 86b6 d1be 78c5 ba3c 73dd cdbe
0.44308436 -0.5445425 -0.214717 -0.28797683 -0.12738146 -0.15365341 0.042300854 -0.015082988
-0.29986066 0.039700817 0.1599433 0.45841566 0.29507557 0.44757736 -0.03259017 -0.20617548
-0.12709047 -0.53058857 -0.041486003 -0.5583634 0.07467579 -0.26470464 0.29272118 -0.49202892
-0.05297092 -0.14978917 0.43068707 0.5672892 -0.47982484 -0.40959567 0.022799239 -0.40208015

encoder.cpu_model.net.network.1.weight f4 [32]
00000000: 23c6 7f3f cef3 803f b6f8 823f 4459 833f
00000010: 9723 803f dffe 803f e618 7f3f 670e 803f
00000020: 7957 823f 9f0e 7e3f 72c3 783f c587 7f3f
00000030: 2702 833f 2fa4 813f 9519 7b3f 18d3 823f
00000040: 5e67 7f3f 374f 7f3f 7273 7f3f 6729 7e3f
00000050: ec55 833f 1331 833f e358 813f 1692 7f3f
00000060: a9e3 7e3f 3e19 803f 7bac 823f 648a 7e3f
00000070: e5c5 7f3f cc65 813f 4d5a 803f 5864 843f
0.9991171 1.0074403 1.023215 1.0261617 1.0010861 1.007778 0.99647367 1.0004395
1.0182945 0.9924106 0.97173226 0.9981654 1.0235032 1.012823 0.9808591 1.0220671
0.997671 0.9973025 0.9978553 0.99281925 1.0260596 1.0249351 1.0105251 0.99832284
0.9956613 1.0007703 1.0208887 0.9942992 0.9991134 1.0109191 1.0027558 1.0343122

encoder.cpu_model.net.network.1.bias f4 [32]
00000000: 29a0 503c 71b4 cc3c ab58 653c a000 8a3c
00000010: f217 db3b 12b8 a73b 4225 67bc e027 95bc
00000020: 1a14 15bb d726 9abc 5cdf 39bd 9b00 cdbc
00000030: 97ab c53b 5fb5 e33c a377 723c 33e5 923b
00000040: 149f b23b d3a9 8bbb a14a fa3b 3f93 bc3c
00000050: cfb8 d23b 337d 0d3c f43d bd3b 6961 7dbb
00000060: 66bf d6bc b71f b13b 4ca8 823c 58eb b2bc
00000070: 6e8e ed3b aee6 8f3a 618a a93b 7b74 133d
0.012733498 0.024988385 0.013998191 0.016846001 0.006686204 0.0051183784 -0.014108004 -0.01820749
-0.0022747577 -0.018817348 -0.045379028 -0.025024703 0.006032418 0.027796445 0.014799031 0.004482889
0.0054510925 -0.004262188 0.007638291 0.023019431 0.0064307223 0.008635807 0.0057752077 -0.0038662797
-0.026214313 0.005405392 0.01594939 -0.021840736 0.007249645 0.0010978782 0.0051739668 0.035999756

encoder.cpu_model.net.network.1.running_mean f4 [32]
00000000: a776 1d43 4fa9 8542 41e6 6bc3 6bcc 1dc3
00000010: 8c0f 8141 23b8 b9c3 de52 6243 888a 2243
00000020: 39d3 4dc3 9c9c 8fc2 77b0 b743 e3b2 e941
00000030: 672a 8ac3 b2db 78c0 6f73 9743 1f87 87c2
00000040: 5824 a543 a3cf ae42 28f7 9943 b063 c142
00000050: fe63 08c3 8e7b 36c3 2218 8b43 99ce 4243
00000060: 4776 5643 f32d 83c1 bc41 1cc3 46dd 8a43
00000070: 7264 e742 1759 50c2 60ec 5d43 9777 1ac3
157.46349 66.83068 -235.89943 -157.79851 16.132591 -371.43857 226.3237 162.54114
-205.82509 -71.80588 367.37863 29.212347 -276.33127 -3.8884091 302.90182 -67.76391
330.28394 87.40554 307.9309 96.6947 -136.3906 -182.48264 278.18854 194.80702
214.46202 -16.397436 -156.25677 277.7287 115.69618 -52.087 221.92334 -154.46715

encoder.cpu_model.net.network.1.running_var f4 [32]
00000000: 3820 f447 e58d 0847 a6bc 8848 babd f147
00000010: 95a7 5c45 bb89 2349 7c3b 7648 7922 0048
00000020: 8c7c 4a48 9c12 ee46 e0d3 1f49 d9ba 2c46
00000030: 6ee1 b848 03b8 f245 5cb6 d848 bba9 cd46
00000040: 0649 0149 d8c3 2747 adf3 e248 3f45 5947
00000050: 76a3 d247 2f34 1c48 fc62 b748 47ab 4848
00000060: 54d6 6448 e2ae 4446 0f1d ed47 adcb b448
00000070: 7641 9e47 f1ea b746 8e0f 6848 cf66 e747
124992.44 34957.895 280037.2 123771.45 3530.4739 669851.7 252141.94 131209.89
207346.19 30473.305 654654.0 11054.712 378635.44 7767.0015 443826.88 26324.865
529552.4 42947.844 464797.4 55621.246 107846.92 159952.73 375575.88 205485.11
234329.31 12587.721 121402.12 370269.4 81026.92 23541.47 237630.22 118477.62

encoder.cpu_model.net.network.4.weight f4 [64, 32, 3]
00000000: f63c 563d 8206 9bbc 2722 963d 2d4d 273d
00000010: c774 f6bb 6d41 0d3c c934 b2bb da6f 843d
00000020: 9a92 a73c 03ed 0d3d 3123 5f3c 9013 163c
00000030: d550 a33b e919 5dbd 92dc 143d a5e2 06bd
00000040: 49ea d83d 80f2 dc3d c43d 853d 7a68 3fbd
00000050: 6fa7 763d b665 69bd 0738 aabc 7c9f aa3d
00000060: bbbc 3e3c da45 623c 1835 823d f8d1 11bd
00000070: 7775 06bd 1e98 c53d 77a3 05bd 68eb 993c
00000080: 44d6 7abc ef0c 683d dbe0 c0bc 0bac a83d
00000090: a9fe c83d 5d52 543d c873 913d 2df0 f6bc
000000a0: 3ba8 8b3c da0b 7dbd 4ce6 43bd fb21 2cbd
000000b0: b67f 103d 4721 d53d c3aa 403d a7de 8d3d
000000c0: bd93 c23d 14bb 983d 45a1 07bd 7fe0 683d
000000d0: 18dd acbd 1305 b33d 91a7 83bd 7f09 9e3d
000000e0: 18fb 95bd a01a a5bc 7aa3 8abc 5d45 cabb
000000f0: 5694 c23d 2c71 ea3d a73b 82bc 0636 74bd
00000100: 92b3 8b3d 4cfe 18bb d03a 5bbd 18bf ce3d
00000110: 8179 87bb 657d 6fbd a8fd 6cbd 79b4 3c3d
00000120: 49db ab3c 1d9c f5bb b7b9 95bd 5f19 89bc
00000130: b316 b5bc c9a6 b03d 7052 8e3d 6da3 e43d
00000140: 3cd3 4f3c 90a7 1e3d d6e3 54bd d1e5 773c
00000150: f288 353d 42aa fabb 56a6 a7bd 856d ab3d
00000160: f14a cfbc 7d2c 93bd 1140 f93d b40c 363b
00000170: 7147 7a3d 4851 eabc d1bb 693d 3434 cc3d
00000180: ffb7 1e3b ce8c 9a3c cca6 a2bc 19be a33d
00000190: 21a0 cf3d 0af3 aa3d 1f44 4b3d 1edf 9f3d
000001a0: 4c43 b9bd 0ced 0c3b 7955 193d 473e b9bd
000001b0: 32ee 863d 7066 b3bc aae3 8abd 6132 803d
000001c0: b8b4 4dbc 2e8e 50bc 2e11 3b3c db48 723d
000001d0: af59 63bd 75c4 a83d e5a2 dcbb c30d 493c
000001e0: e778 c6bd ae6a b83d e83a a63d 9aac 8e3d
000001f0: 6fc6 853d 48e0 473d cb42 3e3d 7ac1 02bd
00000200: 60a1 923d 3fdc 9fbd 7090 443b beae 1cbd
00000210: 247e 753c 8167 9d3d c013 873d af19 0c3c
00000220: fd41 98bd 4628 823d 2062 a03d bec9 c0b9
00000230: 3e88 8dbd 8e82 a4bd 5137 3f3d 3843 c1bd
00000240: 32a9 98bc ed30 0abd 2508 a73d 625d 6fbd
00000250: c05c 393c 080f 283d 2a4c cd3d 28f6 4e3d
00000260: fb0b aa3d edb9 7d3d c284 953d 1a16 493d
00000270: 31ec c33b 4147 173d 59ab a4bc 0769 c5bd
00000280: 56f3 263d 02ae fd3c 9aa6 df3d c064 123d
00000290: c7d3 4fbc f9a8 80bd 7c68 1e3d 3189 0dbd
000002a0: b9a5 943d 624f f5bc 6fd2 a23c 3d14 fc3c
000002b0: aa9c 15bd b874 bd3d 3132 52bd 77c4 983d
000002c0: 85a0 ac3d eb14 51bd cf68 f13d 5c35 03bd
000002d0: bdb1 9cbd c249 183d 513e bb3d ad65 2ebd
000002e0: 63c0 b63d 2127 b7bc a546 cc3b 528f 543d
000002f0: e6f7 a9bd af69 fbbc 265e 8d3d 5e57 7f3d
00000300: b1a1 c33c 11a9 adbd fe43 d1bd cf27 18bd
00000310: 861b 233d 12a0 29bc 70b2 723d d10d c1bd
00000320: 179f a03d 6303 95ba 6379 613c 57f5 80bd
00000330: 3f3b 36bc 7feb a0bd f139 443d 20fb a0bd
00000340: 5e2c 283d c6e5 323c 8093 933d 14c5 1e3b
00000350: dd1e 963b 2df3 093d b74c a03d 460f c33c
00000360: c619 943c aed9 85bc 78bb a53d c52d f43c
00000370: 6bc6 053d 0361 bfbd 9653 89bc 35df 2b3d
00000380: 0ae3 b83d b73f 6bbd dd73 a53d 5d8e 333d
00000390: 281f 3a3c 787f 4fbc ad64 c0bd 09c1 93bd
000003a0: 832b 13be 5b1e a1bd 383d a1bc 29fe 92bc
000003b0: 83ee 093d 4235 cb3d a1c3 3bbd 5996 8abc
000003c0: e70d 25bd 16cb 2bbd 7ae0 dbbb dcf7 b0bd
000003d0: 591d 8dbd 4b20 1e3d 2eb3 113d 670c 9dbd
000003e0: 2752 adbd 5ac6 95bd 8778 f0bd f479 a53d
000003f0: 4c87 bcbd 30de bb3d 7d64 34bd 2ffa 8dbd
0.05230423 -0.018924002 0.07330733 0.040845085 -0.007521245 0.008621556 -0.0054384214 0.064666465
0.020455647 0.03464986 0.01361923 0.0091599375 0.004984001 -0.053979788 0.036343165 -0.03293099
0.10591561 0.10788441 0.065059215 -0.046730496 0.06021827 -0.056981765 -0.020778669 0.083312005
0.011641677 0.013810599 0.06357783 -0.035600632 -0.032826867 0.09648155 -0.032626595 0.018789008
-0.015309874 0.05665296 -0.02354472 0.082359396 0.098141976 0.05183636 0.07102162 -0.030143822
0.017047992 -0.06177888 -0.04782705 -0.042024594 0.035278045 0.10406738 0.04703785 0.06927233
0.09500835 0.07457557 -0.033112783 0.05685472 -0.08440608 0.08741202 -0.06428445 0.07716655
-0.07323283 -0.020154297 -0.016923655 -0.0061728195 0.09500949 0.11447367 -0.015897585 -0.059621833
0.0682136 -0.0023344932 -0.053522885 0.10095042 -0.0041343574 -0.058469195 -0.057859093 0.04607055
0.020978587 -0.007495417 -0.07310813 -0.01673573 -0.02210555 0.08625562 0.069493175 0.111639835
0.01268464 0.03873402 -0.051975094 0.015130476 0.044320054 -0.007649691 -0.08186023 0.083704986
-0.02530429 -0.0718622 0.12170423 0.0027778568 0.061103288 -0.028603211 0.05706388 0.099708945
0.0024218557 0.018865969 -0.019854926 0.079952426 0.10137964 0.08347137 0.049625512 0.07806228
-0.09046039 0.0021503596 0.03743503 -0.090450816 0.06588401 -0.021899432 -0.06781705 0.06259609
-0.012555294 -0.012729211 0.01141767 0.05915151 -0.05550545 0.08240596 -0.0067332857 0.012271347
-0.09691029 0.090047225 0.08116704 0.06966515 0.06531989 0.048797876 0.046450417 -0.031922795
0.07159686 -0.078056805 0.0029993318 -0.038252585 0.014983688 0.076857574 0.06595564 0.008551045
-0.07434461 0.06355338 0.07831216 -0.00036771403 -0.06910752 -0.08032714 0.046683613 -0.09436649
-0.018635366 -0.033738066 0.0815585 -0.058438666 0.011313617 0.04102996 0.10024293 0.05052772
0.08303066 0.06194489 0.07300712 0.049093343 0.005979084 0.036933187 -0.020101236 -0.09639173
0.040759407 0.030966762 0.109204486 0.035740614 -0.012684769 -0.06282229 0.038673863 -0.034554664
0.072581716 -0.02994508 0.019875733 0.03077137 -0.03652636 0.09250778 -0.051317398 0.07459348
0.08429054 -0.05104534 0.11787569 -0.03203331 -0.076510884 0.037179716 0.09142745 -0.042577434
0.089234136 -0.022357525 0.0062340074 0.051894493 -0.08299236 -0.030690042 0.06902723 0.06233918
0.023880811 -0.084795125 -0.102180466 -0.03714734 0.03982117 -0.010353105 0.059252203 -0.094264634
0.07842844 -0.0011368807 0.013761851 -0.06296795 -0.011122524 -0.07857417 0.04790682 -0.07860398
0.041057937 0.01091904 0.07205868 0.0024226354 0.004581316 0.033679176 0.07827132 0.023810994
0.018078696 -0.01633915 0.080923975 0.02980698 0.03265993 -0.093446754 -0.01676349 0.041960914
0.09027679 -0.05743381 0.0807874 0.04383694 0.011359967 -0.012664668 -0.093942024 -0.07214553
-0.14372067 -0.07867118 -0.019682512 -0.017943459 0.033674728 0.099222675 -0.045840863 -0.016917394
-0.04029646 -0.041941725 -0.0067101093 -0.086410254 -0.06890363 0.038605016 0.03557127 -0.07668381
-0.08462935 -0.07313223 -0.11741739 0.08079901 -0.09205493 0.09173238 -0.044041146 -0.06932484

encoder.cpu_model.net.network.4.bias f4 [64]
00000000: d52f 8abc 03e3 60bc 8ccc b53c d86e b63a
00000010: 7c44 05bc de47 e53c 2fb9 edbc 4e28 a63d
00000020: 2092 56bd 412d 653d 4340 30bd 0e3e b4bd
00000030: 38d1 0abd 2635 b43d 826a 863d 516d 963a
00000040: 9624 b2bd 00c5 ca3c 46ba a6bd 3292 2cbd
00000050: 2bd2 0abd 97e0 d9bb 0386 103d 7b21 9c3d
00000060: d302 86bd 7ecb abbd fbe2 0c3d 69ed 2cbd
00000070: dc2a 963d 5860 95bd 06e7 8fbd 3061 8c3d
00000080: e142 f73c b284 8a3d 37a3 423c aa42 b7bd
00000090: f3e6 8fbd e784 833d ac95 dcbd 580e 433d
000000a0: fd43 fbbb 5cf6 b1bd 3b80 e0bc 6f6e 36bc
000000b0: 300b 0cbd ce05 9e3d 55f8 4439 1c47 c4bc
000000c0: 4d35 cbbc 5475 fd3b af1a 133d 0538 033d
000000d0: 3484 233d a0d0 36bd d768 ac3c 9f91 8f3d
000000e0: e2df 96bd 081a 83bd 909b 6ebd d06f c1bd
000000f0: 83be aabd 8013 863d 3176 48bc 1343 b23d
-0.016868511 -0.013725999 0.022192262 0.0013918532 -0.008134004 0.02798837 -0.029018966 0.08113156
-0.05238545 0.05595136 -0.043030035 -0.088008985 -0.033890933 0.087992 0.065632835 0.0011476671
-0.086983845 0.02475214 -0.081409976 -0.04213161 -0.033891838 -0.0066490876 0.035284054 0.076235734
-0.065435074 -0.083884224 0.034396153 -0.0422186 0.073323935 -0.07293767 -0.07026486 0.068544745
0.030183258 0.06763591 0.011879734 -0.08948262 -0.07026472 0.064218335 -0.10770735 0.0476211
-0.007668017 -0.086895674 -0.027404895 -0.011134728 -0.034190357 0.07715951 0.00018784527 -0.023959689
-0.02480569 0.007734934 0.03591412 0.032035846 0.039921 -0.044632554 0.021046085 0.07010197
-0.07366921 -0.064014494 -0.058253825 -0.09445155 -0.083371185 0.06546688 -0.01223521 0.087042

encoder.cpu_model.net.network.5.weight f4 [64]
00000000: f046 823f e86c 813f 3426 813f e4c3 7f3f
00000010: 34b2 813f 866a 7c3f 708e 7c3f c0c1 853f
00000020: de4a 813f 1c8a 7d3f 65e9 7e3f 6a53 803f
00000030: 8658 803f 5105 803f 7d63 813f 3753 7e3f
00000040: cdc3 803f 7f60 803f 1bd6 7a3f 3b48 823f
00000050: 8a90 803f fb4a 823f c3e5 843f a064 803f
00000060: a28c 803f c13d 7f3f 5771 803f e68f 803f
00000070: 306a 873f 47e4 7e3f 5222 803f 5772 803f
00000080: c2ef 813f 6432 823f f552 7f3f 9c3a 813f
00000090: ba3c 813f 05fb 7d3f e58e 863f 0572 803f
000000a0: 73e5 803f 1ca4 803f e969 813f c9f7 823f
000000b0: 54ab 7e3f 8c13 803f 2ee5 823f 686a 803f
000000c0: 10a1 803f 587b 7f3f b7c3 7f3f cae5 813f
000000d0: ef36 7d3f 0426 813f 3e44 7e3f 532d 853f
000000e0: 2752 803f 10d3 7e3f 1b4f 7f3f 996e 813f
000000f0: 228a 853f b923 7f3f 20d1 7c3f de86 823f
1.0177898 1.011136 1.0089784 0.9990828 1.0132508 0.9860004 0.9865484 1.0449753
1.0100973 0.99038863 0.9957488 1.0025456 1.0027015 1.0001622 1.0108486 0.99345726
1.0059754 1.0029448 0.9798295 1.0178293 1.004411 1.0179132 1.0382618 1.0030708
1.0042918 0.99703604 1.0034589 1.0043914 1.0579281 0.99567074 1.0010474 1.0034894
1.0151293 1.0171628 0.9973596 1.0096011 1.0096657 0.9921115 1.0512358 1.0034796
1.0070022 1.0050082 1.0110446 1.0231868 0.99480176 1.0005965 1.022619 1.0032473
1.0049152 0.9979758 0.9990801 1.0148251 0.98911947 1.0089726 0.9932288 1.0404457
1.0025071 0.99540806 0.9973008 1.0111877 1.043278 0.99663883 0.987566 1.0197408

encoder.cpu_model.net.network.5.bias f4 [64]
00000000: b5bf 853c 4854 87bc 7cf2 ecbb 916c 11bc
00000010: d2de 7f3c da51 88bc ce5f 45bd 67bd d73c
00000020: acb0 69bc 8f45 bebc 56b6 b4bb edeb 05bc
00000030: c422 cc3b e690 25bc 2791 bbbc 8ec2 27bb
00000040: 2b1f fb3b b72d a33c d9d5 32bc 26a1 c13c
00000050: 09ce 603c 985b afbb 4cd3 463c 4f92 953c
00000060: dfca 2a3c a115 cf3b 8479 b03b 7b8c 993c
00000070: 261f 90bc 3ee2 e2bc 2b04 ce3c 58d1 54bc
00000080: 1daf cc3c 6d31 9a3c e84a 9cbb 5ab1 533b
00000090: 33d4 ce3c d3f2 33bc f469 29bc 8baf ddbc
000000a0: 03f5 803c 1459 9dbc 1001 d73c bf6b 8dbc
000000b0: 991c 313c 7155 8e3c 27ee 7b3c 1e5b 183c
000000c0: 7c6f e13b 0ba0 40bc 9f97 62bb f929 c73c
000000d0: 5160 d2bc a8e9 9cbb a565 10bc 67b7 46bc
000000e0: 942f 973c 1e50 873b b7d5 e6ba 5aa4 393c
000000f0: 1d75 ee3c 5d20 a93b 1e0b b4bc a5e0 943c
0.016326765 -0.01651968 -0.007231055 -0.008875982 0.015617089 -0.016640592 -0.04818707 0.026335431
-0.014263313 -0.023226527 -0.0055149 -0.008173925 0.0062297303 -0.010105347 -0.022896362 -0.0025598141
0.0076636276 0.01991926 -0.010915243 0.023636412 0.013720998 -0.005351495 0.012135338 0.018258242
0.010424345 0.006319717 0.0053855795 0.018743744 -0.017592978 -0.027695771 0.025148472 -0.012989365
0.024985844 0.018822396 -0.0047696717 0.0032301755 0.025247669 -0.010983187 -0.010340203 -0.027061244
0.01574183 -0.019207515 0.026245624 -0.017263291 0.010810041 0.017374726 0.015376604 0.009299068
0.006879745 -0.011756907 -0.0034575236 0.024312006 -0.025680693 -0.004788596 -0.008813296 -0.012128687
0.018455304 0.0041294238 -0.0017611299 0.011330688 0.029108578 0.0051613287 -0.021977957 0.018173525

encoder.cpu_model.net.network.5.running_mean f4 [64]
00000000: 73a6 a83e 328b 973e 543b 9ebe d4a2 3ebe
00000010: 4d50 7d3d 5175 4f3e 7507 ad3e 75f6 9bbe
00000020: ec82 0a3e dfe5 983e 26ba 9dbc f624 c33d
00000030: 6444 e33d cf28 923e bee2 af3e 7e98 803c
00000040: df38 713e 39ef 5b3d 892b 883c 8464 aabd
00000050: 6de8 733d 432c 9abe d033 8abe 33f0 063e
00000060: 6108 71bc 630e 9bbd a133 933e e29a eebc
00000070: 29f7 32be 24c3 70be c55b 23be 0c6a de3e
00000080: 1f29 3dbe c307 9c3e 72df 88bd f56a 083e
00000090: 6acf c5be 21e4 283e 88cf d7be feab 973e
000000a0: 810e f03d db99 bf3e 05a1 09bf 88ae 8dbe
000000b0: dc8a 84bd c0e5 923e e598 843e 5f01 dbbd
000000c0: c30c 183d c1e7 3e3e 075c 1e3d 8be4 85be
000000d0: 7420 a03e bfbf 13bd cb08 01be 4930 dbbd
000000e0: 533d 58bd c1dd 2dbd c7ec 483e 1ea3 083e
000000f0: fb85 b8be 39b2 05be e0e6 22be 58f4 ac3e
0.3293949 0.29598385 -0.3090464 -0.18616802 0.06184416 0.20259596 0.33794752 -0.3046147
0.13526505 0.29862878 -0.019253802 0.09528534 0.11097029 0.2854676 0.34352678 0.015697714
0.23556851 0.053694937 0.016622322 -0.08319953 0.05954783 -0.30111894 -0.26992655 0.13177566
-0.01471147 -0.075711034 0.28750327 -0.029126588 -0.17477097 -0.2351194 -0.15952976 0.43440282
-0.18472718 0.30474672 -0.06683244 0.13322051 -0.38634807 0.16493274 -0.4215052 0.29623407
0.117215164 0.3742207 -0.5376132 -0.2767222 -0.06471798 0.2869091 0.258979 -0.10693621
0.037121546 0.18643095 0.038661983 -0.26150927 0.3127476 -0.036071535 -0.1260101 -0.10702569
-0.05279286 -0.04244781 0.19621573 0.13343474 -0.3603972 -0.13056268 -0.15908384 0.3378017

encoder.cpu_model.net.network.5.running_var f4 [64]
00000000: 1022 bd3d 9e80 ff3e bfcc 523f 9481 393d
00000010: 5f19 1c3f f224 823e 8eaf ec3e bb78 a93f
00000020: 6f3f e13d eb05 ec3e a329 8d3d 91cc 133e
00000030: 397b 043d d070 8f3d e23e 4c3e e48f d13d
00000040: 7534 9b3d 9aa5 b93d 00b4 8b3e 8a10 2c3e
00000050: c089 7d3d 0a83 203f 6660 9b3e cfca 6e3e
00000060: 89ab 8a3e b80b 633e a856 983e 0caf b73e
00000070: a585 f23e 6916 6f3e be18 be3e 18ac 103f
00000080: 30d7 033e c2e3 613d 3b82 df3d 8b94 5c3d
00000090: d6f2 a73d 7082 003e ec97 f03e 768f 613e
000000a0: 6caa 6e3d 8b06 ee3e 8cc7 633e 6c44 f13e
000000b0: db8a 333e 87c2 373d 9990 a23d b0dc 8d3c
000000c0: 6d7c de3e ada3 153d f22e c93d 1bf4 913d
000000d0: 1182 683e 378c 213d cef2 173e e43b 803e
000000e0: 41e9 6c3e 0b92 df3e 04f5 c13d 853b 233e
000000f0: 5fda 543e 461e 3f3f ec2c 093e a114 b23d
0.092350125 0.49902815 0.8234367 0.04528959 0.60976213 0.25418812 0.46227688 1.3239969
0.10998427 0.46098265 0.06892707 0.14433505 0.032344077 0.07003939 0.19945863 0.10232523
0.07578365 0.09064789 0.27285767 0.16803184 0.061898947 0.6269995 0.30346984 0.23319553
0.27083996 0.22172439 0.29753613 0.35875738 0.47367588 0.23348393 0.37128252 0.56512594
0.12875056 0.055148847 0.10913511 0.0538526 0.08200614 0.12549758 0.46990907 0.22027382
0.058267996 0.46489367 0.2224409 0.47122514 0.17533438 0.04486325 0.07937736 0.017317146
0.43454304 0.036533047 0.09823407 0.071266375 0.22705866 0.03944036 0.14838716 0.25045693
0.23135854 0.4366611 0.09470561 0.15940674 0.20786427 0.7465557 0.13396043 0.08695341
