results/3855e80a/model.ckpt (torch_old, 651959 bytes, 90 tensors)

encoder.latency_model.net.network.0.weight f4 [32, 1, 3]
-0.54318345 -0.16366221 0.58736825 -0.096380055 0.3417876 -0.18194784 -0.09327431 0.3209244
0.13537294 -0.1707787 0.22283801 0.20008954 0.33065832 -0.18134773 -0.44011053 -0.09696967
0.5093495 -0.39686003 -0.40740043 0.51047623 -0.4291863 0.018661985 -0.94601375 -0.027260117
0.07806567 0.08147906 -0.46028468 0.47961676 -0.50173664 -0.4638146 0.24879059 0.34181428
0.25612223 0.48438653 0.1539922 -0.18388827 -0.34769818 0.29416868 -0.6052862 0.009063486
-0.6730981 0.015689384 0.52136266 -0.11828421 -0.15582784 0.022167893 -0.3809851 0.0039343513
0.015501736 -0.8839363 0.016484883 0.67250353 -0.31618896 0.25623196 -0.31628963 -0.51061606
-0.46844074 0.009457187 -0.80366355 -0.046284087 0.2681916 0.20477696 0.5572868 -0.2174827
0.09077735 0.578224 0.34741557 -0.27430573 0.46075147 -0.46642596 0.14345688 0.042458292
-0.088100106 -0.35186636 -0.31695053 0.23639703 0.19494319 -0.47069934 -0.062645145 -0.7808799
-0.32764217 0.23209956 -0.56563646 0.318349 -0.06724455 -0.49548683 0.20160744 -0.570885
0.22658262 -0.28907222 0.49361348 0.3176868 -0.38320634 -0.27017295 -0.551552 -0.20159282
00000000: 120e 0bbf 1197 27be c45d 163f e862 c5bd
00000010: c9fe ae3e 8950 3abe 9a06 bfbd 3450 a43e
00000020: 349f 0a3e 9de0 2ebe a62f 643e 46e4 4c3e
00000030: 0c4c a93e 38b3 39be 2b56 e1be 0998 c6bd
00000040: bb64 023f 3d31 cbbe ca96 d0be 92ae 023f
00000050: 4fbe dbbe 05e1 983c f52d 72bf 9c50 dfbc
00000060: e5e0 9f3d 7ede a63d 6faa ebbe 5490 f53e
00000070: d071 00bf 1b79 edbe f6c2 7e3e 4802 af3e
00000080: 7422 833e 8301 f83e 22b0 1d3e 354d 3cbe
00000090: 7f05 b2be 479d 963e 09f4 1abf 047f 143c
000000a0: 2850 2cbf 0687 803c 0678 053f fe3e f2bd
000000b0: 5591 1fbe 7199 b53c 7b10 c3be bbeb 803b
000000c0: fefa 7d3c a649 62bf 4e0b 873c 3129 2c3f
000000d0: 85e3 a1be d630 833e b7f0 a1be bcb7 02bf
000000e0: 77d7 efbe 51f2 1a3c e5bc 4dbf 6294 3dbd
000000f0: 6950 893e 0db1 513e 59aa 0e3f c9b3 5ebe
00000100: 7ae9 b93d 7d06 143f 74e0 b13e cd71 8cbe
00000110: 9ee7 eb3e 62cf eebe 5ce6 123e bfe8 2d3d
00000120: d46d b4bd d427 b4be 5747 a2be 1012 723e
00000130: 309f 473e 81ff f0be 194c 80bd bfe7 47bf
00000140: b7c0 a7be 82ab 6d3e 8dcd 10bf a4fe a23e
00000150: 83b7 89bd 73b0 fdbe 2e72 4e3e 8525 12bf
00000160: 4605 683e 4601 94be e8ba fc3e d8a7 a23e
00000170: 9f33 c4be 1c54 8abe 8332 0dbf 596e 4ebe

encoder.latency_model.net.network.0.bias f4 [32]
0.44772902 -0.014973706 0.24221434 -0.50909215 0.29931048 -0.15260199 -0.4835858 -0.19863291
-0.16480088 0.21159025 -0.002410082 -0.04040433 0.4737497 0.48725662 0.42789257 0.11036182
0.57476467 -0.57054216 0.30365956 0.4133089 -0.5643907 0.23611245 -0.5725709 -0.36900043
0.39883232 -0.44729802 0.4188512 0.26491365 0.49221626 0.2694983 -0.45883507 0.30101
00000000: bd3c e53e 4654 75bc 0907 783e dd53 02bf
00000010: 393f 993e b243 1cbe 8f98 f7be 6d66 4bbe
00000020: 90c1 28be 1dab 583e 77f2 1dbb 037f 25bd
00000030: 528f f23e b379 f93e bc14 db3e 6105 e23d
00000040: c723 133f 0d0f 12bf 4479 9b3e 399d d33e
00000050: e97b 10bf 76c7 713e 0294 12bf a0ed bcbe
00000060: c033 cc3e 3f04 e5be aa73 d63e c3a2 873e
00000070: c503 fc3e aefb 893e 6eec eabe fc1d 9a3e

encoder.latency_model.net.network.1.weight f4 [32]
1.0846523 1.0176274 0.77058667 0.84125775 1.1135474 1.2011185 1.0257757 1.2340077
1.1364648 1.0093887 0.78052044 0.7009465 1.0245697 1.2850475 0.8368568 1.2126404
1.2801213 0.8795464 1.1613365 1.2378983 0.857779 0.9008048 0.8695952 1.0788256
1.3285607 1.0707625 1.3390657 1.009347 1.0714388 0.98851705 0.7856576 1.1906937
00000000: e3d5 8a3f 9d41 823f 2b45 453f ab5c 573f
00000010: b988 8e3f 40be 993f 9e4c 833f f7f3 9d3f
00000020: ae77 913f a633 813f 30d0 473f 3b71 333f
00000030: 1a25 833f 707c a43f 3f3c 563f cd37 9b3f
00000040: 04db a33f f429 613f ada6 943f 7473 9e3f
00000050: 6897 5b3f 259b 663f cb9d 5e3f f516 8a3f
00000060: 470e aa3f bf0e 893f 8166 ab3f 4832 813f
00000070: e824 893f 740f 7d3f db20 493f a768 983f

encoder.latency_model.net.network.1.bias f4 [32]
-0.0014996616 0.017094895 0.09087091 0.12357309 0.042628847 0.0060118837 0.007950049 0.038462143
-0.018880814 -0.082970574 -0.049704462 -0.22901057 -0.09511223 0.006514595 0.0270603 -0.0001853332
0.013352344 0.28000113 -0.026554504 0.045188226 -0.5677966 0.10648105 -0.6518573 -0.07576851
-0.040948346 -0.016977375 -0.011255346 -0.008957723 0.050333176 -0.08680941 0.037868034 -0.0033178315
00000000: 4b90 c4ba 980a 8c3c 871a ba3d e313 fd3d
00000010: 969b 2e3d 56ff c43b ec40 023c 7b8a 1d3d
00000020: f0ab 9abc 7aec a9bd e896 4bbd bf81 6abe
00000030: 33ca c2bd 6278 d53b 90ad dd3c 0156 42b9
00000040: cac3 5a3c 4f5c 8f3e d588 d9bc 4a17 393d
00000050: 1e5b 11bf bd12 da3d 1fe0 26bf 852c 9bbd
00000060: 74b9 27bd 2314 8bbc 5868 38bc 6ac3 12bc
00000070: 292a 4e3d 22c9 b1bd 831b 1b3d fa6f 59bb

encoder.latency_model.net.network.1.running_mean f4 [32]
-2616.459 1392.7823 7932.792 5521.9795 -6389.6826 349.41812 -7121.9 -20840.541
-6554.379 -10580.796 18491.223 9934.616 -14424.127 -14235.057 5402.62 -7808.453
-18679.05 13390.371 -28278.355 -18352.537 22503.623 9865.2295 11640.969 -6125.541
-16527.37 -841.3163 -25556.254 -336.71432 -7906.4478 -13894.708 9352.286 -22334.38
00000000: 5887 23c5 0919 ae44 56e6 f745 d68f ac45
00000010: 76ad c7c5 85b5 ae43 338f dec5 15d1 a2c6
00000020: 08d3 ccc5 2f53 25c6 7276 9046 773a 1b46
00000030: 8260 61c6 3a6c 5ec6 f6d4 a845 a003 f4c5
00000040: 1aee 91c6 7c39 5146 b6ec dcc6 1361 8fc6
00000050: 3fcf af46 eb24 1a46 e0e3 3546 546c bfc5
00000060: bd1e 81c6 3e54 52c4 82a8 c7c6 6f5b a8c3
00000070: 9513 f7c5 d51a 59c6 2521 1246 c37c aec6

encoder.latency_model.net.network.1.running_var f4 [32]
1.3222517e+10 1.9170136e+09 1.2048702e+10 6.8711593e+09 1.2608349e+10 4.414975e+09 1.3007271e+10 8.1949606e+10
1.0169499e+10 2.9584824e+10 5.8314494e+10 2.0875293e+10 3.803111e+10 3.8624e+10 9.508169e+09 1.172428e+10
6.652812e+10 3.4324562e+10 1.3649765e+11 6.3010853e+10 8.633522e+10 2.2276786e+10 2.4856013e+10 9.229875e+09
4.7331717e+10 5.291546e+09 1.1572413e+11 4.489184e+09 1.3849287e+10 3.486537e+10 2.2698938e+10 8.630727e+10
00000000: e607 4550 9d86 e44e 278a 3350 c9c6 cc4f
00000010: 09e1 3b50 9693 834f cdd2 4150 9ea4 9851
00000020: 8f89 1750 936c dc50 093d 5951 7688 9b50
00000030: 4bad 0d51 b8e2 0f51 c9ae 0d50 94b4 2e50
00000040: 29d6 7751 e8bc ff50 273f fe51 d5bb 6a51
00000050: d7cf a051 99f9 a550 1531 b950 2e89 0950
00000060: 0b53 3051 4bb3 9d4f 918d d751 c2c9 854f
00000070: d65e 4e50 35e2 0151 ca1e a950 83c2 a051

encoder.latency_model.net.network.4.weight f4 [64, 32, 3]
0.04929077 -0.0306975 0.12770183 0.013759446 0.0037598084 -0.038709737 0.054697406 -0.12482832
-0.10809785 0.04341498 0.03119322 -0.015457637 -0.115199864 0.068597734 -0.045057036 -0.09324892
-0.00976617 0.022578103 -0.20513073 -0.08723976 -0.036239058 0.03159558 -0.030861305 0.01260798
0.026642276 0.020883093 0.1166833 0.21067762 0.047411166 0.06496178 0.05572276 0.058411703
-0.09141113 0.11687409 -0.065915704 -0.058756616 0.13854617 0.04124806 0.10943153 0.011752075
0.035923976 -0.0466586 -0.04551521 0.023629624 -0.060581 0.089907646 -0.008697242 -0.11642729
-0.009152902 -0.039125685 0.029391335 -0.07479056 -0.02679248 -0.14272955 0.11334105 0.0317434
-0.07140904 0.1647484 0.056741603 -0.024076603 -0.011136628 0.012088175 -0.10189278 0.04628022
-0.1256282 -0.09281894 -0.115880564 -0.10097885 -0.13966386 0.027253743 0.19881202 0.23581088
-0.08172746 -0.060383752 0.036963213 0.036018144 0.040713202 0.10681372 0.036324218 -0.025457313
-0.02640187 0.031991668 0.010199898 -0.111997694 -0.00586824 0.0005238031 -0.1911232 0.10600975
-0.062731534 0.12132098 0.050001863 -0.105365835 -0.1403166 0.042741735 0.082969844 0.10267606
-0.111543424 0.007488065 -0.16754594 -0.07966913 -0.034406886 0.033522867 0.011739763 0.03321688
0.099235445 -0.0363754 -0.0357116 0.13165763 -0.19709209 -0.07430758 -0.22210649 -0.026709532
-0.08038537 0.01301649 -0.2094889 -0.20260757 -0.12128707 0.0052840034 0.01785912 0.06404472
0.043740835 0.07154542 -0.1060014 0.07340081 0.10389216 0.116286196 0.051589817 -0.048348878
0.09876609 -0.097652085 -0.009296626 0.06273564 0.091184326 0.23957387 0.19277163 0.022055667
0.09817539 0.02049146 -0.025222646 -0.030081412 0.03890574 0.021168323 -0.011551142 -0.05847289
-0.025796315 -0.03152689 -0.03860465 -0.08926882 -0.031757433 -0.030693335 0.017937787 -0.01039727
0.06675455 0.06822167 0.14228678 -0.01454151 0.0042804033 0.039080326 -0.14076409 -0.049248096
0.0010777288 0.04463413 -0.06306737 -0.043095373 -0.09120729 0.2590747 0.06832405 0.2170365
-0.012974523 -0.0450477 0.070475265 0.0077126124 -0.10185958 -0.21903394 0.09823528 -0.03387062
0.038756113 -0.10502621 -0.028522586 -0.1440663 -0.06919795 -0.07863539 -0.25539976 0.19052322
0.18755448 0.23889731 -0.04497482 -0.020214455 0.024194399 0.099044904 0.097396284 -0.01193313
0.023022756 -0.07434747 -0.042785767 -0.1144073 -0.27690503 -0.19853152 0.017373638 -0.06831039
-0.09742391 -0.06815249 0.004152956 -0.114907876 0.052803334 0.081700034 0.16653273 -0.048794903
-0.32552364 -0.42102164 0.23048438 0.09519455 -0.14627631 -0.06851427 -0.034173623 -0.053053465
0.08632861 -0.009285281 -0.07704588 -0.033048686 -0.13903932 0.050976735 -0.07755092 -0.14609337
-0.03695965 0.08167567 -0.05813047 0.058283556 -0.025348673 -0.061663836 0.13509491 -0.09306984
0.018176686 -0.068038285 0.1516853 -0.0031913202 -0.12937726 0.025768707 -0.014048635 0.051322937
-0.122147694 -0.12208352 -0.0017752287 0.12822661 -0.053303592 -0.0058984645 -0.008750534 0.06146447
-0.0838349 -0.15781967 -0.028463002 -0.061757073 -0.014314227 0.03752488 0.16800995 -0.03159657
00000000: 1ee5 493d 5379 fbbc 45c4 023e 4d6f 613c
00000010: 1e67 763b 1a8e 1ebd 630a 603d fea5 ffbd
00000020: 6862 ddbd e8d3 313d ec88 ff3c 0742 7dbc
00000030: e8ed ebbd f87c 8c3d ba8d 38bd 4af9 bebd
00000040: 4902 20bc b7f5 b83c ca0d 52be c2aa b2bd
00000050: 686f 14bd 5e6a 013d d9d0 fcbc b391 4e3c
00000060: e740 da3c 0513 ab3c a7f7 ee3d e0bb 573e
00000070: 3632 423d af0a 853d 8c3d 643d 1c41 6f3d
00000080: c235 bbbd af5b ef3d d0fe 86bd c7aa 70bd
00000090: 0cdf 0d3e baf3 283d a31d e03d c68b 403c
000000a0: 0525 133d 171d 3fbd 286e 3abd ea92 c13c
000000b0: c823 78bd 8021 b83d e07e 0ebc 6e71 eebd
000000c0: 0ef6 15bc 4142 20bd 19c6 f03c cb2b 99bd
000000d0: e77b dbbc b227 12be 5a1f e83d 5e05 023d
000000e0: e73e 92bd ceb3 283e e269 683d 4c3c c5bc
000000f0: 6776 36bc 7b0d 463c 29ad d0bd 5490 3d3d
00000100: aea4 00be db17 bebd ca52 edbd 00ce cebd
00000110: 0b04 0fbe 3e43 df3c 6195 4b3e 6878 713e
00000120: ba60 a7bd f454 77bd bd66 173d c387 133d
00000130: e3c2 263d 27c1 da3d b4c8 143d db8b d0bc
00000140: bc48 d8bc b209 033d 791d 273c 0c5f e5bd
00000150: 5d4a c0bb d54f 093a cdb5 43be a41b d93d
00000160: 6479 80bd 2277 f83d c1ce 4c3d 0bca d7bd
00000170: 28af 0fbe f511 2f3d 18ec a93d d347 d23d
00000180: e170 e4bd 715e f53b 2a91 2bbe 9229 a3bd
00000190: 3cee 0cbd 464f 093d 2358 403c 6c0e 083d
000001a0: f43b cb3d 5ffe 14bd 5446 12bd 42d1 063e
000001b0: 82d2 49be 932e 98bd e26f 63be f3cd dabc
000001c0: 16a1 a4bd 1e43 553c 4284 56be 5c78 4fbe
000001d0: 5b65 f8bd 6f25 ad3b 4a4d 923c e129 833d
000001e0: 9729 333d 6886 923d 4317 d9bd 2a53 963d
000001f0: 6ac5 d43d 7527 ee3d d84f 533d 7909 46bd
00000200: e045 ca3d d1fd c7bd e050 18bc 8b7b 803d
00000210: d9be ba3d da52 753e ed65 453e 16ae b43c
00000220: 2e10 c93d b5dd a73c b99f cebc 4b6d f6bc
00000230: a05b 1f3d 3169 ad3c 0041 3dbc 4581 6fbd
00000240: cb52 d3bc 5722 01bd e91f 1ebd 92d2 b6bd
00000250: 1514 02bd 9770 fbbc 44f2 923c 5059 2abc
00000260: 9cb6 883d ceb7 8b3d a0b3 113e 833f 6ebc
00000270: a042 8c3b b112 203d 7624 10be 5fb8 49bd
00000280: 9442 8d3a 47d2 363d 7729 81bd c684 30bd
00000290: e3ca babd 70a5 843e 7bed 8b3d d13e 5e3e
000002a0: 1893 54bc f083 38bd 5655 903d 15ba fc3b
000002b0: c19b d0bd 6f4a 60be 942f c93d ebbb 0abd
000002c0: bbbe 1e3d fb17 d7bd 33a8 e9bc 1e86 13be
000002d0: a8b7 8dbd 970b a1bd c2c3 82be 8518 433e
000002e0: 480e 403e 7fa1 743e 8437 38bd c998 a5bc
000002f0: 5533 c63c 0ed8 ca3d b477 c73d 2d83 43bc
00000300: 389a bc3c 7d43 98bd 2140 2fbd 604e eabd
00000310: 7fc6 8dbe d94b 4bbe 2953 8e3c 51e6 8bbd
00000320: 3086 c7bd 8893 8bbd 8515 883b d254 ebbd
00000330: 4f48 583d 5952 a73d 8e87 2a3e 2add 47bd
00000340: 09ab a6be 2690 d7be 1904 6c3e 5cf5 c23d
00000350: 75c9 15be 3651 8cbd a4f9 0bbd 974e 59bd
00000360: 0ecd b03d 4b21 18bc 3bca 9dbd 0f5e 07bd
00000370: 5360 0ebe fbcc 503d 04d3 9ebd 8099 15be
00000380: 0163 17bd 9345 a73d 371a 6ebd bdba 6e3d
00000390: 05a8 cfbc 3893 7cbd 5256 0a3e 669b bebd
000003a0: 46e7 943c a857 8bbd 6453 1b3e 7825 51bb
000003b0: 797b 04be e518 d33c 3f2c 66bc 0038 523d
000003c0: 9228 fabd ed06 fabd caae e8ba d64d 033e
000003d0: de54 5abd e847 c1bb 665e 0fbc 2bc2 7b3d
000003e0: a2b1 abbd 7b9b 21be 3e2b e9bc fcf4 7cbd
000003f0: 3886 6abc b0b3 193d cd0a 2c3e 686b 01bd

encoder.latency_model.net.network.4.bias f4 [64]
0.1712178 0.30989167 1.083517 0.025676254 -0.2768529 0.16777588 0.14460799 -0.30272418
0.009668354 0.15384147 0.25654414 -0.08180552 -0.035520628 0.4213782 -0.15730959 0.805453
-0.11422398 1.0325811 -0.22969438 -0.12978889 -0.21462622 -0.17269166 -0.26207858 0.057728104
-0.077244945 -0.12303385 -0.07129641 -0.105062075 0.07861929 -0.14823072 0.29787216 0.47380838
-0.18447039 -0.12059262 0.015846357 0.1375551 -0.00590654 0.7922471 -0.015255489 0.4048382
-0.047577046 -0.37717 0.23274796 -0.06985074 -0.10623966 -0.07695284 -0.6001207 0.97597796
-0.20313916 -0.2462845 0.5834837 0.05626144 -0.17450991 -0.13119498 0.048379626 -0.10721203
-0.11591372 0.96329284 0.07232629 -0.005617932 0.031013614 0.5697905 0.06756846 -0.2658771
00000000: b853 2f3e 1faa 9e3e afb0 8a3f 0257 d23c
00000010: aabf 8dbe 71cd 2b3e 1e14 143e aafe 9abe
00000020: 0468 1e3c 9e88 1d3e c159 833e a789 a7bd
00000030: 147e 11bd e2be d73e c415 21be 2b32 4e3f
00000040: 43ee e9bd 9e2b 843f 0135 6bbe 61e7 04be
00000050: fac6 5bbe 15d6 30be 2a2f 86be 4e74 6c3d
00000060: 9932 9ebd 2cf9 fbbd da03 92bd c92a d7bd
00000070: 2603 a13d cbc9 17be b382 983e 0397 f23e
00000080: cee5 3cbe 43f9 f6bd 38d0 813c 3edb 0c3e
00000090: a68b c1bb b5d0 4a3f 29f2 79bc f446 cf3e
000000a0: 26e0 42bd 6d1c c1be 7b55 6e3e e80d 8fbd
000000b0: 2e94 d9bd 7399 9dbd 83a1 19bf b1d9 793f
000000c0: b603 50be 0132 7cbe 305f 153f 6572 663d
000000d0: bab2 32be fa57 06be b729 463d fb91 dbbd
000000e0: 2c64 edbd 5c9a 763f ce1f 943d a116 b8bb
000000f0: 4310 fe3c cadd 113f 5561 8a3d 0b21 88be

encoder.latency_model.net.network.5.weight f4 [64]
1.0636804 1.0886095 1.2518296 1.1875802 1.2377119 0.9556601 1.1439278 1.1296612
1.1326497 1.0622952 1.0694013 1.0450754 1.0055716 1.21238 1.0255383 1.0811254
1.0340961 1.16092 1.0469886 1.0544096 1.18159 1.0134796 0.906368 0.99917024
1.4606766 1.0772794 0.86018145 0.9062269 1.183724 0.8895957 1.0635469 1.2178638
1.0560097 1.0224507 1.0486004 1.0570563 1.0032847 1.1171105 1.0483412 1.1718175
1.0073239 1.012684 1.1368947 0.98872685 0.9682736 0.98631847 1.1980933 1.4208208
0.9212297 0.98675334 1.0475466 0.91458434 1.0786088 0.97180104 1.1278315 1.1678758
1.2641878 1.1445531 0.95621306 1.0837877 0.92474645 1.1774623 1.1456949 1.0457798
00000000: ae26 883f 8e57 8b3f f43b a03f a102 983f
00000010: 586d 9e3f 24a6 743f 3a6c 923f bd98 903f
00000020: aafa 903f 4af9 873f 24e2 883f 08c5 853f
00000030: 92b6 803f 452f 9b3f d744 833f 5162 8a3f
00000040: 435d 843f 0799 943f b903 863f e5f6 863f
00000050: 573e 973f b3b9 813f bc07 683f 9fc9 7f3f
00000060: 73f7 ba3f 4be4 893f da34 5c3f 7cfe 673f
00000070: 4584 973f 8bbc 633f 4e22 883f f6e2 9b3f
00000080: 532b 873f aadf 823f 8a38 863f 9f4d 873f
00000090: a26b 803f 7afd 8e3f 0b30 863f 1efe 953f
000000a0: fdef 803f a19f 813f c485 913f 341d 7d3f
000000b0: c7e0 773f 5e7f 7c3f 1f5b 993f 75dd b53f
000000c0: b6d5 6b3f de9b 7c3f 0216 863f 3322 6a3f
000000d0: da0f 8a3f f4c7 783f c85c 903f f47c 953f
000000e0: e8d0 a13f b780 923f 61ca 743f 8eb9 8a3f
000000f0: 2fbc 6c3f 16b7 963f 21a6 923f 1ddc 853f

encoder.latency_model.net.network.5.bias f4 [64]
0.059556443 0.07591661 0.012528418 0.13746929 0.15593399 0.06380096 0.1694028 0.019971745
0.27924544 0.1767663 0.051582433 0.043309715 0.058979258 0.011281799 0.1974737 0.055547334
0.0144267315 0.004516815 0.042776182 -0.012868493 -0.0004891271 0.048627835 0.10096113 0.113818735
0.12697047 0.014906757 0.018098574 -0.0015073557 0.08190491 0.09588778 0.006529806 0.061343446
0.06958337 0.051691297 -0.007935691 0.2684488 -0.008165472 0.023425967 0.19489224 0.03597764
-0.04505058 0.07654516 -0.020075543 0.16940671 0.15874124 -0.047928877 0.067906395 0.06341091
0.043110806 0.2513002 0.013086131 0.09530653 -0.018157935 -0.02615915 -0.04564318 0.11136356
0.08720778 0.117274776 0.08936378 0.107301354 0.0639691 0.001757038 -0.036786225 0.078380585
00000000: 75f1 733d 2b7a 9b3d fe43 4d3c c0c4 0c3e
00000010: 29ad 1f3e 14aa 823d ed77 2d3e c99b a33c
00000020: 42f9 8e3e 3a02 353e 1a48 533d 8765 313d
00000030: 3c94 713d 4bd7 383c 8c36 4a3e 9a85 633d
00000040: 195e 6c3c ca01 943b 1436 2f3d 5fd6 52bc
00000050: c438 00ba fb2d 473d b5c4 ce3d cc19 e93d
00000060: 8c04 023e 783b 743c 7643 943c 7792 c5ba
00000070: c3bd a73d d060 c43d fcf7 d53b 4443 7b3d
00000080: ba81 8e3d 41ba 533d b304 02bc 1f72 893e
00000090: 79c8 05bc d0e7 bf3c d591 473e 4a5d 133d
000000a0: f586 38bd b5c3 9c3d 7775 a4bc f478 2d3e
000000b0: 108d 223e 1251 44bd 8212 8b3d 94dd 813d
000000c0: f594 303d 6baa 803e 3667 563c 1230 c33d
000000d0: f3bf 94bc b74b d6bc 58f4 3abd 9412 e43d
000000e0: fe99 b23d c22d f03d 5c04 b73d d0c0 db3d
000000f0: 3b02 833d 694c e63a 27ad 16bd 0086 a03d

encoder.latency_model.net.network.5.running_mean f4 [64]
0.07500574 0.2039451 0.9166916 0.30732036 -0.15725097 0.19076301 0.29667524 -0.97967076
0.2336296 0.6130587 0.06766061 -0.116111465 0.13170822 0.38465837 0.091198355 0.6495867
-0.20695816 0.92858 -0.19913733 -0.5572702 -0.41547355 -0.013287526 0.04168079 0.067988254
-0.077807024 0.22830468 0.021446828 -0.0690374 0.056846 0.14410137 0.072618105 0.22573872
-0.002777635 -0.15074454 -0.6009149 0.49463853 -0.028373523 0.68930507 0.345698 0.38818994
-0.1931607 -0.40485862 0.19822139 0.15883298 0.3456505 -0.18544516 -0.48991022 0.9732434
-0.1180172 -0.023134284 0.43079472 0.1284495 -0.09506762 0.07528699 0.47209173 -0.010761143
-0.1015172 0.72112244 0.43515244 0.15575083 0.13193916 0.5586863 0.13726722 -0.20848155
00000000: 9c9c 993d fcd6 503e 4dac 6a3f 1859 9d3e
00000010: 6606 21be 6157 433e d1e5 973e b4cb 7abf
00000020: 993c 6f3e 6af1 1c3f a591 8a3d d9cb edbd
00000030: 85de 063e f1f1 c43e 34c6 ba3d 504b 263f
00000040: d7ec 53be 6bb7 6d3f a8ea 4bbe 43a9 0ebf
00000050: f3b8 d4be ecb3 59bc 7ab9 2a3d 6d3d 8b3d
00000060: 4a59 9fbd b4c8 693e 42b1 af3c 7b63 8dbd
00000070: 5ad7 683d 4f8f 133e cdb8 943d 0d28 673e
00000080: fb08 36bb c75c 1abe 8fd5 19bf 4341 fd3e
00000090: 976f e8bc 4c76 303f 54ff b03e d5c0 c63e
000000a0: ebcb 45be a149 cfbe 8cfa 4a3e 1da5 223e
000000b0: 1af9 b03e 56e5 3dbe 83d5 fabe 7b26 793f
000000c0: 00b3 f1bd 1c84 bdbc 2091 dc3e 4488 033e
000000d0: d0b2 c2bd 1130 9a3d 02b6 f13e 814f 30bc
000000e0: 40e8 cfbd 7b9b 383f 4dcc de3e 257d 1f3e
000000f0: 0f1b 073e 1106 0f3f c78f 0c3e 307c 55be

encoder.latency_model.net.network.5.running_var f4 [64]
0.6684715 0.19771835 0.9050695 0.29857412 0.30126554 0.54364896 0.24796344 0.4774779
0.24987625 0.65316856 0.7269814 0.43141198 1.3061625 0.20743184 0.27799943 0.571603
0.80037564 0.502222 0.16560361 0.09651516 3.1100912 0.3471646 0.19204015 0.39547357
0.6492967 0.4408627 0.7476657 0.8122804 0.49284893 0.25742126 0.46452555 0.32435417
0.165316 0.16825902 0.15306962 0.2650398 0.5245067 0.6812081 0.2730634 0.4172963
0.78947973 0.38455415 0.5900817 0.508943 0.7589073 0.93172085 0.36688554 0.66876924
0.3369637 0.15374763 0.5682396 0.7608847 0.32422793 1.0601561 0.2309714 0.41124192
1.2609495 1.0049827 0.6004916 0.18040001 0.19200836 0.3286811 0.7297282 0.15550369
00000000: f320 2b3f ae76 4a3e a2b2 673f b5de 983e
00000010: 7a3f 9a3e 942c 0b3f 21ea 7d3e fc77 f43e
00000020: 8fdf 7f3e 0e36 273f 741b 3a3f 08e2 dc3e
00000030: 5530 a73f 0369 543e f155 8e3e 9354 123f
00000040: 6be5 4c3f 9f91 003f fe93 293e bda9 c53d
00000050: bc0b 4740 8fbf b13e 2ca6 443e 837b ca3e
00000060: 4f38 263f c1b8 e13e 0567 3f3f 9cf1 4f3f
00000070: b256 fc3e b8cc 833e 4bd6 ed3e c011 a63e
00000080: 9948 293e 184c 2c3e 48be 1c3e 4cb3 873e
00000090: 1246 063f a763 2e3f f7ce 8b3e dca7 d53e
000000a0: 581b 4a3f 48e4 c43e 980f 173f 174a 023f
000000b0: c047 423f 4285 6e3f 6cd8 bb3e 7634 2b3f
000000c0: 8286 ac3e 0570 1d3e 2778 113f 57c9 423f
000000d0: 3401 a63e 32b3 873f c483 6c3e 4d8e d23e
000000e0: cb66 a13f 46a3 803f d1b9 193f c8ba 383e
000000f0: d79d 443e e448 a83e 78cf 3a3f 5c3c 1f3e

encoder.latency_model.attn_layer.atten_w f4 [20, 64, 1]
0.072811365 0.3088694 0.16803633 -0.19854353 -0.08093281 -0.017163357 0.12723368 0.2540492
-0.096590124 -0.10925356 -0.036312934 0.39151573 0.053077586 -0.3313622 -0.3159205 0.43163362
-0.1648744 -0.24286306 -0.18841921 0.50461364 -0.15594865 0.07229312 0.14508393 -0.26014474
0.25805044 0.19432387 -0.051192522 0.103391536 0.13046728 -0.13385753 0.23605591 -0.015959024
-0.2674183 -0.30252948 0.6092708 0.28254333 -0.06457074 0.22396642 0.018075662 -0.022081966
0.31887996 -0.049633916 0.17271647 -0.05592388 -0.118645206 0.011871941 0.36419615 0.33873814
0.1254044 0.13584507 0.31461507 -0.2593733 -0.02421546 0.15384202 -0.21951774 -0.1663536
0.3170147 0.460028 -0.17882505 -0.17290832 0.3319086 0.04652987 -0.19449332 -0.035180837
-0.19012138 0.032446552 -0.114414096 0.12009353 -0.29215148 -0.1516448 -0.35423514 -0.091924205
-0.34445137 -0.12101154 -0.38130513 -0.13183334 -0.15646993 -0.29910362 0.0382362 0.18524978
-0.40932563 -0.16923007 -0.19820863 0.39079162 0.19306545 0.17058903 0.17898118 -0.32641703
-0.5839435 0.1794322 -0.25090483 -0.19549236 -0.091946855 -0.07563154 -0.35817894 -0.12358474
-0.40079665 0.032829273 -0.12080038 0.44414207 0.3577285 -0.118153214 -0.1037423 0.16239199
-0.17796454 0.14828137 0.04840158 -0.047152236 -0.13154118 -0.080086954 -0.28440717 0.112988204
0.09841687 0.14989951 0.018173864 -0.13826779 0.22086436 -0.29118797 0.116201766 0.31389728
0.28734106 0.0807315 0.070409395 0.29590866 0.2602132 -0.5961531 0.1069844 -0.1614601
0.20196618 0.26237795 -0.35536414 -0.26252857 -0.20143613 0.26815024 0.016195059 0.3644792
0.14869043 -0.20349346 0.22162321 0.12756817 0.25305647 0.19582705 -0.20703714 -0.18688798
0.32549885 -0.29132983 0.103422835 0.039808314 -0.55180264 0.15025374 0.34333614 -0.23704551
0.046482086 -0.022385905 0.141397 -0.08426673 -0.093077935 -0.16845725 0.11893533 -0.2862634
0.28348014 -0.295274 0.24148889 -0.11101167 -0.25293842 -0.2736141 -0.11329019 -0.36963668
0.09863988 -0.047418214 -0.13083336 -0.10090272 -0.23141961 -0.5147064 -0.17416008 -0.5559583
-0.1601433 -0.19360256 0.107607014 -0.10143508 0.059787493 0.10891165 0.10587419 0.38457248
-0.061980724 0.15307383 0.214523 0.100742325 0.22933333 -0.3568516 -0.0535709 0.3867102
0.0446363 -0.2704504 0.25001302 -0.4071434 -0.35254866 0.28129017 0.20745914 0.46440804
-0.43947995 -0.16910273 -0.051482897 -0.15062524 0.14730062 0.29671678 -0.3191514 -0.091705784
0.15888634 -0.33640063 0.006296226 0.13393816 -0.048505552 -0.14127338 0.022876622 -0.3386312
-0.04632721 0.101963714 -0.27687886 -0.066052176 -0.01197672 0.12901184 0.117249094 0.09830972
-0.27003783 0.11763653 0.029489577 0.21263728 -0.064431265 0.019062994 0.12062302 -0.10901711
-0.22647262 0.20924155 -0.40938887 -0.38819712 0.123519406 -0.26671332 -0.08568195 -0.14047725
0.3692946 -0.41327316 0.2745527 -0.1569017 -0.2749827 0.22875309 0.077491015 -0.06017244
0.019095499 -0.049415395 0.124900006 -0.11118248 -0.2998797 -0.021127457 -0.1618698 -0.07719486
00000000: 201e 953d 2124 9e3e b711 2c3e ff4e 4bbe
00000010: 1ac0 a5bd 2b9a 8cbc 8c49 023e bd12 823e
00000020: 0bd1 c5bd 55c0 dfbd dfbc 14bd c074 c83e
00000030: e267 593d 4ea8 a9be 55c0 a1be 15ff dc3e
00000040: d6d4 28be 18b1 78be f7f0 40be 5c2e 013f
00000050: 01b1 1fbe 6a0e 943d e290 143e b131 85be
00000060: 301f 843e d6fc 463e 40af 51bd f1be d33d
00000070: 3799 053e f311 09be a4b8 713e 80bc 82bc
00000080: 0deb 88be 25e5 9abe 2cf9 1b3f 85a9 903e
00000090: aa3d 84bd 7457 653e 6913 943c 3de5 b4bc
000000a0: 3c44 a33e ef4c 4bbd 96dc 303e 7010 65bd
000000b0: 42fc f2bd 8882 423c eb77 ba3e 166f ad3e
000000c0: 036a 003e f81a 0b3e 3a15 a13e 94cc 84be
000000d0: 805f c6bc c388 1d3e 42c9 60be 9958 2abe
000000e0: c04f a23e ca88 eb3e ea1d 37be e10e 31be
000000f0: edef a93e 1b96 3e3d 4229 47be c819 10bd
00000100: 2eaf 42be ade6 043d f051 eabd 99f3 f53d
00000110: e194 95be c648 1bbe 4f5e b5be c242 bcbd
00000120: ee5b b0be e6d4 f7bd 6d3a c3be 52ff 06be
00000130: a739 20be 1c24 99be 909d 1c3d 1eb2 3d3e
00000140: 2193 d1be a64a 2dbe 34f7 4abe d715 c83e
00000150: f3b2 453e e4ae 2e3e d846 373e 2220 a7be
00000160: 527d 15bf 13bd 373e 9976 80be 262f 48be
00000170: a24e bcbd b5e4 9abd 3b63 b7be ff19 fdbd
00000180: 3835 cdbe fd77 063d 3166 f7bd 9766 e33e
00000190: 3128 b73e 50fa f1bd d876 d4bd 164a 263e
000001a0: 563c 36be 12d7 173e bc40 463d b422 41bd
000001b0: bbb2 06be a104 a4bd d19d 91be 5c66 e73d
000001c0: c98e c93d 427f 193e 5be1 943c 1296 0dbe
000001d0: 442a 623e 9716 95be 31fb ed3d 25b7 a03e
000001e0: 5e1e 933e 8f56 a53d cd32 903d 5781 973e
000001f0: aa3a 853e 7d9d 18bf a31a db3d cc55 25be
00000200: 39d0 4e3e 6756 863e 4af2 b5be 256a 86be
00000210: 4645 4ebe fd4a 893e 80ab 843c 059d ba3e
00000220: 4e42 183e 9760 50be 32f1 623e 3ba1 023e
00000230: 9e90 813e e386 483e 8b01 54be 905f 3fbe
00000240: c9a7 a63e 2f29 95be 5acf d33d 0b0e 233d
00000250: f042 0dbf 1edc 193e c1c9 af3e 0fbc 72be
00000260: 0064 3e3d a562 b7bc 60ca 103e 0994 acbd
00000270: a59f bebd 0f80 2cbe 5e94 f33d 1e91 92be
00000280: 4f24 913e 272e 97be dd48 773e 165a e3bd
00000290: 2581 81be 2617 8cbe b004 e8bd 0541 bdbe
000002a0: b503 ca3d 9a39 42bd 2ef9 05be 16a6 cebd
000002b0: 43f9 6cbe ccc3 03bf 0557 32be 4853 0ebf
000002c0: 9bfc 23be c03f 46be 1161 dc3d 32bd cfbd
000002d0: bbe3 743d 120d df3d 91d4 d83d afe6 c43e
000002e0: 80df 7dbd 63bf 1c3e ebab 5b3e fe51 ce3d
000002f0: 5bd6 6a3e 41b5 b6be 296d 5bbd e1fe c53e
00000300: 8ed4 363d 7a78 8abe b501 803e 1a75 d0be
00000310: 4281 b4be 4405 903e 2b70 543e e4c6 ed3e
00000320: 8403 e1be 4429 2dbe bbdf 52bd 813d 1abe
00000330: f9d5 163e 43eb 973e d067 a3be 3ed0 bbbd
00000340: 1ab3 223e b43c acbe 9250 ce3b 1627 093e
00000350: c2ad 46bd f8a9 10be c167 bb3c 1261 adbe
00000360: 9ac1 3dbd 5ad2 d03d 11c3 8dbe 5d46 87bd
00000370: 013a 44bc ae1b 043e 4b20 f03d 9b56 c93d
00000380: 6642 8abe 6ceb f03d 2094 f13c 96bd 593e
00000390: 8af4 83bd ff29 9c3c 3409 f73d 5d44 dfbd
000003a0: 70e8 67be 6b43 563e 6b9b d1be c6c1 c6be
000003b0: bef7 fc3d a68e 88be 057a afbd 45d9 0fbe
000003c0: 2f14 bd3e 8a98 d3be 2c92 8c3e d7aa 20be
000003d0: 88ca 8cbe 403e 6a3e 9cb3 9e3d 6077 76bd
000003e0: 2a6e 9c3c cc67 4abd 93cb ff3d a4b3 e3bd
000003f0: d589 99be 7d13 adbc 32c1 25be 5718 9ebd

encoder.latency_model.attn_layer.atten_bias f4 [20, 1, 1]
0.32854474 -0.07321112 0.042212963 0.05708967 0.06901173 0.098390505 0.071665294 0.034750164
0.09228479 0.077731624 0.11008396 0.059025507 0.01671218 -0.035862297 0.03410203 0.04492822
0.03558589 0.02498085 0.06474594 0.005202477
00000000: 0437 a83e b6ef 95bd 80e7 2c3d dcd6 693d
00000010: 0656 8d3d f680 c93d 41c5 923d 3056 0e3d
00000020: cfff bc3d c231 9f3d b373 e13d bbc4 713d
00000030: fbe7 883c 58e4 12bd 92ae 0b3d a706 383d
00000040: 83c2 113d a4a4 cc3c 8599 843d 8a79 aa3b

encoder.cpu_model.net.network.0.weight f4 [32, 1, 3]
-0.122842595 -0.36108133 -0.46444237 -0.34834754 -0.5146559 0.4139106 -0.46274057 0.10715566
-0.24670942 -0.27117696 0.58256966 0.04121228 0.0121529745 0.42656437 0.5359723 -0.2932436
0.2635744 0.4536237 -0.043480445 0.50623256 -0.5002465 -0.13647535 0.20186542 0.5461669
-0.38466597 -0.5705567 0.49713165 0.2878152 -0.53083843 0.5864955 -0.010798838 0.3719027
-0.37094337 -0.12984027 0.5851999 -0.15679845 0.46085232 -0.18246897 -0.29824623 0.04367216
-0.33733624 -0.41660103 0.4245583 -0.5189756 -0.120102175 -0.22670601 -0.2750003 -0.036985774
-0.21872582 -0.19068658 0.58587384 -0.53060794 -0.16758601 0.08912625 0.14080547 0.4645282
0.5531667 0.27244726 0.49927443 0.4107917 -0.058733724 0.3932924 0.28109738 0.39163414
0.14744943 0.027154554 0.28321728 -0.53033555 0.13307784 -0.5284989 0.4295745 -0.33960494
0.022832127 0.7131945 -0.1062668 -0.41902667 0.4457889 0.20895748 0.099973835 0.58829314
-0.21742527 0.57809055 -0.12896052 -0.0060298466 -0.19472349 -0.3431094 0.2751575 0.1706495
-0.46448776 -0.33160776 0.16326813 -0.35960135 -0.1680002 -0.027715333 -0.42773366 -0.39886394
00000000: e694 fbbd a7df b8be 64cb edbe 9c5a b2be
00000010: 7dc0 03bf 17ec d33e 55ec ecbe 6d74 db3d
00000020: 65a1 7cbe b5d7 8abe 4923 153f 35ce 283d
00000030: 451d 473c a566 da3e 7b35 093f 0624 96be
00000040: 39f3 863e 5e41 e83e 8d18 32bd 7598 013f
00000050: 2810 00bf 32c0 0bbe cfb5 4e3e 98d1 0b3f
00000060: f0f2 c4be 0110 12bf 0a88 fe3e 845c 933e
00000070: 07e5 07bf 9224 163f 9ced 30bc 086a be3e
00000080: 4aec bdbe d9f4 04be a9cf 153f c68f 20be
00000090: d6f4 eb3e 25d9 3abe bbb3 98be 94e1 323d
000000a0: 56b7 acbe bb4c d5be b55f d93e 96db 04bf
000000b0: 21f8 f5bd 9f25 68be d7cc 8cbe 657e 17bd
000000c0: a9f9 5fbe 5843 43be d4fb 153f ecd5 07bf
000000d0: ab9b 2bbe d387 b63d 4f2f 103e a4d6 ed3e
000000e0: 559c 0d3f 357e 8b3e e6a0 ff3e 4a53 d23e
000000f0: c692 70bd 9f5d c93e ffeb 8f3e 4584 c83e
00000100: fcfc 163e 3a73 de3c db01 913e 12c4 07bf
00000110: 8f45 083e b44b 07bf 30f1 db3e b3e0 adbe
00000120: 710a bb3c ea93 363f 68a2 d9bd aa8a d6be
00000130: 713e e43e f3f8 553e 15bf cc3d 619a 163f
00000140: bba4 5ebe befd 133f 3a0e 04be 0596 c5bb
00000150: 9865 47be 09ac afbe 72e1 8c3e bebe 2e3e
00000160: 57d1 edbe 7ec8 a9be c32f 273e ab1d b8be
00000170: 3f08 2cbe 440b e3bc e8ff dabe e537 ccbe

encoder.cpu_model.net.network.0.bias f4 [32]
0.4683743 -0.52930075 0.3295901 0.3400728 -0.09357576 -0.56933 -0.31546164 0.40182573
0.42474234 -0.16583405 0.10805846 -0.3362985 -0.098861836 0.18211317 0.15641107 0.27409086
-0.44765732 0.34984106 0.2816811 0.24171 -0.09485623 0.29367122 -0.35437724 0.38719288
-0.15788515 -0.08839196 -0.24949968 0.08935301 -0.14629439 -0.5534705 -0.087060474 -0.13513546
00000000: c2ce ef3e 4180 07bf 09c0 a83e 061e ae3e
00000010: a6a4 bfbd 9cbf 11bf 3084 a1be 1abc cd3e
00000020: d477 d93e 67d0 29be c14d dd3d 512f acbe
00000030: 1378 cabd e07b 3a3e 392a 203e a355 8c3e
00000040: 5733 e5be 5e1e b33e 8138 903e d482 773e
00000050: fc43 c2bd 135c 963e ef70 b5be 253e c63e
00000060: a5ac 21be d806 b5bd d87c 7fbe b6fe b63d
00000070: 32ce 15be 3eb0 0dbf c34c b2bd f360 0abe

encoder.cpu_model.net.network.1.weight f4 [32]
0.8959339 0.954215 0.9693969 1.0853261 0.9933186 1.0659627 0.8732087 1.0532701
0.9655805 1.005839 0.90455616 1.0264276 0.95188946 0.913002 0.8706979 0.92151004
1.0442166 0.96096814 1.0469214 1.0399975 1.0115271 1.0363085 0.8948557 0.9542008
1.0236313 1.0548729 0.9967363 0.95759404 1.0229225 0.89184827 0.94143355 0.9814643
00000000: ed5b 653f 6f47 743f 652a 783f f7eb 8a3f
00000010: 214a 7e3f 7771 883f 9b8a 5f3f 8ed1 863f
00000020: 4930 773f 55bf 803f fe90 673f fb61 833f
00000030: 07af 733f 80ba 693f 0fe6 5e3f 15e8 6b3f
00000040: e4a8 853f 0202 763f 8501 863f a31e 853f
00000050: b879 813f c2a5 843f 4315 653f 8146 743f
00000060: 5a06 833f 1306 873f 1c2a 7f3f e224 753f
00000070: 20ef 823f 2b50 643f ca01 713f 3f41 7b3f

encoder.cpu_model.net.network.1.bias f4 [32]
-0.13715777 -0.020866804 -0.021060918 -0.055694997 -0.085290745 -0.088388756 -0.079246126 -0.07486053
0.0039325366 -0.0783292 -0.013700744 -0.058709458 -0.06007871 -0.096739724 -0.1283947 -0.062504604
-0.055655383 -0.02957473 -0.0524596 -0.081762284 -0.06883956 -0.055678435 -0.054918777 -0.07020583
-0.075292274 -0.06780873 -0.09647553 -0.09401283 0.044254165 -0.12707375 -0.05411984 -0.012710966
00000000: 1673 0cbe dcf0 aabc f287 acbc 7020 64bd
00000010: eaac aebd 2a05 b5bd cb4b a2bd 7a50 99bd
00000020: 82dc 803b 0f6b a0bd 1679 60bc 5479 70bd
00000030: 1815 76bd 7a1f c6bd e679 03be 6a02 80bd
00000040: e6f6 63bd b446 f2bc e1df 56bd fc72 a7bd
00000050: c1fb 8cbd 120f 64bd 83f2 60bd 13c8 8fbd
00000060: d632 9abd 4edf 8abd f694 c5bd cc89 c0bd
00000070: db43 353d 9f1f 02be c4ac 5dbd a841 50bc

encoder.cpu_model.net.network.1.running_mean f4 [32]
-270.1346 -127.094376 -170.35944 100.01177 277.57788 120.32519 -10.465506 174.94707
-129.98358 98.31828 -2.8001852 83.54884 -5.7629843 -202.46962 -63.142155 -152.77243
48.885868 -172.41019 330.37473 337.07953 175.2903 161.20839 -33.683243 -123.14942
178.84068 66.08323 133.11731 125.94536 -75.23104 -179.8531 -105.08138 -243.66084
00000000: 3b11 87c3 5230 fec2 045c 2ac3 0706 c842
00000010: f8c9 8a43 7fa6 f042 b672 27c1 73f2 2e43
00000020: ccfb 01c3 f6a2 c442 3c36 33c0 0219 a742
00000030: 5e6a b8c0 3978 4ac3 9191 7cc2 bec5 18c3
00000040: 218b 4342 0269 2cc3 f72f a543 2e8a a843
00000050: 514a 2f43 5935 2143 a4bb 06c2 814c f6c2
00000060: 37d7 3243 9d2a 8442 081e 0543 06e4 fb42
00000070: 4b76 96c2 65da 33c3 ab29 d2c2 2da9 73c3

encoder.cpu_model.net.network.1.running_var f4 [32]
353162.72 96750.08 139614.23 57776.945 376674.1 84615.72 11896.668 156772.72
107660.51 55053.87 6600.2764 41727.027 15080.073 202652.34 32935.414 113737.55
28307.895 151673.89 526008.56 544498.7 152436.8 126566.766 12727.2705 77786.95
164752.34 35255.473 95265.54 83857.555 35024.09 163883.48 58129.883 288984.72
00000000: 5771 ac48 0af7 bc47 8f57 0848 f2b0 6147
00000010: 43ec b748 dc43 a547 ace2 3946 2e19 1948
00000020: 4146 d247 df0d 5747 3642 ce45 07ff 2247
00000030: 4ba0 6b46 16e7 4548 6aa7 0047 c624 de47
00000040: ca27 dd46 791e 1448 896b 0049 2bef 0449
00000050: 33dd 1448 6233 f747 15dd 4646 7aed 9747
00000060: 16e4 2048 79b7 0947 c510 ba47 c7c8 a347
00000070: 17d0 0847 df0a 2048 e211 6347 171b 8d48

encoder.cpu_model.net.network.4.weight f4 [64, 32, 3]
-0.035523877 -0.042744916 0.0010824834 0.035833623 0.015969368 -0.023995882 0.023801293 0.085499614
0.05520228 0.021081645 0.037623283 0.19121766 -0.03591944 0.124011494 0.091747895 0.11385389
0.14568591 0.17249918 0.08733137 -0.09027208 -0.00403369 0.044107858 0.122963674 0.18242493
-0.0034751291 -0.09256282 0.04257478 0.05093702 -0.0061541647 -0.003242911 -0.06267844 -0.082369566
-0.005646202 0.04439531 0.022372356 0.08965056 -0.047417346 0.067639746 0.015834918 0.044768818
-0.048668046 -0.015588999 0.054688405 -0.0028618162 0.07128877 -0.03375128 0.095597945 -0.049716547
0.002770301 0.022990895 -0.02860453 -0.036599346 -0.034190357 0.10906045 -0.013429162 -0.031836327
0.02601095 -0.014248232 0.1265596 0.23349127 0.09347879 0.040210173 0.1872208 0.012257531
0.07666848 0.1948875 0.009798688 -0.08821761 -0.08012553 0.007039366 0.02392526 -0.015722647
0.0056785992 -0.0295478 0.16463539 0.090639964 -0.034752723 0.07624165 -0.051727902 0.041051283
0.09893996 -0.0025439272 -0.03530296 0.10412896 0.010267378 -0.07901341 0.08176332 0.015091475
0.061453797 -0.088044494 -0.019592803 -0.047269795 -0.06518817 0.074486226 0.023995174 0.0152032925
0.07036142 -0.11982982 -0.06353787 -0.066432364 0.03848437 -0.05406648 0.07139789 0.008277003
0.065991975 0.0036588665 0.08797285 0.17142446 -0.07392225 0.15046224 0.099897444 0.13531052
0.0064712116 0.055254504 0.047337886 -0.04933107 -0.012447508 0.09892178 0.05002724 0.065764144
-0.092434 0.07704378 0.019550627 0.023175988 0.11406422 0.027524153 -0.08353134 0.043192968
0.07903162 0.08656298 0.16989602 0.1255492 0.0011292881 -0.04447218 -0.080956884 0.018213328
0.03487043 -0.012771715 -0.06752235 0.017904863 -0.05542212 0.028332846 -0.04081272 -0.10682635
0.074381165 0.07070626 0.10347599 -0.093078285 0.04607488 -0.006492901 -0.017014677 0.0027804782
0.101841226 0.05116354 0.08499004 0.17451236 -0.055526935 0.15964411 0.014885016 0.08706904
0.03320331 0.053599432 0.023788884 0.0363628 -0.0733918 -0.035100542 0.058810245 -0.08465556
-0.07392131 0.083567604 0.011392878 0.040963378 0.14753787 0.04414735 -0.08778701 0.12881145
0.010018703 -0.021708071 0.06789369 0.08733214 -0.027485128 0.08302646 -0.046381947 -0.006496275
0.065923214 -0.06689067 -0.07651861 0.0027092109 -0.02994728 -0.08863316 -0.038805194 0.022320686
-0.023491668 -0.08900191 -0.112771936 0.0063749976 -0.07917851 -0.14924046 -0.08749982 -0.111799285
-0.09930412 -0.08406489 -0.08611431 -0.04192471 -0.005841224 -0.16955598 -0.019937947 -0.08374982
-0.10344407 -0.1873324 -0.0038605828 0.024815267 0.042212527 -0.12550499 -0.0174626 -0.16986758
-0.0044759773 0.06379518 -0.017142829 0.006051688 0.07924815 -0.093524024 0.12743427 -0.043309115
-0.102282666 -0.089350335 -0.031421106 -0.12812346 -0.01856073 -0.002327822 0.081088856 -0.06962132
0.0044721314 -0.07049347 0.021145504 -0.00046126716 0.059091967 0.06546608 0.0056179455 0.04938666
0.11996474 0.0011171321 -0.19116546 -0.050507907 -0.064380266 -0.1605024 -0.00010715035 -0.06833739
-0.070965424 -0.005204155 -0.14369574 -0.14654742 -0.02536607 -0.11307294 -0.08446636 0.06337318
00000000: 7c81 11bd 4b15 2fbd 1ee2 8d3a 47c6 123d
00000010: 31d2 823c 0393 c4bc eefa c23c 6c1a af3d
00000020: c91b 623d 6ab3 ac3c df1a 1a3d 90ce 433e
00000030: 4320 13bd bdf9 fd3d 52e6 bb3d 3a2c e93d
00000040: b02e 153e a0a3 303e cada b23d 91e0 b8bd
00000050: 0b2d 84bb 71aa 343d 61d4 fb3d 9acd 3a3e
00000060: febe 63bb 9391 bdbd e462 2e3d 56a3 503d
00000070: e0a8 c9bb 0587 54bb 8e5d 80bd 60b1 a8bd
00000080: c603 b9bb dbd7 353d 3b46 b73c b69a b73d
00000090: b138 42bd b586 8a3d 3bb8 813c 825f 373d
000000a0: 2558 47bd 0069 7fbc f300 603d 4f8d 3bbb
000000b0: d9ff 913d c83e 0abd dbc8 c33d 94a3 4bbd
000000c0: f08d 353b 6757 bc3c 0c54 eabc 32e9 15bd
000000d0: 300b 0cbd 165b df3d fd05 5cbc cf66 02bd
000000e0: ea14 d53c 6b71 69bc d798 013e 5618 6f3e
000000f0: cf71 bf3d 6cb3 243d cfb6 3f3e d0d3 483c
00000100: 5d04 9d3d 9790 473e ad8a 203c 6fab b4bd
00000110: db18 a4bd 7baa e63b e8fe c33c c8cc 80bc
00000120: 8b13 ba3b 3a0e f2bc 2e96 283e 72a1 b93d
00000130: df58 0ebd 9524 9c3d a3e0 53bd 6425 283d
00000140: 09a1 ca3d 04b8 26bb d699 10bd 9041 d53d
00000150: 8138 283c c8d1 a1bd 8773 a73d 3c42 773c
00000160: fab6 7b3d ac50 b4bd 1681 a0bc f99d 41bd
00000170: 6081 85bd 3c8c 983d 8791 c43c 3b17 793c
00000180: a619 903d 5669 f5bd 2520 82bd b10d 88bd
00000190: c9a1 1d3d d074 5dbd 0f39 923d 449c 073c
000001a0: cd26 873d 98c9 6f3b 1c2b b43d e589 2f3e
000001b0: 8c64 97bd c612 1a3e 0897 cc3d d78e 0a3e
000001c0: 750c d43b 8c52 623d 5fe5 413d 600f 4abd
000001d0: a2f0 4bbc 8197 ca3d 5de9 4c3d 5aaf 863d
000001e0: 094e bdbd 21c9 9d3d a328 a03c 92db bd3c
000001f0: 809a e93d 557a e13c 7b12 abbd 1ceb 303d
00000200: 54db a13d ef47 b13d 39f9 2d3e f88f 003e
00000210: 9f04 943a 7628 36bd b9cc a5bd 1e34 953c
00000220: 4cd4 0e3d 7540 51bc 2849 8abd 38ad 923c
00000230: 4e02 63bd 491a e83c 3d2b 27bd c6c7 dabd
00000240: 2755 983d 72ce 903d 38eb d33d d49f bebd
00000250: 03b9 3c3d 67c2 d4bb 5d62 8bbc af38 363b
00000260: 2292 d03d dc90 513d 420f ae3d 5eb3 323e
00000270: 3670 63bd bf79 233e 48e0 733c 4151 b23d
00000280: 3200 083d 148b 5b3d e8e0 c23c 29f1 143d
00000290: 714e 96bd 96c5 0fbd 03e3 703d e55f adbd
000002a0: 0e64 97bd 7e25 ab3d 32a9 3a3c 37c9 273d
000002b0: 2b14 173e dad3 343d adc9 b3bd 26e7 033e
000002c0: 7c25 243c 20d5 b1bc d90b 8b3d 31db b23d
000002d0: 7e28 e1bc c709 aa3d fffa 3dbd b4de d4bb
000002e0: c002 873d fafd 88bd cab5 9cbd 048d 313b
000002f0: 0054 f5bc 4d85 b5bd 32f2 1ebd dfd9 b63c
00000300: 9971 c0bc a246 b6bd f9f4 e6bd 5be5 d03b
00000310: 5828 a2bd 7ed2 18be 1b33 b3bd 06f7 e4bd
00000320: f55f cbbd 372a acbd b35c b0bd 3fb9 2bbd
00000330: bd67 bfbb 15a0 2dbe e854 a3bc 0785 abbd
00000340: 7cda d3bd 11d4 3fbe d501 7dbb 6349 cb3c
00000350: 0be7 2c3d 6184 00be ba0d 8fbc c4f1 2dbe
00000360: 38ab 92bb 0ca7 823d 1e6f 8cbc 3d4d c63b
00000370: db4c a23d 8689 bfbd 217e 023e e664 31bd
00000380: 9379 d1bd 4ffd b6bd 6bb3 00bd cc32 03be
00000390: ac0c 98bc 5f8e 18bb ea11 a63d 9f95 8ebd
000003a0: f58a 923b e15e 90bd 5639 ad3c 3bd6 f1b9
000003b0: 6b0a 723d 1513 863d be16 b83b ab49 4a3d
000003c0: 13b0 f53d bc6c 923a e1c0 43be 61e1 4ebd
000003d0: cdd9 83bd be5a 24be e8b5 e0b8 79f4 8bbd
000003e0: 5256 91bd 9e87 aabb fa24 13be 8710 16be
000003f0: 81cc cfbc c992 e7bd b3fc acbd ccc9 813d

encoder.cpu_model.net.network.4.bias f4 [64]
-0.039725717 0.03767879 0.34181583 0.013198771 0.06439389 -0.082007036 -0.037588038 0.013800887
-0.0049763564 0.0045803515 -0.028372435 0.24493366 -0.068237044 0.068614714 -0.025755994 0.02771066
-0.09590528 0.06784889 -0.051914793 0.16638045 0.10202598 0.27935413 0.107971005 -0.03156939
-0.007302006 0.032762215 -0.02826593 0.11755805 0.014888543 0.17186032 -0.02323254 0.12584907
0.18173906 0.25185537 -0.049811814 0.13878363 0.15848193 -0.030669497 0.25771394 0.04972704
0.011083688 0.07660472 0.08553633 0.059809186 0.036692537 0.060525604 -0.027001366 0.024539812
0.063821234 0.13397929 0.0027336637 0.3984817 0.07760544 0.07537374 0.04834109 0.020012934
-0.019839965 -0.08681935 0.03415661 -0.0035829048 0.15884238 0.03851304 0.12813266 0.032505445
00000000: 6fb7 22bd 1355 1a3d 7c02 af3e a83f 583c
00000010: f2e0 833d 4ef3 a7bd eaf5 19bd 1e1d 623c
00000020: b410 a3bb c616 963b 4f6d e8bc e4cf 7a3e
00000030: ddbf 8bbd df85 8c3d 3cfe d2bc 7701 e33c
00000040: fd69 c4bd 5cf4 8a3d 9ba4 54bd a35f 2a3e
00000050: fff2 d03d 8107 8f3e e71f dd3d e84e 01bd
00000060: aa45 efbb ac31 063d f48d e7bc 46c2 f03d
00000070: 13ef 733c 27fc 2f3e 2b52 bebc 94de 003e
00000080: ce19 3a3e 30f3 803e 7907 4cbd 4c1d 0e3e
00000090: 1649 223e 993e fbbc 15f3 833e 95ae 4b3d
000000a0: 5b98 353c efe2 9c3d ac2d af3d 7afa 743d
000000b0: ea4a 163d b2e9 773d f831 ddbc b707 c93c
000000c0: b5b4 823d de31 093e 4427 333b cb05 cc3e
000000d0: 9aef 9e3d 8c5d 9a3d 4f01 463d 2af2 a33c
000000e0: 6c87 a2bc 58ce b1bd cde7 0b3d 2bcf 6abb
000000f0: 94a7 223e d9bf 1d3d 3535 033e 6e24 053d

encoder.cpu_model.net.network.5.weight f4 [64]
1.0166041 0.94173366 1.0772798 0.9040283 0.99649143 0.99407053 1.0494446 0.77871144
0.9619372 1.1437201 0.9523587 1.0716008 0.9712984 0.96140206 0.9606282 0.9261656
1.019978 0.9874004 0.96556336 1.0285524 0.9629686 1.0939047 1.0392503 0.96137506
1.0593288 0.90507555 0.87242955 1.0177032 0.92422366 1.030583 0.92352885 1.0851109
1.0844485 1.0044281 0.936035 0.97330785 1.0004903 1.0213917 0.9026032 0.9274973
0.9309119 0.9435036 1.030421 0.9373071 0.9406366 1.0158801 0.9735939 1.0402529
0.98865885 1.0656441 0.977448 1.0546942 0.98244673 0.9683685 0.99149954 1.0424951
0.943796 0.85813105 0.9343739 0.9090476 1.1042545 0.9909722 0.9731717 0.9246766
00000000: 1520 823f 7515 713f 4ee4 893f 666e 673f
00000010: 101a 7f3f 687b 7e3f 3354 863f a259 473f
00000020: 8441 763f 6c65 923f c8cd 733f 372a 893f
00000030: 03a7 783f 721e 763f bbeb 753f 3019 6d3f
00000040: a48e 823f 46c6 7c3f 292f 773f 9ba7 833f
00000050: 1c85 763f 1205 8c3f 2706 853f ad1c 763f
00000060: 1698 873f 08b3 673f 8b57 5f3f 1944 823f
00000070: ec99 6c3f 25ea 833f 636c 6c3f eae4 8a3f
00000080: 35cf 8a3f 1a91 803f fd9f 6f3f b42a 793f
00000090: 1110 803f f7bc 823f 0111 673f 7770 6d3f
000000a0: 3e50 6e3f 7489 713f d6e4 833f 5cf3 6f3f
000000b0: 8fcd 703f 5c08 823f 733d 793f 0227 853f
000000c0: bf18 7d3f 0767 883f 083a 7a3f 3800 873f
000000d0: a181 7b3f ffe6 773f ead2 7d3f 7b70 853f
000000e0: 9d9c 713f 7aae 5b3f 2133 6f3f 58b7 683f
000000f0: 3658 8d3f 5bb0 7d3f c821 793f 9bb7 6c3f

encoder.cpu_model.net.network.5.bias f4 [64]
-0.034098748 -0.02469902 0.11867078 0.049874887 0.055742815 -0.059332386 0.10978578 -0.032501735
0.017642679 0.087855354 0.06706258 0.09875765 -0.037022036 -0.022828165 -0.08734917 0.04817097
-0.08099077 -0.035461172 -0.008194475 0.092058 0.06114086 0.1168705 0.06448427 -0.19212867
-0.16931145 -0.16475064 -0.09060254 -0.13870525 -0.119874656 0.05308892 -0.008017347 0.086467095
0.0609275 0.06286284 -0.07912614 0.040404577 0.041651633 0.08990121 0.025398972 0.06215961
-0.10340776 0.013094279 -0.08021576 0.1026062 -0.14647909 -0.08072143 -0.050089013 -0.044245068
-0.027902013 0.082443036 -0.017326823 0.10281155 -0.016553104 0.029729852 -0.023609582 0.034508586
0.038941763 -0.1128958 -0.054611463 0.07751409 0.10696478 -0.047134083 0.10575976 -0.074151024
00000000: 21ab 0bbd 9955 cabc aa09 f33d 9c49 4c3d
00000010: 9452 643d 8406 73bd 5ed7 e03d 8a20 05bd
00000020: 6187 903c 82ed b33d 1b58 893d 7341 ca3d
00000030: 6ba4 17bd 2202 bbbc 1fe4 b2bd ec4e 453d
00000040: 7dde a5bd bc3f 11bd 1f42 06bc e888 bc3d
00000050: d76e 7a3d cd59 ef3d 5410 843d 61bd 44be
00000060: fb5f 2dbe 64b4 28be d38d b9bd c008 0ebe
00000070: d880 f5bd c473 593d 315b 03bc a915 b13d
00000080: 1d8f 793d 3cbe 803d e30c a2bd 457f 253d
00000090: e79a 2a3d 201e b83d 8111 d03c 139b 7e3d
000000a0: 73c7 d3bd 6389 563c 2948 a4bd 3323 d23d
000000b0: 9dfe 15be 4751 a5bd 232a 4dbd 513a 35bd
000000c0: c392 e4bc e5d7 a83d fbf0 8dbc dd8e d23d
000000d0: 609a 87bc 058c f33c e268 c1bc e058 0d3d
000000e0: 6681 1f3d ea35 e7bd 45b0 5fbd b5bf 9e3d
000000f0: 5a10 db3d ab0f 41bd 9398 d83d 7edc 97bd

encoder.cpu_model.net.network.5.running_mean f4 [64]
0.54723537 0.51187354 -0.40535286 -0.3686844 0.2432425 0.5196772 -0.7407185 -0.11123323
0.016981348 0.4346919 -0.74661857 -0.4865837 0.44490045 0.051418163 0.57085407 -0.50231534
0.60292125 0.6947873 0.31920397 -0.6027983 -0.5491742 -0.47639778 -0.60072297 0.7493241
0.9980428 0.9732853 0.057457995 0.91266876 0.3570014 -0.5414667 0.5257971 -0.80741096
-0.62042874 -0.44347894 0.44113517 -0.46197584 -0.09621131 -1.0894741 -0.5399226 -1.0499129
-0.02613268 -0.5540895 0.89752555 -0.8735088 0.84558433 0.8630136 0.5640568 -0.40035504
0.7101281 -0.62969315 0.05441005 -0.29152566 0.6401945 0.10189382 0.46993 -0.49597737
0.046449352 -0.24664168 0.020036412 -0.43141118 -0.78293836 0.6079213 -0.5325093 0.004760777
00000000: 9e17 0c3f 250a 033f 698a cfbe 34c4 bcbe
00000010: 9014 793e 9109 053f ba9f 3dbf 3fce e3bd
00000020: 781c 8b3c f08f de3e 6522 3fbf 8021 f9be
00000030: fec9 e33e da9b 523d 7e23 123f bd97 00bf
00000040: 0c59 1a3f 95dd 313f b46e a33e fd50 1abf
00000050: ae96 0cbf 69ea f3be fbc8 19bf b4d3 3f3f
00000060: bc7f 7f3f 3a29 793f 1359 6b3d a9a4 693f
00000070: e3c8 b63e 909d 0abf a49a 063f 7cb2 4ebf
00000080: 6bd4 1ebf ac0f e3be 78dc e13e 1988 ecbe
00000090: 6f0a c5bd e373 8bbf 5e38 0abf 8c63 86bf
000000a0: 3414 d6bc cfd8 0dbf 3cc4 653f 469e 5fbf
000000b0: 3778 583f 76ee 5c3f 0766 103f 56fb ccbe
000000c0: f5ca 353f 9233 21bf 13dd 5e3d da42 95be
000000d0: c9e3 233f b5ad d03d aa9a f03e bff0 fdbe
000000e0: ad41 3e3d a38f 7cbe 6723 a43c ede1 dcbe
000000f0: a66e 48bf bba0 1b3f 8852 08bf 4b00 9c3b

encoder.cpu_model.net.network.5.running_var f4 [64]
4.6728797 4.3793454 4.181031 1.0260266 5.326558 5.843163 2.6683023 0.5426909
1.8922558 0.7534713 5.1393642 6.019773 4.2033854 0.66495 2.4538891 0.7996117
2.1112576 5.8624377 5.2716985 5.5183587 4.183347 3.8779318 7.396128 2.5524771
4.3988523 5.483622 0.31559414 2.8448718 0.4446217 7.098015 4.180007 9.054418
9.215988 5.2658715 2.765113 5.0567536 0.7188134 0.87298805 0.982324 0.7521748
0.6760377 5.0659127 3.8551376 1.1940491 3.0746102 6.385357 4.50643 5.747855
7.401173 3.6003969 1.411957 4.344891 6.4083896 0.36334488 2.064457 3.832591
3.7838686 0.8893962 0.43143457 1.2719102 9.672591 4.7627296 4.5281315 1.8671105
00000000: 3b88 9540 9923 8c40 02cb 8540 d754 833f
00000010: 2a73 aa40 31fb ba40 77c5 2a40 caed 0a3f
00000020: 7035 f23f 7fe3 403f ac75 a440 fba1 c040
00000030: 2282 8640 2a3a 2a3f 850c 1d40 5ab3 4c3f
00000040: d81e 0740 1799 bb40 c1b1 a840 6596 b040
00000050: fbdd 8540 0930 7840 15ad ec40 c95b 2340
00000060: 66c3 8c40 d579 af40 8e95 a13e 6112 3640
00000070: 75a5 e33e f022 e340 9ec2 8540 e5de 1041
00000080: b074 1341 0582 a840 9df7 3040 edd0 a140
00000090: 2804 383f 257c 5f3f 9679 7b3f 878e 403f
000000a0: cf10 2d3f f51b a240 93ba 7640 9ad6 983f
000000b0: 6ac6 4440 d854 cc40 ad34 9040 6eee b740
000000c0: 69d6 ec40 e76c 6640 02bb b43f 5909 8b40
000000d0: 8711 cd40 5708 ba3e 1020 0440 2c49 7540
000000e0: e72a 7240 78af 633f fee4 dc3e f4cd a23f
000000f0: efc2 1a41 4868 9840 74e6 9040 7afd ee3f
