results/c9e90ced/model.ckpt (torch_old, 651959 bytes, 90 tensors)

encoder.latency_model.net.network.0.weight f4 [32, 1, 3]
000000 6c 24 07 3f 89 28 ea 3e 95 9f 93 3e 24 21 d1 bd
       0.5278995 0.4573405 0.2883269 -0.10211399
000010 7e cf e8 be ed c6 a7 be 76 a5 fc bc c7 ae 65 3e
       -0.45470804 -0.32768956 -0.030840617 0.22429954
000020 97 ce ad 3b 04 6e a6 be af b5 62 bd cd 0a d2 3e
       0.0053041684 -0.3250581 -0.05534905 0.41023865
000030 0d 8b d5 3e 83 4b db 3e 89 14 87 be 6b ea ee 3e
       0.4170765 0.42831048 -0.26382855 0.46663222
000040 65 f0 9d be d6 d7 e9 bc 09 cd 43 be 91 09 ff 3e
       -0.3084747 -0.028545301 -0.19121183 0.49811986
000050 2d 5c a2 3e 5e f9 00 3f 20 55 dc 3e c8 d4 d5 be
       0.3171095 0.50380504 0.43033695 -0.41763902
000060 6e 7d 73 3c e0 6c c4 3e f1 3d 36 3d da e2 ca 3e
       0.014861448 0.38364315 0.044492666 0.396262
000070 56 1a 91 3e 07 86 97 bd c8 d9 9f be c0 21 d1 be
       0.28340405 -0.073986106 -0.3122084 -0.40846062
000080 75 02 e3 3d c6 62 67 be bd d4 ce 3d 41 5c 97 be
       0.11084453 -0.22596273 0.1009917 -0.29562572
000090 80 f5 d2 be e4 f3 59 be c5 0d 0d 3f 09 e9 0f be
       -0.41202927 -0.21284443 0.55099136 -0.1405374
0000a0 11 d8 10 bf 92 62 8a bc 09 f9 38 3d 8d de b2 3e
       -0.5657969 -0.016892705 0.045159373 0.34935418
0000b0 1d 99 8d be 57 b8 72 be 3d b5 42 be d7 0b a3 be
       -0.2765588 -0.23703133 -0.1901445 -0.3184497
0000c0 ac 23 cf bd ce 47 3e bd 49 78 36 be b0 5f 69 3e
       -0.10114226 -0.046455197 -0.17819323 0.22790408
0000d0 62 32 fd 3e 14 37 97 3e 20 9a ec 3d c0 d4 35 3e
       0.49452502 0.2953421 0.115528345 0.17756939
0000e0 98 ce 48 3e c6 23 13 bf 1e 6a 04 bf b9 fb 16 3e
       0.1961006 -0.5747646 -0.5172442 0.14744462
0000f0 51 fb ce be a0 54 01 bf 81 3f d2 3e 04 e7 2c 3e
       -0.40426114 -0.5051975 0.41064075 0.16885
000100 72 11 0a 3f cd 10 cf be 49 91 dc be d4 40 19 bf
       0.5393287 -0.40442505 -0.43079594 -0.59864545
000110 d7 2d b7 3e 72 22 ed bd 55 a4 a3 3e 57 19 8b 3c
       0.3577716 -0.115788355 0.31961313 0.016979856
000120 d3 00 5a be 14 9e c1 3e 05 45 2e be c2 d4 a3 be
       -0.21289377 0.37815917 -0.17018516 -0.3199826
000130 5e dd 4e be 84 ad a3 3e c0 ac bf 3e d3 24 d2 be
       -0.20201632 0.3196832 0.37436485 -0.4104372
000140 fe 93 d7 3e 5f 07 cd 3e 50 09 e6 3e 0c 74 3f 3e
       0.42105097 0.40044686 0.4492898 0.18696612
000150 72 7b 41 be b7 cd 90 be 59 71 25 3e 19 62 69 3e
       -0.18894747 -0.28281948 0.1615652 0.22791328
000160 fb c2 15 bf 8c ae 0c bf fa d9 10 bf 52 98 e3 3e
       -0.5850064 -0.5495384 -0.56582606 0.4445215
000170 7c 90 4f be 40 26 a3 3c 47 c3 ae be 52 74 87 be
       -0.2026996 0.0199157 -0.3413336 -0.26455933

encoder.latency_model.net.network.0.bias f4 [32]
000000 e2 52 df bd 1f b8 7c 3e 67 26 11 3f 5b 82 b1 be
       -0.109044805 0.24679612 0.5669922 -0.34669766
000010 3d ad 2b be d0 21 02 3f 84 aa 64 3e ae 64 0f 3f
       -0.16765304 0.50832844 0.22330672 0.56013
000020 61 7a 04 3f cd cb 45 be fa 4d ad bd d4 a5 91 bc
       0.51749235 -0.19316025 -0.084621385 -0.017779268
000030 32 6c 2b 3e 7b af 35 3d 09 c5 13 3e f5 82 d2 3e
       0.16740492 0.044356804 0.14430632 0.41115537
000040 a2 92 1c 3e 13 57 83 be e0 be 6f be 71 75 ec be
       0.15290311 -0.2565237 -0.23412657 -0.4618335
000050 8b ae e6 be 1a c6 7c 3e 59 49 02 3f 47 19 10 bf
       -0.4505504 0.24684945 0.5089317 -0.5628857
000060 80 35 6d 3e a2 38 11 3f 61 28 10 bf 88 93 0d bf
       0.2316494 0.5672704 -0.56311613 -0.5530324
000070 7e 13 ef 3d 05 f3 a7 bd fc 73 a6 3e 4a ac 1c 3e
       0.1167364 -0.08200649 0.32510364 0.15300098

encoder.latency_model.net.network.1.weight f4 [32]
000000 4b 72 7e 3f 53 e7 85 3f b5 97 80 3f a1 ec 7e 3f
       0.9939315 1.046122 1.0046297 0.9957982
000010 16 55 7b 3f 14 15 7d 3f c0 34 81 3f ad 0f 7e 3f
       0.98176706 0.9886029 1.0094223 0.9924267
000020 3d 0f 7f 3f 5a 7b 7e 3f d0 b3 82 3f d2 27 80 3f
       0.99632627 0.9940697 1.0211124 1.0012152
000030 6d bd 80 3f 9f 1e 83 3f b6 1d 7e 3f bf dd 83 3f
       1.0057808 1.024372 0.99264085 1.0302047
000040 d2 bf 81 3f 35 51 7e 3f 21 1d 7d 3f 46 cd 80 3f
       1.0136664 0.9934266 0.9887257 1.0062644
000050 42 b0 7c 3f bf fa 7e 3f 16 10 80 3f 18 d8 7b 3f
       0.9870645 0.9960136 1.0004909 0.9837661
000060 a6 04 82 3f 35 4b 80 3f b9 a5 79 3f a1 cf 7e 3f
       1.0157669 1.0022951 0.975185 0.99535567
000070 e0 d6 7d 3f 86 fc 84 3f 72 5f 80 3f 39 3c 7f 3f
       0.99156 1.0389564 1.0029128 0.9970127

encoder.latency_model.net.network.1.bias f4 [32]
000000 e1 05 3f bc b0 38 47 3d 57 b7 0c bb 9b 10 2d 3c
       -0.0116591165 0.048638046 -0.0021471584 0.010563041
000010 98 e7 16 3c f9 09 91 3c 54 b7 63 bd 81 37 55 3c
       0.00921049 0.01770495 -0.055594757 0.013013721
000020 de bc 4c 3d 2f 59 12 3d 25 b1 21 3d 1a 6b 9a bc
       0.049984805 0.035729583 0.03947558 -0.018849898
000030 d6 23 82 bc 0f 48 34 3d 87 08 30 3d b2 86 36 3d
       -0.015886229 0.044014033 0.042976882 0.04456205
000040 45 ab f7 3a 6b 8a ed 3c ff cc 35 3d 7d cf 7d 3c
       0.0018895647 0.028996667 0.044384953 0.015491364
000050 08 25 1c bd f5 5e 19 bd 48 8c db 3c 7c f7 72 3c
       -0.038121253 -0.037444074 0.02680029 0.014829513
000060 dc 0f bf ba ae 30 20 bd 0a ca ff 3c 8e d4 b7 bc
       -0.001457687 -0.039108925 0.03122427 -0.022440221
000070 5c f9 56 bc cf 7b 5a 3d 55 0f 66 bc 2a 22 14 bd
       -0.013120975 0.05334073 -0.014041741 -0.036165394

encoder.latency_model.net.network.1.running_mean f4 [32]
000000 b5 90 c8 46 1c 4b 8b c6 06 73 7a 45 4f 36 18 44
       25672.354 -17829.555 4007.189 608.8486
000010 a6 1e 37 46 50 3b 24 45 5a c8 44 46 4a da 22 46
       11719.662 2627.707 12594.088 10422.572
000020 d4 87 0b 46 9c be 3e 46 2c 27 40 c6 65 93 04 c6
       8929.957 12207.652 -12297.793 -8484.849
000030 be d4 b8 c4 a6 d3 63 c6 88 26 15 45 9f e1 6a c6
       -1478.6482 -14580.912 2386.4082 -15032.405
000040 a2 57 cd c5 72 4a a0 46 92 18 1a 46 b7 c5 94 c6
       -6570.954 20517.223 9862.143 -19042.857
000050 6d eb 1c c6 11 b2 bf 45 2d 87 53 c6 8f 0d 8b 45
       -10042.856 6134.2583 -13537.794 4449.695
000060 32 8e c3 c2 41 fb 7d c5 c3 57 f2 45 cf 44 a3 46
       -97.777725 -4063.7034 7754.97 20898.404
000070 40 17 c3 c5 a3 c0 8e c6 1f cc cb c5 4a 9d 38 c6
       -6242.9062 -18272.318 -6521.515 -11815.322

encoder.latency_model.net.network.1.running_var f4 [32]
000000 4f bd 04 52 b9 f3 81 51 0c 32 68 4f 41 21 89 4f
       1.4252794e+11 6.976747e+10 3.895594e+09 4.601316e+09
000010 55 14 01 51 85 ac 8d 4f f7 ce 0d 51 cd c1 ec 50
       3.4649494e+10 4.7537874e+09 3.8066418e+10 3.1776991e+10
000020 d5 2a 88 50 76 db fe 50 69 b2 02 51 d6 f3 6a 50
       1.8276067e+10 3.4206364e+10 3.5083686e+10 1.5767394e+10
000030 0e 99 00 50 be 5d 33 51 83 88 48 4f 63 d7 34 51
       8.630057e+09 4.8148242e+10 3.3643896e+09 4.854423e+10
000040 14 94 0a 50 0d ab aa 51 2e a1 9c 50 99 e5 9b 51
       9.299841e+09 9.1626775e+10 2.102247e+10 8.369649e+10
000050 88 2b da 50 21 3e 4b 50 1c 62 30 51 fe 6d 9f 4f
       2.9282288e+10 1.3639386e+10 4.7347515e+10 5.3495716e+09
000060 f2 d1 c8 4e 33 c2 d8 4f cd b3 65 50 cf ed b0 51
       1.6846011e+09 7.2732114e+09 1.5415064e+10 9.4988e+10
000070 50 63 15 50 f8 04 93 51 4d c4 41 50 e6 8c e9 50
       1.0025255e+10 7.8930444e+10 1.300347e+10 3.1346602e+10

encoder.latency_model.net.network.4.weight f4 [64, 32, 3]
000000 69 36 40 bc 81 63 8c bd b9 e4 4f 3d c0 52 b5 3d
       -0.011731722 -0.06854916 0.050755236 0.08853674
000010 a8 00 6c 3c 32 3a cd 3c ad b6 24 3d 74 f3 c6 bd
       0.014404453 0.025052164 0.040213276 -0.09714404
000020 04 8b 79 bd c1 29 e7 3a 1d d6 9a bd 28 06 ca 3d
       -0.06092359 0.0017636345 -0.0756037 0.098644555
000030 bd 79 ee 3a 02 eb 11 3d 79 e1 07 bd 22 1f cb 3d
       0.001819424 0.03562451 -0.03317401 0.099180475
000040 35 6a 5b bd 83 42 7e 3d 9e 79 95 3d 2e 18 e6 3c
       -0.053568084 0.06207515 0.07298587 0.028087702
000050 4d bd f9 3c 96 eb d9 3c ca f7 94 3d 52 18 30 3c
       0.030485773 0.026601594 0.072738245 0.010747986
000060 84 84 99 3d 39 b8 69 bd 6f 6b be 3d 86 ac f4 3c
       0.074959785 -0.057060454 0.09297835 0.029867422
000070 07 bb 1c bd 97 b0 43 bc 2f 68 d0 3c fa 8d 82 bd
       -0.0382643 -0.011943958 0.025440304 -0.06374736
000080 fb 3a 0b bd bf 4e 96 3c 09 96 7d 3d 7c 63 35 3b
       -0.033991795 0.018348096 0.061910663 0.0027677706
000090 d0 aa 32 3c 86 ac 01 3d 56 fd 36 bd 76 b2 c2 bd
       0.010904983 0.03165867 -0.044675194 -0.09506695
0000a0 10 25 73 bd bc 6d 3e bd 61 44 82 bd b4 b6 85 3d
       -0.059361517 -0.04649137 -0.063606985 0.065289885
0000b0 9b 00 59 bd f0 7a e5 bd c1 8d 81 3d e1 5b a3 bc
       -0.052979093 -0.11205089 0.063258655 -0.019941272
0000c0 dc f3 af 3c 1d 39 ae bd a2 1d 63 bd b6 ce 23 bd
       0.021478586 -0.08506987 -0.055448182 -0.039992057
0000d0 f4 3d c5 3c a8 17 32 bd eb 9a c6 3c 78 bf d3 bc
       0.024077393 -0.04347959 0.024243793 -0.025848135
0000e0 0a 32 6b bd 7b 46 a3 bd 18 fc 0b bd ed 05 9c 3d
       -0.057420768 -0.079724275 -0.034175962 0.07618318
0000f0 58 a4 b1 3d b9 75 b6 bd 33 cf 95 3d ef 9c 29 bd
       0.08673924 -0.089091726 0.07314911 -0.04140943
000100 30 92 1a bd 9f 84 bc 3d 0b 2c 69 3d 84 a6 65 bd
       -0.03773707 0.09204983 0.05692677 -0.056067005
000110 14 60 d8 bd 73 84 a3 bd 91 84 75 3d c6 87 c1 3d
       -0.105652004 -0.07984247 0.05994088 0.09449725
000120 65 f1 08 3d 58 a3 45 3c df 33 30 3d cd 55 38 bd
       0.033433337 0.01206287 0.043018218 -0.0450037
000130 e7 26 97 3d c3 26 cd 3d 54 44 86 3d 66 71 e5 bb
       0.07380467 0.10017159 0.06556001 -0.0070020435
000140 39 22 03 3d 3a 04 c3 bc 9f f2 2c bd 8f 12 90 bd
       0.03201506 -0.023805726 -0.04222357 -0.0703479
000150 19 09 0b bd 18 6e 50 bd de f4 a3 bd 9f 60 b9 bb
       -0.033944223 -0.050886244 -0.08005689 -0.00565727
000160 4a dd 31 3d b2 da 8d bd 84 7e 02 3c 4a ec c3 bc
       0.04342393 -0.069264784 0.007964734 -0.023916382
000170 7f d5 91 3d d0 01 c9 3d cc 9c d4 3c 69 04 4f 3c
       0.07120799 0.09814799 0.025953673 0.012635329
000180 35 1c 5d bd 5d dd 56 bd fb 23 85 bd e3 84 81 3d
       -0.05398198 -0.052457202 -0.06501003 0.06324174
000190 8d be 22 3c 44 66 b1 bd d6 3f b7 3c 41 43 4d bd
       0.009933126 -0.08662084 0.022369307 -0.050112966
0001a0 99 04 8a bd 73 5b de bc 32 7a df 3c fa 5f 8a bc
       -0.06739158 -0.027143216 0.027279947 -0.016891468
0001b0 c1 e3 2c 3d 6c 75 a8 bd 89 4a a7 bd 9f 64 6b 3b
       0.04220939 -0.082255214 -0.08168513 0.003591813
0001c0 a1 b4 b6 3d 0c 2e 0a 3b 4c 49 9e 3d f2 1c b7 3c
       0.08921171 0.0021084575 0.07728824 0.02235267
0001d0 8c 17 a1 3d 3f 2c b2 3d fa c7 9d 3d 2d 97 c9 3d
       0.07865819 0.086998455 0.07704158 0.098432876
0001e0 d5 40 51 3c 96 88 8c bc da 6f 68 3c 14 0a b9 bd
       0.012771805 -0.017154973 0.014186824 -0.090351254
0001f0 3c 62 a5 3d 70 5c 9d bd b0 aa 51 bc 51 c2 cf bd
       0.08075377 -0.07683647 -0.012797043 -0.10144485
000200 72 ea 98 3d a3 34 76 3c 2f 2e 56 3d d2 00 6c bd
       0.07466592 0.015027198 0.052290138 -0.05761797
000210 82 8a bf 3d 8c 89 81 3d a4 fd 21 bd 67 2b 9c bc
       0.0935259 0.06325063 -0.03954853 -0.019063665
000220 8f 4b 33 bc 4e e8 83 bd 79 e3 dd 3d 49 a3 39 bc
       -0.010943308 -0.06440793 0.108344026 -0.011330434
000230 88 1e 99 3d 2d 88 72 bc c3 90 49 bd 18 70 42 3d
       0.074765265 -0.014802975 -0.04921032 0.047470182
000240 11 50 df bd f8 e4 cc bd 1f 2e 39 bd a0 6a 8b 3d
       -0.10903943 -0.1000461 -0.04521 0.068074465
000250 19 38 73 bc fa 72 7d 3c 43 a6 9d bd 3b f6 97 3b
       -0.014844918 0.015469307 -0.076977275 0.0046375073
000260 47 75 b1 3d a8 fc 9f 3d 94 13 68 3d c6 6f bb bd
       0.08664947 0.07811862 0.056659296 -0.091521785
000270 b1 b6 8b 3d 0a f3 04 bd 84 26 8c 3c 19 38 98 3c
       0.06821955 -0.032458343 0.01710821 0.018581437
000280 bb 38 01 bd e7 9d bc bd 54 37 7f 3d fb 11 53 bd
       -0.031548243 -0.09209805 0.062308624 -0.05153082
000290 6e 2d 8e 3d 53 0d a4 bd 80 ce 97 3d c4 7c 8c bd
       0.06942259 -0.08010354 0.074124336 -0.06859735
0002a0 b8 72 dc 3d d4 68 d7 3c de 24 55 3d 18 a7 03 3d
       0.10764068 0.026295103 0.052037112 0.032141775
0002b0 27 38 15 3d ca aa 9d 3b b0 60 a8 3d a9 9c e7 bc
       0.036430504 0.0048116194 0.08221567 -0.028272944
0002c0 8b 5e dc 3c e4 75 d4 bc b4 79 f2 3a 4d c0 8d bd
       0.02690055 -0.02593512 0.0018499405 -0.06921444
0002d0 02 83 f5 3b 78 4d a6 3d 41 a8 10 3c 30 e1 36 bc
       0.007492424 0.08120245 0.008829177 -0.011162087
0002e0 d6 56 58 bc 2f 43 50 3d c1 c9 ca bd f2 c8 78 3d
       -0.013204297 0.05084532 -0.09901763 0.06073851
0002f0 e8 8d 3f 3d d7 84 52 bd 9e 80 b6 3d 51 44 e0 bd
       0.04676619 -0.051396217 0.089112505 -0.1095053
000300 dc f8 9f 3d 19 ed 3a bd f3 19 a3 bd be 21 e8 bb
       0.07811138 -0.04563627 -0.07963934 -0.0070841005
000310 aa ef 79 3d 67 82 88 bd 53 02 69 bd c6 51 ab 3d
       0.061019577 -0.06665497 -0.056886982 0.083652064
000320 83 c0 f9 bb 44 18 09 3d 2c 90 15 3d 20 e6 8e bd
       -0.007621826 0.033470407 0.036514446 -0.069774866
000330 6a d2 bf bc 20 ac f2 3c ae 7d 3e bd 82 99 c6 3c
       -0.023415763 0.029623091 -0.046506576 0.02424312
000340 02 ee 57 bd 62 bd e4 3c 20 19 a6 bc 11 c8 7c 3d
       -0.052717216 0.027922336 -0.020275652 0.061714236
000350 b7 f1 ca 3d 53 6a c6 bc ef da a9 3d 67 78 c8 3d
       0.09909385 -0.024220621 0.082937114 0.0978859
000360 a8 8a ac 3d e6 0c 4f bd 4d b3 99 3d 16 84 aa bd
       0.08424884 -0.05054941 0.07504902 -0.08325975
000370 93 17 60 bd 0c 22 c9 bc 3e 6b 83 bd 7c 6f 94 bb
       -0.054709982 -0.024552368 -0.06416939 -0.0045298915
000380 84 3d 96 3d fc 0d 91 3d c9 1c e5 bd e9 1c 65 bc
       0.07335952 0.070827454 -0.11187131 -0.0139839435
000390 44 86 dc bd fd 80 b3 bd d1 4d a9 bd 59 0c da bd
       -0.10767797 -0.08764837 -0.082667954 -0.106468864
0003a0 59 a7 6d bd c1 e6 dc 3c 5e 08 1a 3d 61 b0 b2 bc
       -0.058020923 0.0269655 0.037605636 -0.02181262
0003b0 f6 49 78 bc 48 35 2b bc 03 73 08 bd b4 eb e2 bd
       -0.015154352 -0.010449715 -0.03331281 -0.11080113
0003c0 58 5e a4 bc ca 23 5e 3b ab 80 97 bc 41 32 12 3d
       -0.020064518 0.0033895844 -0.01849397 0.035692457
0003d0 df 83 38 bd 84 a3 ad bd c7 78 a4 bd a2 d1 51 3d
       -0.045047637 -0.08478454 -0.08030849 0.051225312
0003e0 8c e7 aa bc 53 d7 0c 3d b3 7a 8d 3d a8 5d 05 bd
       -0.020862363 0.034385037 0.06908169 -0.03256002
0003f0 80 91 9d 3d 5a b5 1f 3d 40 a9 5a bd b9 f2 5f 3d
       0.076937675 0.03899131 -0.053384066 0.054674838

encoder.latency_model.net.network.4.bias f4 [64]
000000 71 d2 00 3c 18 e1 25 3d bb 39 8e 3d fd d7 5b 3d
       0.007862673 0.04049787 0.06944605 0.05367278
000010 5d 01 91 3d 9c a0 73 3d dd 92 c7 3d dc 94 c3 3c
       0.07080338 0.05947934 0.09744809 0.023874693
000020 e3 1b 43 bd 1f 48 0d bd 7a fb a1 bc 40 4a bc 3d
       -0.047634017 -0.03449261 -0.019773234 0.091938496
000030 8a 9a bb bd 6e 71 f0 bd d6 fe 83 bd f7 1d 2f bc
       -0.09160335 -0.11740385 -0.064450905 -0.0106882965
000040 08 c4 78 bc a6 2c d0 bd 2c 7d 1b bd a0 bd 00 bd
       -0.015183456 -0.10164766 -0.03796117 -0.03143084
000050 0f f2 f8 bc 66 c5 bb 3d 72 7c 00 bd 67 ed 3e bc
       -0.03038886 0.0916851 -0.03136868 -0.011653281
000060 9c c4 9d 3d ed ec cf bd 61 46 02 bd e5 61 d3 bd
       0.07703516 -0.10152612 -0.0318054 -0.10321406
000070 39 f9 0a bd 58 61 b6 3d e1 44 16 bd bd af 68 bd
       -0.033929083 0.089052856 -0.03668678 -0.056808222
000080 a8 e2 c6 bc a5 00 6c 3d ea 27 7c 3d a9 b8 4f bc
       -0.024278 0.057617802 0.061561503 -0.012678304
000090 d0 6a a3 3d f3 37 92 bd 1e d0 94 bd 60 bf 6c 3d
       0.07979357 -0.07139578 -0.07266258 0.057799697
0000a0 1f 2c 11 3c 9f bb 14 bd 12 37 c8 3d aa bf 54 bd
       0.008860617 -0.036311742 0.09776129 -0.051940598
0000b0 bd c3 81 3d 95 7d 0f 3c 7a 31 9b 3d cb 4e da bd
       0.06336162 0.008757968 0.07577796 -0.1065956
0000c0 d6 a3 21 3d 2a 79 43 3c 38 ad 0e bd 82 af ba bd
       0.039462887 0.011930743 -0.034833163 -0.09115507
0000d0 10 e4 c8 bd 4e 1a 5c bd 76 2d 43 bd c6 27 06 3c
       -0.098091245 -0.053736024 -0.047650777 0.008188194
0000e0 df de b0 bc b2 9b 1e bd f2 f1 ba bd 42 b6 a5 bc
       -0.021590648 -0.0387227 -0.09128179 -0.020228509
0000f0 bc ad 77 3d 6c 41 d1 bd 0e 8a d1 3c 33 91 88 3b
       0.06046842 -0.10217556 0.025578525 0.0041676997

encoder.latency_model.net.network.5.weight f4 [64]
000000 ab 5f 80 3f c2 f4 80 3f d8 e4 85 3f 68 17 81 3f
       1.0029196 1.0074694 1.0460463 1.0085268
000010 be b4 81 3f 98 0c 7f 3f 4b 7d 7f 3f 44 d1 81 3f
       1.0133283 0.9962859 0.99800557 1.0141988
000020 51 c1 7d 3f 0f 6b 85 3f d1 1e 80 3f 43 98 81 3f
       0.991231 1.0423297 1.0009404 1.0124592
000030 ed 7c 80 3f 7b 35 84 3f 18 26 81 3f 91 13 84 3f
       1.0038124 1.0328821 1.008975 1.0318471
000040 24 18 83 3f a9 bc 7d 3f fd 59 80 3f 0b ff 83 3f
       1.0241742 0.99116 1.0027462 1.0312208
000050 a1 11 80 3f a0 77 81 3f 6b 66 81 3f ce a3 85 3f
       1.000538 1.0114632 1.010938 1.0440614
000060 02 88 81 3f bd 89 82 3f 3d 11 81 3f 32 e6 80 3f
       1.0119631 1.0198284 1.0083386 1.007025
000070 20 a3 82 3f 48 76 80 3f 78 be 86 3f 19 1e 82 3f
       1.0206032 1.0036097 1.0526876 1.0165435
000080 62 b6 84 3f ad d5 80 3f 4c 38 81 3f f6 b3 81 3f
       1.0368159 1.0065209 1.0095305 1.0133045
000090 74 43 81 3f eb 2c 83 3f 1c f8 82 3f 2b 5b 80 3f
       1.009871 1.0248083 1.0231967 1.0027822
0000a0 94 08 81 3f f5 b9 7e 3f b3 f5 81 3f 7b 8e 7f 3f
       1.0080743 0.995025 1.0153106 0.9982678
0000b0 31 2d 7e 3f c7 22 80 3f c6 27 82 3f 54 25 82 3f
       0.99287707 1.0010613 1.0168388 1.0167642
0000c0 c7 a1 7f 3f 1f 06 82 3f 54 cf 80 3f b3 c7 80 3f
       0.9985623 1.0158118 1.0063272 1.0060943
0000d0 e8 3a 82 3f a1 5c 7e 3f 44 95 80 3f d5 a5 83 3f
       1.0174227 0.9936009 1.0045552 1.0284983
0000e0 76 7d 83 3f 92 01 83 3f 05 53 81 3f 9e 1c 82 3f
       1.0272663 1.0234854 1.010346 1.0164983
0000f0 19 35 83 3f d7 7d 80 3f 45 2b 7c 3f d9 42 7e 3f
       1.0250579 1.0038403 0.98503524 0.9932075

encoder.latency_model.net.network.5.bias f4 [64]
000000 78 bd f9 3c ac 8c 33 3d 0a cb 92 3c 34 dc 11 3d
       0.030485854 0.043835327 0.017919082 0.035610393
000010 1f c0 e0 3c 2f f3 7d bc ad 4d 54 3c d3 b0 e5 3c
       0.02743536 -0.015499874 0.0129579725 0.028038418
000020 13 4e 1f bd 8d 6f ce 3c d6 99 2e 3c a3 2e dd 3c
       -0.038892817 0.025199676 0.0106567945 0.026999777
000030 aa fe 18 bd 06 83 75 3c 6c c4 f4 3c e3 5c 9a 3c
       -0.03735224 0.014984852 0.029878817 0.01884312
000040 8c 22 e8 3c 13 bb ea bb d9 1e ed bc 8a 3b f7 3c
       0.028336786 -0.0071634143 -0.028945373 0.030179758
000050 72 ba b6 3c 59 68 5a 3c 52 ee e8 3c 2f 52 75 3c
       0.0223057 0.0133305425 0.028433952 0.014973207
000060 2c 8e 2b 3d f8 f2 1b 3d 97 e9 15 3d b1 6f 09 3c
       0.041883633 0.03807351 0.03659972 0.008388446
000070 03 a4 49 3d 79 7f 1e 3d f3 06 ce 3c e6 de de 3c
       0.04922868 0.038695786 0.025149798 0.027205896
000080 9c 01 93 3c 77 5e 02 3d 35 ec 00 3d 46 24 d6 bb
       0.017945103 0.03182837 0.031475265 -0.006535086
000090 f6 b7 64 3c 4e cf 27 3d 67 14 2f 3d 2b bf 03 bd
       0.013959875 0.040969186 0.042744067 -0.032164734
0000a0 e2 03 f2 3c 55 d9 09 bd fd db 1f 3d d2 02 ba bb
       0.029542867 -0.03365453 0.039028157 -0.0056766057
0000b0 02 2f dd bc b3 b4 06 3d 30 37 21 3d a9 5f 07 3d
       -0.026999954 0.032887172 0.03935927 0.033050213
0000c0 6f 9d 2e 3c 92 ca 29 3c 54 16 bc 3c 83 ed 29 3d
       0.010657652 0.010363238 0.022959866 0.041486274
0000d0 fc 47 13 3d 9b 85 f7 bb 08 db 4b 3d 01 c1 6e 3d
       0.03595732 -0.007553769 0.04976943 0.05828953
0000e0 5d 11 c2 3c 8a c4 20 3d 22 0d e9 3c 99 f1 f3 3c
       0.02368992 0.039249934 0.028448645 0.029778289
0000f0 c4 9b 63 3c 65 70 e7 3c a4 44 51 bc bc 07 79 3b
       0.013892118 0.028251836 -0.012772713 0.0037998995

encoder.latency_model.net.network.5.running_mean f4 [64]
000000 12 c3 40 bc e4 27 38 3d e8 64 da 3c 33 b3 7b 3d
       -0.011765258 0.044959918 0.026659444 0.061450195
000010 f7 96 6a 3d e3 71 f1 3d 53 7b 14 3e ae f8 c9 bc
       0.057272878 0.117893 0.1450017 -0.024654713
000020 19 a3 75 bb 66 9e e6 bd 0a 5f 63 3d 3f f0 47 3d
       -0.0037481247 -0.11260681 0.05551056 0.0488131
000030 41 2a 6c bd ba f4 40 be 73 52 af bd d9 71 9d bd
       -0.057657484 -0.18843356 -0.08560648 -0.0768773
000040 09 49 b5 bd 65 37 26 bd 4e 59 87 bc 63 58 0c be
       -0.08851821 -0.040580172 -0.016522076 -0.13705592
000050 96 5c c3 bd 34 06 30 3d ea 9f c9 bd 18 78 8e bd
       -0.09539144 0.042974666 -0.09844954 -0.069565
000060 ea 99 4a 3d 35 d5 d1 bd f0 ec d2 bc 5e 49 10 be
       0.04946319 -0.10245744 -0.025747746 -0.14090487
000070 1b 00 1d bd b3 a1 3a 3e d7 71 aa bd db 7d c8 bd
       -0.03833018 0.18225746 -0.083224945 -0.0978963
000080 ca 3a fd bd 32 f0 9e 3d 1c aa dc 3d 66 24 c9 bd
       -0.12364729 0.07760657 0.10774633 -0.098213956
000090 84 58 9c 3c 9d 6b b2 bd 34 2b 51 be 28 c2 7e 3d
       0.019085176 -0.08711932 -0.20426637 0.06219688
0000a0 14 86 0d 3d 42 c1 2a bb d5 16 31 3e 2a a5 33 bd
       0.034551695 -0.0026055132 0.17293866 -0.043858685
0000b0 ad cd 13 3e c6 ac 5d 3d 23 9a 77 3d 74 a6 25 be
       0.14433928 0.054119848 0.06044973 -0.16176778
0000c0 59 30 20 3d 98 9a dd bd f4 1a 8d ba f2 27 8d bd
       0.039108608 -0.10820502 -0.0010765479 -0.068923846
0000d0 88 ef 37 be bc 39 13 bd 4e 0e d5 bd da b8 a8 bd
       -0.17962468 -0.03594373 -0.10403119 -0.08238383
0000e0 8a c9 cd bd c4 e6 af bd 70 d2 ac bd f4 5d e2 bd
       -0.10048206 -0.08588937 -0.08438575 -0.110530764
0000f0 3d 11 c0 ba fc 7a ef bd af 10 bf 3d a3 7d 64 3d
       -0.0014653575 -0.11693379 0.09329354 0.05578388

encoder.latency_model.net.network.5.running_var f4 [64]
000000 47 ea 06 3d 90 e4 08 3d 85 21 e6 3c 75 54 29 3e
       0.032938268 0.0334211 0.028092155 0.16536124
000010 c1 c9 34 3d b8 09 d6 3d c1 ec e3 3c 7b 36 ee 3c
       0.04413772 0.104510725 0.027822854 0.029078713
000020 41 3f 99 3d f4 b0 d5 3c 6d 7b d6 3e d3 45 62 3d
       0.07482768 0.026085354 0.4189104 0.05524237
000030 84 de 9f 3d e9 02 3d 3e 25 6c 9b 3d 75 67 83 3e
       0.07806113 0.18458141 0.07588986 0.2566487
000040 c2 35 90 3e 68 ec 3b 3e 3f cb 16 3d 5e 19 c4 3d
       0.28166014 0.183519 0.036814924 0.09575151
000050 2d 3a 03 3d bb 22 9d 3d ed ba 09 3d b6 b0 72 3d
       0.032037903 0.0767264 0.033625532 0.059250556
000060 37 a6 91 3d 91 46 89 3d 35 f9 99 3d f8 16 82 3e
       0.07111781 0.067029126 0.075182356 0.2540815
000070 7a 26 7c 3d bb 3f af 3e 91 9a 4a 3e c0 f1 29 3c
       0.06156013 0.3422831 0.19785525 0.010372579
000080 bb 85 1d 3e a1 4c 56 3d a3 5d ba 3e da 36 b5 3d
       0.15383045 0.052319173 0.36399564 0.08848353
000090 bd b9 b8 3d 90 b1 d1 3b 6d 91 07 3d b9 6a 1c 3d
       0.09019802 0.006399341 0.033097673 0.038187716
0000a0 25 66 20 3e f4 9f 04 3d df 33 d5 3d a1 41 9e 3d
       0.15663965 0.032379106 0.10410284 0.077273615
0000b0 b1 5c 0f 3d f0 88 d7 3d 6a d8 32 3d 2e 2d 20 3d
       0.035000507 0.10524166 0.04366342 0.039105587
0000c0 6f 92 4d 3e 38 79 21 3e cf c8 95 3e 8e 23 34 3e
       0.20075391 0.15768898 0.29254767 0.17591688
0000d0 60 49 df 3b b4 eb 44 3d 23 61 cd 3d 45 11 96 3c
       0.006814167 0.048076347 0.10028293 0.018318782
0000e0 44 5a c8 3c 6e 1c 84 3c 1f 37 94 3d 65 c4 13 3d
       0.024457105 0.016126838 0.07237076 0.03607597
0000f0 5a b1 49 3d bf 2d 40 3d f0 9b 32 3e 6e af 79 3e
       0.0492414 0.046918627 0.17442298 0.24383327

encoder.latency_model.attn_layer.atten_w f4 [20, 64, 1]
000000 10 a6 35 be 30 35 68 3d 16 ae 86 be d6 a6 48 3e
       -0.17739129 0.05669135 -0.26304692 0.19594893
000010 3e b6 e9 bb 60 97 e3 bd 02 6b e9 3d 26 d2 a2 bd
       -0.0071323207 -0.11112857 0.11397363 -0.07950239
000020 ca d2 60 3e 9b 67 90 3c 90 d0 49 3e cf 25 15 be
       0.2195541 0.017627528 0.19708467 -0.14565204
000030 cb 5b 79 be 8a 70 00 3e db 2e a9 3c cf 81 30 3e
       -0.24351422 0.1254293 0.020652225 0.17237018
000040 9f ce 87 3e 33 d6 0c 3c aa d5 1d 3e fc f0 34 3e
       0.26524827 0.008595991 0.15413538 0.17670053
000050 d8 4d 75 be a7 c4 88 3e 56 05 45 3d 0a a0 7d be
       -0.23955476 0.26712534 0.048100792 -0.24768081
000060 68 5a 87 bd 20 bb 7b be 83 41 3d 3d d1 1d 8f be
       -0.066090405 -0.24583101 0.046205055 -0.27952436
000070 f6 86 95 3e a5 b5 b5 3d 12 8c 4e 3e 56 44 60 bc
       0.2920453 0.088725366 0.2017062 -0.013688168
000080 95 7d 85 be b9 ab 06 3e 51 11 7d 3c 45 d0 23 3e
       -0.26072374 0.13151444 0.015446023 0.15997417
000090 57 d0 57 be 1a 8a 7e be 7c b0 6f 3d 0c 59 85 be
       -0.21075569 -0.24857369 0.058517918 -0.260445
0000a0 0b 97 8a 3c 40 47 62 3c a7 82 88 3e 94 2e e7 3d
       0.016917726 0.013810933 0.2666218 0.11288181
0000b0 73 61 10 be 9b f9 68 be 77 59 0f 3e 20 7f 97 3b
       -0.14099674 -0.22751467 0.13998972 0.004623309
0000c0 17 f5 66 3e ce 22 44 3e 28 21 87 3e 20 78 78 3d
       0.22554432 0.19153902 0.26392484 0.060661435
0000d0 10 58 1b bd e7 f8 97 be f2 fd 6f be b2 39 45 3e
       -0.03792578 -0.29682085 -0.23436716 0.1926029
0000e0 39 cc 9b 3e 6c f0 9b 3e d0 64 0b 3d f4 0f 8b 3e
       0.30429247 0.30456865 0.03403169 0.2716061
0000f0 66 20 78 3e 7b 27 01 3d 7b 03 39 be 77 b8 98 be
       0.24231109 0.031531792 -0.18067734 -0.29828236
000100 ee f0 9f 3d b1 fb a4 3e 01 94 7a be 77 da fa 3d
       0.078096256 0.32223275 -0.24470522 0.122487
000110 a9 aa d9 bd a9 dd 1e be 2c 45 6f 3e 15 ff 89 bd
       -0.10628254 -0.15514244 0.2336623 -0.06738106
000120 d6 a4 4c 3e 38 db ae 3c 3d 4d 03 3d 4a 45 c2 bc
       0.19984755 0.021344766 0.032056082 -0.02371468
000130 b5 40 97 3e d3 e6 88 be b5 39 55 be ae a0 39 be
       0.29541555 -0.26738605 -0.20822795 -0.181277
000140 65 88 84 be 16 9c 15 bd f3 c7 10 3e 4a 2d 0c be
       -0.2588531 -0.03652581 0.14138775 -0.13689151
000150 17 05 98 3e 14 a4 e0 bd 0f ee 84 3d 0b 40 76 bd
       0.29691383 -0.109687954 0.064907186 -0.06011967
000160 74 50 40 3d c0 95 bc 3d 82 93 4f 3e 85 f2 a3 3d
       0.046951726 0.0920825 0.20271114 0.08005241
000170 15 2b a4 bd fd f8 9e 3d 03 e0 2a 3e 4b e6 89 be
       -0.0801603 0.077623345 0.16687016 -0.26933512
000180 59 01 57 3e 2c 7e ce bd 24 85 66 be b5 f6 30 be
       0.20996608 -0.10082659 -0.22511727 -0.17281611
000190 41 d2 08 be 48 a9 8c be 2b d2 4c be bc 74 56 be
       -0.13361456 -0.274729 -0.20002048 -0.20942968
0001a0 5b 0d f8 bd 29 2c 8b bd 3b 79 82 be 9e 7e 57 bd
       -0.12111922 -0.06795532 -0.25483117 -0.052610986
0001b0 fe c9 93 be 38 a5 25 3e 79 b1 50 bd c3 f8 1b bd
       -0.28865045 0.16176307 -0.0509505 -0.038079035
0001c0 42 96 ae bd a8 00 44 3e 22 cf 27 be 76 13 1d 3e
       -0.08524753 0.19140875 -0.16387609 0.15339455
0001d0 7e ca 3f 3e 53 d5 33 3e cf 19 76 3e e3 83 04 be
       0.18729588 0.17561845 0.24033283 -0.12940936
0001e0 6e 64 6f be 8e 55 a7 bd 00 a4 92 3e f3 c6 6f 3c
       -0.23378155 -0.08170615 0.28640747 0.0146348355
0001f0 87 db 52 3e df e2 80 3e 0a be cf bd 5d 1c 14 be
       0.20591556 0.2517309 -0.10143669 -0.14463945
000200 9e e7 95 bd d7 49 6c be a3 f5 a3 bd 4c 5d bc 3d
       -0.07319568 -0.23075043 -0.08005836 0.091974825
000210 69 0b 76 3e 85 0b 47 be 61 1a f5 bc aa e1 49 bb
       0.2402779 -0.19437988 -0.029919805 -0.0030804672
000220 9b ef 94 3e 4a e6 ab 3e b2 bd 6f be 93 a2 e9 3d
       0.29089054 0.33574134 -0.23412207 0.11407962
000230 5c 3a 42 3e 6d 75 96 bc 00 1d 9b bd 1e 2a 2d 3d
       0.18967575 -0.01836654 -0.07573891 0.042276494
000240 e9 5a 0a be 0c ec 81 be c3 40 82 bd 74 f1 7b 3d
       -0.13511242 -0.25375402 -0.063600086 0.061509565
000250 6e 48 96 3e 3c 45 91 3e a1 67 4c 3e e8 5a 42 be
       0.29352134 0.28373134 0.19961406 -0.1897999
000260 7c 80 40 3e e8 92 86 3e 65 99 2c 3e 63 85 35 be
       0.18799013 0.26283956 0.1685539 -0.17726664
000270 07 e4 51 3e ea 10 72 be bf 91 2a be 34 7f a1 bd
       0.20497142 -0.23639265 -0.1665716 -0.0788559
000280 5b 39 52 3d ec a1 05 3e fd 09 9c bc c8 46 a4 bd
       0.05132423 0.1305005 -0.019047732 -0.08021313
000290 40 ab 0f 3e 47 37 a7 bb c0 53 06 3e ba 8b 31 3e
       0.1403017 -0.005103025 0.13117886 0.17338458
0002a0 a5 ad 85 3e 93 a6 37 be 62 1b 78 be a2 b5 d5 bd
       0.26109043 -0.17934637 -0.24229196 -0.10435034
0002b0 0e 2b 88 be 0a 52 65 3e 34 58 15 3e df 0f 01 be
       -0.26595348 0.22394577 0.14584428 -0.1260371
0002c0 1f 8f 08 be bf a0 3f bd 50 84 14 be c8 56 84 bd
       -0.13335846 -0.04678416 -0.14503598 -0.06461865
0002d0 eb dd 86 3d 0b 72 f9 3c ee 04 f2 bd d1 f4 96 3e
       0.06585296 0.030449888 -0.118173465 0.29483655
0002e0 20 72 6f 3e 5e 3a 8e be 97 5b 1d 3c d9 00 1e 3d
       0.23383379 -0.27778906 0.009604356 0.038575027
0002f0 9e 8d ac 3e 87 9a c8 bb 34 22 2c 3e 7e 96 01 be
       0.33701795 -0.0061219367 0.16809922 -0.12655064
000300 80 73 c3 3b 24 14 2e 3d 05 3a 73 bd a5 88 05 3e
       0.0059646964 0.042499676 -0.059381504 0.13040407
000310 eb 16 4d be 55 c4 81 3e 76 af 85 be a1 4f 45 3e
       -0.20028274 0.25345102 -0.2611043 0.19268657
000320 ea c8 0d 3e db 14 99 3e d8 ec 81 be d1 84 98 3e
       0.13846174 0.29898724 -0.2537601 0.2978883
000330 62 db c2 3d 77 e2 0c be 77 38 e7 3d e5 53 89 be
       0.095145 -0.13758264 0.11290067 -0.2682182
000340 61 dd 9b bd 98 66 62 3e 6b d8 e8 3d 53 b2 ca bc
       -0.07610584 0.22109449 0.113694035 -0.024743235
000350 e5 96 b1 bc 43 9b 83 3e a6 5a 5d be 6a 7b 34 3b
       -0.021678397 0.25704393 -0.21616611 0.002753938
000360 df 10 f5 3d 11 a8 a2 3e 8a 10 8f be c3 a0 8c 3e
       0.119661085 0.3176885 -0.27942306 0.274664
000370 3a 1f e9 3d be 6d f1 3b f4 c1 35 3e 2a 80 a2 3d
       0.11382909 0.0073678186 0.17749768 0.079346016
000380 75 e8 3b 3e a0 75 88 3e e7 29 30 3e 91 88 de 3c
       0.18350394 0.2665224 0.17203484 0.02716473
000390 36 17 7d 3d 83 6b 23 3e 49 c2 39 3e bc be 84 bd
       0.061789714 0.15958981 0.1814052 -0.06481692
0003a0 66 25 0b 3e c4 be 67 3e 89 c9 76 3e 69 6d 68 3d
       0.13588485 0.22631365 0.24100317 0.056744967
0003b0 b8 35 3d 3c 98 c9 74 3d 7b db 04 3e 19 72 33 bd
       0.011548452 0.059762567 0.1297435 -0.043809984
0003c0 2c 2c 4b 3e c7 83 70 3e 77 f4 c9 bd 29 ae 17 bd
       0.19841069 0.23487769 -0.09861081 -0.037031326
0003d0 ea 88 3c 3e 5a 0d 51 be 68 1d 57 be c5 0e 1f 3d
       0.18411604 -0.2041525 -0.21007311 0.038832445
0003e0 a8 83 70 3c 2d 97 24 3e 3e c3 68 3e 01 7a bf bd
       0.014679827 0.16073294 0.22730729 -0.09349442
0003f0 21 0a 8c bd 14 78 f3 3d 2e 33 78 be fc d8 8c bc
       -0.068378694 0.118881375 -0.24238274 -0.01719331

encoder.latency_model.attn_layer.atten_bias f4 [20, 1, 1]
000000 a1 3e f7 3c f6 b1 0c 3d 45 05 2e 3d 8f 83 dc 3c
       0.030181231 0.034349404 0.042485494 0.0269182
000010 2a a9 2c 3d 32 58 5e 3d a9 ec 12 3d f9 f6 2b 3d
       0.042153515 0.05428333 0.035870228 0.04198358
000020 64 7e 72 3d 5f a5 66 3d 29 95 5b 3d 10 e6 47 3d
       0.059202567 0.056310054 0.053609047 0.04880339
000030 cf f0 57 3d 5c 64 49 3d cf 77 41 3d 85 04 77 3d
       0.052719887 0.049167976 0.0472334 0.060307045
000040 db 5e 80 3d 76 e2 66 3d 6b e5 7d 3d 76 ab 7f 3d
       0.06268092 0.056368314 0.06198637 0.062419377

encoder.cpu_model.net.network.0.weight f4 [32, 1, 3]
000000 c0 a3 06 bf 36 b5 92 3e 83 74 be be fb 2e f9 be
       -0.5259361 0.28653878 -0.37198266 -0.48668656
000010 76 cb 40 3e dd 3b 9b be a0 80 8a be 72 4b f6 3d
       0.18827614 -0.3031911 -0.27051258 0.12026109
000020 41 b9 81 be 1b a2 5f bb 85 c0 ce be 3f 01 8d 3e
       -0.2533665 -0.0034123722 -0.40381256 0.27540013
000030 96 77 e9 bd 0f a1 23 3e 7f 17 b1 3d cf dd a9 3d
       -0.11399762 0.15979408 0.0864706 0.0829426
000040 2d e3 db 3e 24 df 12 bf db 36 92 3e a3 51 b9 3e
       0.4294676 -0.57371736 0.28557476 0.36195096
000050 60 4e 94 bc 8f 75 13 3f 52 83 0c 3e d8 40 f5 bc
       -0.018103778 0.57601255 0.1372197 -0.029938146
000060 fb 6f 24 be e4 f9 8e be 67 c9 17 bf 84 8f a6 be
       -0.16058342 -0.27925026 -0.5929169 -0.3253137
000070 b9 38 05 3c a2 7f 00 bf 03 17 85 3e a0 c0 e0 be
       0.0081311995 -0.5019475 0.2599412 -0.4389696
000080 51 a9 c1 3e bd 5c f6 3e 09 b4 ce 3b a1 b2 fe 3e
       0.3782449 0.4811763 0.006308083 0.49745658
000090 9f b7 2d 3e 93 59 a3 3e 94 67 1d 3d d5 6c 00 bf
       0.16964577 0.31904277 0.038428858 -0.50166065
0000a0 96 b0 85 be 44 a6 79 3e cf f7 b7 be b6 d0 0e 3f
       -0.26111287 0.24379832 -0.3593125 0.5578722
0000b0 79 c7 b8 be ed af 12 3e 4f 19 e6 3e 18 61 f5 3e
       -0.36089686 0.14324923 0.44941184 0.4792564
0000c0 67 bc d4 3e 04 2d 1c bd 06 06 ae 3e 5c 14 df bd
       0.4154999 -0.038128868 0.3398897 -0.10892555
0000d0 55 90 d5 3e 0a dc 74 be 8a a4 d1 be 26 1c a1 3d
       0.4171168 -0.23912063 -0.40945846 0.07866697
0000e0 d4 e1 81 3e 6c 27 12 3f 50 63 0b be 14 51 99 bd
       0.25367606 0.57091403 -0.13612103 -0.074861676
0000f0 32 c3 0e bf 25 f3 10 bf 9c 92 85 3d 0f 3e 37 be
       -0.55766594 -0.5662101 0.06522104 -0.17894767
000100 85 f3 5f bd b6 10 cb be d3 19 fc 3d 3e 21 22 bc
       -0.054675598 -0.39661187 0.12309613 -0.009895621
000110 ce 02 eb be 27 91 20 3e 07 06 e3 bd 57 5d 0d 3f
       -0.45900577 0.15680371 -0.11085134 0.5522055
000120 f7 a8 d3 3d 74 e2 ec be 5d 45 11 bf bf c6 8c be
       0.10334962 -0.4626652 -0.56746465 -0.2749538
000130 8f e8 00 bf 6c f7 f3 3e f8 97 90 3e 05 5f 0f 3f
       -0.50354856 0.47649705 0.28240943 0.56004363
000140 e7 2e 0b bf 8c 82 5e bd c9 d3 ec 3d 6b c4 c6 3e
       -0.5436844 -0.054323718 0.11563832 0.3882173
000150 e8 32 d5 3e cd 7d 3d bd 21 4f d9 be 43 70 42 3e
       0.416404 -0.04626255 -0.42443183 0.18988137
000160 65 6a 7f 3e b5 8a 46 be cb ab 48 3e 6f 4a 5a 3e
       0.2494293 -0.1938885 0.19596784 0.21317457
000170 a9 f5 f7 3e 66 8f 5d be 4b 8f 59 3d 41 3c 88 3e
       0.4842961 -0.21636733 0.05311517 0.2660847

encoder.cpu_model.net.network.0.bias f4 [32]
000000 b1 8f 55 be 5b 78 a5 3c 4c b0 50 bc 3f b4 30 be
       -0.20855595 0.020198992 -0.012737345 -0.17256258
000010 ab dd 61 3d 20 39 d6 be f3 3b 70 3d c6 cc b2 bd
       0.05514304 -0.41840458 0.058650922 -0.08730464
000020 4b 80 a0 be 70 25 36 be 4a ec 42 3e 94 30 0d bf
       -0.3134788 -0.17787719 0.1903545 -0.5515225
000030 d9 fa d2 3e 79 f4 36 be 9d af 0c bf 3d ac d1 3e
       0.41207007 -0.17866696 -0.54955465 0.4095172
000040 78 de 26 be 5a e9 fb 3e c2 8a cc be 44 c7 29 3d
       -0.16295803 0.4920147 -0.39949614 0.0414498
000050 1d 49 6a bd ea dd 11 3f ae ec db be 2a bd e5 be
       -0.057198633 0.5697924 -0.4295401 -0.44870883
000060 50 3b 1d 3e ad f9 65 bd 89 4f fd 3e 30 62 98 be
       0.15354657 -0.056146313 0.49474743 -0.2976241
000070 ae 7c dd 3e 36 b8 90 3d b6 8f e5 be 8b 3e 67 be
       0.43259186 0.070663854 -0.44836205 -0.22582452

encoder.cpu_model.net.network.1.weight f4 [32]
000000 d6 cb 81 3f 1d 25 81 3f eb 9f 80 3f cc c5 80 3f
       1.0140331 1.0089451 1.0048803 1.0060363
000010 46 0f 80 3f 84 59 7f 3f 3b 8e 7e 3f 50 58 7f 3f
       1.0004661 0.99745965 0.99435776 0.9974413
000020 c3 c8 80 3f ba c3 80 3f c4 8e 7e 3f c2 12 7f 3f
       1.0061268 1.0059731 0.99436593 0.99638
000030 02 44 80 3f 07 10 81 3f 62 27 81 3f a0 b2 80 3f
       1.0020754 1.0083016 1.0090144 1.0054512
000040 18 ff 7f 3f af 39 7f 3f a9 66 7f 3f d9 3b 7f 3f
       0.9999862 0.99697393 0.9976602 0.99700695
000050 95 34 7e 3f fb 60 82 3f db 45 81 3f f5 67 7f 3f
       0.99298984 1.0185846 1.0099443 0.99768
000060 d5 47 82 3f 1c 46 80 3f d1 82 7f 3f e7 62 7e 3f
       1.0178171 1.0021396 0.99808985 0.99369663
000070 2c 87 81 3f 58 fd 7e 3f 64 13 80 3f ef e6 7f 3f
       1.0119376 0.9960532 1.0005918 0.9996175

encoder.cpu_model.net.network.1.bias f4 [32]
000000 4a 99 38 3c 8a b2 e6 3a cc d8 2d bb 1d 98 22 ba
       0.011267016 0.0017600816 -0.0026526926 -0.0006202476
000010 2d 29 74 3c 74 53 17 bb c8 8b e1 bb 5c 28 45 bc
       0.014902395 -0.0023090513 -0.0068831183 -0.012033548
000020 4a b8 96 3b 88 f7 a3 3a 8d b2 9c 3b 46 18 25 3c
       0.0045996057 0.0012509683 0.004782027 0.010076588
000030 09 40 4f bc df 75 58 3c 95 b3 39 3c 1e 5c 63 3b
       -0.0126495445 0.013211696 0.01133432 0.0034692357
000040 3f a3 57 bc c6 58 f4 3b 99 97 25 bc 0d 0b 44 ba
       -0.0131614795 0.0074568717 -0.0101069445 -0.00074784533
000050 c4 24 1b bc da 7e d7 3c f4 34 39 3c 50 d7 95 3c
       -0.009469215 0.026305605 0.011304129 0.018291146
000060 f3 63 88 3c 62 17 72 3c 36 e4 65 ba 99 cb 83 bc
       0.016649222 0.014776083 -0.0008769663 -0.016088294
000070 d8 8b 3c 3c 6e a8 4a bc b1 6e 75 3b dd 35 36 bc
       0.011507951 -0.012369258 0.003745001 -0.01112124

encoder.cpu_model.net.network.1.running_mean f4 [32]
000000 c9 16 2f c3 87 20 2c c3 79 db e6 c2 bf 04 18 c2
       -175.089 -172.12706 -115.42866 -38.004635
000010 82 c2 17 42 06 f6 90 c1 0d 21 34 43 e7 55 43 43
       37.93995 -18.120129 180.1291 195.33556
000020 4d e2 93 c3 8e 88 6a c3 f4 21 65 42 db 96 8c 43
       -295.76797 -234.53342 57.283157 281.17856
000030 2e 2d 17 43 55 96 14 c3 d2 28 3c c2 45 83 99 43
       151.17648 -148.58723 -47.039864 307.02554
000040 9f fb 4c 43 5c ac a2 41 94 71 b3 c1 04 02 ce 42
       204.9829 20.33416 -22.430458 103.00394
000050 27 63 97 c3 e8 ba 33 c3 0d c1 c6 c2 ac 9e 2a 43
       -302.77463 -179.7301 -99.37705 170.61981
000060 7e 7e 84 c3 5f d6 ac c2 6c e4 ab 42 7b 34 00 43
       -264.98822 -86.41869 85.94614 128.205
000070 50 a0 71 c1 af 56 8c 42 56 1f 7f 43 a9 ac e8 41
       -15.101639 70.169304 255.1224 29.084307

encoder.cpu_model.net.network.1.running_var f4 [32]
000000 b3 f2 0f 48 f3 ac 0a 48 ff c4 77 47 25 dd 46 46
       147402.8 142003.8 63428.996 12727.286
000010 8d 89 03 46 61 5d 82 46 24 4b 1b 48 05 e1 39 48
       8418.388 16686.69 159020.56 190340.08
000020 02 fb cc 48 9a ab 7e 48 8c 6c a0 46 52 7b b7 48
       419800.06 260782.4 20534.273 375770.56
000030 f9 e9 d7 47 cf c0 e9 47 fa fb 8b 46 b8 1e dd 48
       110547.945 119681.62 17917.988 452853.75
000040 e6 bd 42 48 3a b6 cd 45 05 05 50 46 75 13 6e 47
       199415.6 6582.7783 13313.255 60947.457
000050 1c 61 dc 48 90 81 17 48 21 c3 55 47 87 5e 0b 48
       451336.88 155142.25 54723.13 142714.11
000060 5e 83 aa 48 43 e2 58 47 35 26 67 47 96 c8 a2 47
       349210.94 55522.26 59174.207 83345.17
000070 ee c6 91 46 80 29 de 46 3f 89 98 48 70 75 1a 46
       18659.465 28436.75 312393.97 9885.359

encoder.cpu_model.net.network.4.weight f4 [64, 32, 3]
000000 94 5d ec bd 36 80 25 3d d0 14 ce 3b db 21 7f bd
       -0.11541286 0.040405475 0.006289102 -0.062288146
000010 9b 33 1f bd be aa b1 3d 15 21 44 3d 61 2a 9d bd
       -0.038867574 0.086751446 0.047883112 -0.07674099
000020 ba 73 ee 3b 25 ff 52 3c 61 cd 8f bd 73 0e c7 bc
       0.0072769793 0.012878214 -0.07021595 -0.024298882
000030 6d 4e 14 bd b2 f9 25 3d 23 28 24 bd 3b fe 6d 3b
       -0.036207605 0.04052133 -0.04007734 0.0036314863
000040 61 2f 55 3d 72 ec 07 bd 0f d4 91 3d 6d a5 cb 3d
       0.052047137 -0.033184476 0.07120525 0.09943662
000050 ad 50 6b bd d4 07 11 bd 5a b9 b2 b9 74 42 07 bd
       -0.057449985 -0.035407856 -0.00034088903 -0.03302236
000060 0e 6b b6 bc aa 17 f4 bc d6 b5 ed bc 7d 5a ad 3d
       -0.022267845 -0.02979644 -0.02901737 0.08464525
000070 c3 cf 1d 3d e8 74 52 bd 36 95 63 3d 9d ea 88 3c
       0.038528215 -0.05138102 0.05556222 0.016713435
000080 98 0a 99 3d 93 70 95 3c 60 47 f0 3c 2f fe 7c b9
       0.07472724 0.018242156 0.02933091 -0.00024127284
000090 81 6c ae bd 05 7b c6 3d bb 85 52 3c ce 11 33 bc
       -0.08516789 0.09691433 0.012849267 -0.010929538
0000a0 ff 4d ae bd 28 13 8e 3c 72 36 5c 3d b7 8c a6 bd
       -0.0851097 0.017343119 0.05376286 -0.08132308
0000b0 5b ae 8f bd fd 11 c9 3d 7d 18 ef bb 30 f7 12 bd
       -0.070156775 0.09817884 -0.0072966204 -0.035880268
0000c0 89 ff 60 bc 7b fe 9d 3d a5 2d 3d 3d 08 eb 08 bd
       -0.013732799 0.07714554 0.04618611 -0.03342727
0000d0 a0 55 3d 3d 19 f1 b7 3d 16 5b 31 bd e8 64 7d bd
       0.046224236 0.089815326 -0.043299757 -0.06186381
0000e0 f2 7b 29 3b 6d e0 3d bd 12 5b 00 3d 7d f7 77 bd
       0.002586123 -0.046356607 0.03133685 -0.060538758
0000f0 52 27 77 3c 31 db d5 3c e6 91 bb bd fb 6f 9d 3d
       0.015085058 0.026105495 -0.09158687 0.07687374
000100 86 bd 68 3d a0 44 da 3c 1c 45 a4 3d e9 04 46 bd
       0.05682137 0.026644051 0.08020994 -0.048344526
000110 95 35 b4 bd e5 8f d5 bd 4a 1f 04 bc 1b 95 b6 bd
       -0.087992825 -0.10427836 -0.0080641005 -0.08915158
000120 cb 6a 48 bb 0d fa 9a bc 3d 78 cd 3c bf 2d bc 3d
       -0.0030581232 -0.018918062 0.025081748 0.09188413
000130 75 3b 13 3c 6d 81 92 bd 6e a1 95 3d b0 d5 7e 3d
       0.008986344 -0.07153592 0.07306181 0.062215507
000140 05 1b 9e 3d 2f d0 9e bd 9a 9d 82 bd 73 39 85 3d
       0.07719997 -0.077545516 -0.06377716 0.06505098
000150 23 63 ab bd 9d 39 f7 3b 71 d8 07 bc a4 b8 a0 3d
       -0.08368518 0.00754471 -0.00829135 0.078477174
000160 14 76 b0 3d c0 f1 08 bd 25 8e a5 bd 34 b4 64 3d
       0.086162716 -0.033433676 -0.080837525 0.055835918
000170 f1 95 99 3d 7d 5f ca 3d fc 92 82 bd 02 2b 0d bd
       0.07499302 0.09881494 -0.06375691 -0.034464844
000180 7c b7 56 3d dc e4 1e bd 56 ff a1 3d 1f 73 ab 3d
       0.052421078 -0.038792476 0.079100296 0.08371567
000190 f0 8a 31 3d 2a 0a 89 bd ac 17 cd bd 4b 67 51 3d
       0.04334539 -0.06691392 -0.10014281 0.0511239
0001a0 e6 75 3c bd 37 8a 17 3d 38 2e a3 bd 07 2a 70 bd
       -0.046010874 0.036997046 -0.079678 -0.05863383
0001b0 a2 78 ba 3c 75 44 d2 bc 96 a4 b6 bc e5 12 d1 3d
       0.0227626 -0.025667408 -0.022295278 0.10208682
0001c0 7a 55 c9 3b 82 61 fa bc 2d 84 f9 3c c0 c7 3b bd
       0.006144223 -0.030564073 0.030458534 -0.045844793
0001d0 2d 1f 51 3d 5c e6 a9 3d 39 1f 0f 3d dd 2d 36 3d
       0.051055122 0.08295891 0.034941886 0.044477332
0001e0 37 25 da 3c eb a1 83 bd 3c f0 c0 3d 7e 10 63 3d
       0.026629074 -0.06427368 0.09420821 0.05543565
0001f0 cd c4 16 3d 21 e6 9d bd e6 51 01 3d 59 0a 1f 3b
       0.036808778 -0.07709909 0.031572245 0.0024267642
000200 d9 02 2a 3d ef 6e 9a bd cd a7 6b 3d 1e 3a 23 bc
       0.041506622 -0.0754069 0.057533074 -0.009962587
000210 1c 4d 4f 3c c0 ec c6 3d 05 3f 81 bd 68 dd 6f bd
       0.012652662 0.09713125 -0.06310848 -0.05856076
000220 85 30 81 3d bb 51 69 bd 3d 54 be 3d 7e ba 5c 3d
       0.063080825 -0.05696271 0.09293411 0.05388879
000230 52 a9 2e bd 17 43 13 3d 71 94 33 bc 87 89 27 bd
       -0.042641945 0.035952654 -0.010960684 -0.04090264
000240 34 4a ae 3d bb a4 c3 bc 41 8e 0e bd 1e e4 a8 bc
       0.08510247 -0.02388226 -0.034803633 -0.020616587
000250 94 96 44 bd be de fc 3c 9a 3c d1 bd 59 39 9f bd
       -0.047995165 0.03086793 -0.10216637 -0.0777461
000260 35 70 66 bb c2 aa 65 bc 20 3a 82 bd 38 82 b6 bd
       -0.0035162095 -0.014017763 -0.06358743 -0.08911556
000270 0a ce a7 3d 3a f3 35 3c 3e 7c d7 3d 0c 41 a5 3d
       0.08193596 0.011105353 0.10521744 0.08069047
000280 45 e6 14 bd ad 71 cd 3d 87 66 86 bd cc 91 32 3c
       -0.036352415 0.100314476 -0.06562524 0.0108990185
000290 dc b2 11 3c 5d 51 c1 bd 9a 65 91 3d 12 9c af 3c
       0.008892741 -0.09439347 0.07099457 0.021436725
0002a0 b1 04 8d bd 9d bb 0a bd 02 6e 5a bc 05 e6 2c 3d
       -0.068856604 -0.03387033 -0.013331892 0.04221155
0002b0 17 fd 33 3d 21 2a 81 3d e8 d5 59 bc c2 84 bd 3c
       0.043942537 0.063068636 -0.013295628 0.023134593
0002c0 53 50 56 3d c5 50 17 3d aa 15 be bd 5b 94 4e 3d
       0.052322697 0.036942262 -0.09281476 0.05043445
0002d0 57 3f 8c 3d ce 65 92 3d 92 cc 86 3c 84 c6 66 bc
       0.068480186 0.07148324 0.016454969 -0.014085416
0002e0 d4 d5 6f bd f4 44 8d 3d 66 ac 08 bd 16 4d 0a 3d
       -0.05855353 0.068979174 -0.033367537 0.03376492
0002f0 ac 4f 0b bd 2d 28 a8 3c dc 5e 2c 3d 0c b7 76 3d
       -0.034011528 0.02052697 0.042082652 0.06023316
000300 c4 fd c3 bd b1 45 08 3d ab 9b a0 bd 55 94 47 3c
       -0.09569886 0.033269588 -0.07842191 0.012181361
000310 74 08 4d 3d 06 b4 84 3d 12 78 2d bd 8d d3 9b bc
       0.05005689 0.06479649 -0.042350836 -0.019021774
000320 98 1d 0c bd da c4 b5 3d 66 90 a3 bc 21 6d 3d 3d
       -0.03420791 0.08875437 -0.019966315 0.04624665
000330 4b 2e 87 3d 08 95 72 bd f0 bc aa 3d f1 66 2e 3d
       0.066006266 -0.05922416 0.08336818 0.04257864
000340 d5 98 3e 3d d2 a1 b1 bd 71 5d 8c bd e2 ae 8f bc
       0.04653247 -0.08673443 -0.0685376 -0.017539445
000350 87 0f 07 3d c2 25 7f bd ef e2 2c bd 46 e4 f4 3c
       0.032973792 -0.062291868 -0.04220861 0.029894006
000360 81 f8 47 b9 f3 60 18 3d 3d ec 0b 3d b2 c9 4c bd
       -0.00019070694 0.037201833 0.03416084 -0.04999704
000370 9b b4 08 3d eb 7d 9f 3d 31 29 5c bd 3a ae d3 37
       0.033375364 0.07787689 -0.05375022 2.523429e-05
000380 b4 ab 6d bd 21 8f a1 bd b5 a1 6a 3c 6e ac 9d 3d
       -0.058025077 -0.07888628 0.0143207805 0.07698904
000390 f5 22 7e bc 1a 14 71 bd ff 16 a9 bd 1b de 12 bb
       -0.015511264 -0.05885706 -0.08256339 -0.0022410217
0003a0 b6 0e 60 3d bd 82 3d 3d 2d 13 d5 3d b3 0f ec bc
       0.05470153 0.04626726 0.10404048 -0.02881608
0003b0 cd 8e 93 bc 33 ce 82 3d bc 9b 72 3d 0d 7b 91 bc
       -0.018012429 0.06386986 0.05923055 -0.01775887
0003c0 ec 43 62 3c c8 aa 20 3d 35 6c a4 3c fe 9f d8 3d
       0.013810139 0.03922537 0.020071128 0.10577391
0003d0 33 9f 09 3d 0c 00 33 3d e8 9c b3 3d 84 b2 8a bd
       0.03359909 0.043701217 0.08770162 -0.067723304
0003e0 1a a0 3f 3d d7 14 b8 bd 61 4e 30 3d 71 7a 39 3d
       0.046783544 -0.0898835 0.043043498 0.045282785
0003f0 c0 d1 98 bc b0 05 65 bc e5 aa 58 bc da 64 fc 3c
       -0.018654704 -0.013978407 -0.013224338 0.030809809

encoder.cpu_model.net.network.4.bias f4 [64]
000000 a3 66 2d bd 8b e5 06 3d 06 77 60 3d a3 45 55 bc
       -0.04233421 0.032933753 0.05480101 -0.013017091
000010 7d 73 9d bb ef bb 23 bc 09 a1 2a bd 66 3e 9a bd
       -0.004805027 -0.009993537 -0.04165748 -0.07531433
000020 6e d1 51 bd da 8a ae bc d6 bc d4 bc 52 50 a7 3d
       -0.05122512 -0.021306444 -0.02596895 0.08169617
000030 d6 c3 7e bb 7d 71 72 3d 83 f1 91 3c e6 27 2c 3d
       -0.0038874052 0.059190262 0.017815357 0.042030238
000040 52 5f c2 3b 71 55 42 bd 5a 32 a3 bd 88 57 89 3d
       0.005931773 -0.047444765 -0.07968588 0.067061484
000050 ed 9b 96 3d 6e 44 d3 bd da 80 3d bc 15 2b ce 3d
       0.07353959 -0.10315786 -0.011566365 0.10066811
000060 8f b4 2e bb d0 30 14 3d 6e c0 bc 3b 23 7e 65 bc
       -0.0026657914 0.036179364 0.005760244 -0.014007124
000070 58 fd 9b 3d b8 58 82 3c 73 b2 10 bd e0 49 c0 bc
       0.07616681 0.015911445 -0.035326432 -0.023472726
000080 1a 41 81 3d 14 79 ac 3d 0d 19 8c 3d ce c2 80 3c
       0.06311245 0.08421531 0.068407156 0.01571789
000090 fb 1c 9f 3d 26 d3 85 bd a3 a0 7a bd 57 8f 58 3d
       0.077691995 -0.06534414 -0.06118835 0.052871075
0000a0 b2 ff 45 bd 1e 0e a0 bd 51 19 7a bc 56 f5 b4 39
       -0.048339553 -0.07815193 -0.015264825 0.00034515065
0000b0 6d a6 93 3d ac a7 5c bd af 64 1e bd 05 02 b8 3d
       0.072094776 -0.05387084 -0.038670238 0.0898476
0000c0 e8 0b 45 bc f3 8c 8c 3d 8d b6 c2 3c f2 78 4f 3d
       -0.012026764 0.068628214 0.023768688 0.05065245
0000d0 46 d6 f2 3c be 14 6b bd e9 9e 6f bd 23 6c b9 3b
       0.02964319 -0.05739283 -0.058501158 0.005658643
0000e0 46 b7 ab bd cc c0 92 bb f3 dd c2 3c f7 41 a7 3b
       -0.08384566 -0.0044785496 0.023787474 0.005104299
0000f0 2e 49 8b 3d 8f 74 df bd b5 97 25 3d 52 7b 8c 3d
       0.06801067 -0.10910904 0.040427882 0.06859459

encoder.cpu_model.net.network.5.weight f4 [64]
000000 77 e1 80 3f 78 12 80 3f 03 73 81 3f ca ce 80 3f
       1.0068806 1.0005636 1.0113224 1.0063107
000010 2f 7e 80 3f 74 14 80 3f 29 3c 81 3f 5c 09 81 3f
       1.0038508 1.0006242 1.0096484 1.0080981
000020 de 8b 80 3f 04 35 80 3f 56 c9 7f 3f 17 4b 80 3f
       1.0042684 1.0016179 0.9991659 1.0022916
000030 df 79 80 3f 14 30 80 3f 2d 2d 82 3f 6b 59 80 3f
       1.0037192 1.0014672 1.0170037 1.0027288
000040 e6 c1 7f 3f 89 85 7f 3f 30 96 80 3f 74 46 80 3f
       0.9990524 0.99813133 1.0045834 1.00215
000050 55 58 85 3f a5 d6 80 3f 2f 21 80 3f 30 56 7f 3f
       1.0417582 1.0065504 1.0010127 0.99740887
000060 c8 ac 81 3f 42 30 81 3f f8 a7 80 3f 3d 0b 80 3f
       1.0130854 1.0092852 1.005126 1.000343
000070 20 c6 80 3f 6b 5a 80 3f 72 37 80 3f d8 d3 80 3f
       1.0060463 1.0027593 1.001692 1.006465
000080 f2 d3 7f 3f fd 9c 7f 3f 2a 50 80 3f ea e2 80 3f
       0.9993278 0.9984892 1.0024464 1.0069249
000090 86 3b 81 3f bd 11 80 3f c2 98 80 3f 19 63 83 3f
       1.009629 1.0005413 1.0046618 1.0264617
0000a0 15 f5 7f 3f b4 7d 82 3f 2f 57 80 3f f0 c9 80 3f
       0.9998334 1.0194612 1.0026606 1.0061626
0000b0 69 02 80 3f b9 1d 88 3f 54 8f 7f 3f bb 91 80 3f
       1.0000736 1.0634071 0.99828076 1.0044473
0000c0 be 46 81 3f e1 0b 80 3f ab a6 7f 3f a4 a9 80 3f
       1.0099714 1.0003625 0.9986369 1.005177
0000d0 06 84 80 3f 7d 63 7f 3f ce 92 80 3f 4e 65 80 3f
       1.004029 0.9976118 1.0044801 1.0030916
0000e0 96 67 81 3f b7 5d 81 3f b2 11 80 3f 55 12 81 3f
       1.0109737 1.0106725 1.00054 1.008372
0000f0 76 9c 83 3f bf 4b 80 3f 22 0a 81 3f 9f 78 83 3f
       1.0282123 1.0023116 1.0081217 1.0271186

encoder.cpu_model.net.network.5.bias f4 [64]
000000 a1 78 59 3c 71 c7 09 39 a2 c4 a6 3c 48 02 38 3c
       0.013273389 0.00013139636 0.020357434 0.011231013
000010 98 e9 7e bc 50 a3 0d bc 27 a7 b8 3b bd f6 85 3c
       -0.015558623 -0.008644894 0.0056351605 0.016353006
000020 7d 4f 0f 3c 41 3a e6 3b e9 b0 52 3c 33 d9 98 39
       0.008746979 0.0070259874 0.0128595615 0.00029153525
000030 0b 03 86 3b ce 26 f8 bb 98 8e 0c 3b 9f 98 a2 39
       0.004089718 -0.0075729853 0.0021447297 0.0003101276
000040 60 7e 09 3b 08 1e e9 b9 19 5e 55 3c fe 81 92 3b
       0.0020979866 -0.00044463598 0.013022923 0.0044710627
000050 01 36 0f bc db d1 41 3c ca 80 ea 3b fb 49 af bb
       -0.008740903 0.011829819 0.007156466 -0.0053493953
000060 24 bf 14 3c a6 1c 62 ba 3f 1a b8 bb 7c e4 13 3a
       0.009078775 -0.0008625485 -0.005618363 0.0005641652
000070 4b f0 ed 3a 5d bc e6 bb 1e db dc 39 40 0f 96 3a
       0.0018153278 -0.0070414976 0.00042124925 0.0011448637
000080 c7 79 c9 3b 38 03 bb 3b 10 be 80 bc d5 2c 50 3c
       0.00614855 0.005707171 -0.015715629 0.012706001
000090 8b 55 e7 ba 0a 1a 92 3b cb 25 37 3c e7 90 80 3b
       -0.0017649395 0.0044586705 0.011178444 0.0039235237
0000a0 0a f5 d2 bb de 10 24 bc 88 a9 b6 3c dd ef 44 3c
       -0.0064379023 -0.010013787 0.022297636 0.0120200785
0000b0 03 54 d5 3b ad 9d fa 3c 2d fb 2d bc d4 30 b9 bb
       0.006510259 0.030592764 -0.010618967 -0.0056515727
0000c0 53 05 56 bb fd cc 37 3c e3 5a fa ba 9b 7a 62 3c
       -0.0032656982 0.011218307 -0.0019100573 0.013823177
0000d0 16 cf 3d 3c 6a 51 87 3b a8 74 4e bc 84 12 45 3c
       0.011585018 0.0041295784 -0.012601055 0.01202834
0000e0 2a b6 2e 3a 8b 02 6d 3c 50 e4 60 bc 0d 29 b0 bb
       0.0006664718 0.014465938 -0.013726309 -0.0053759874
0000f0 95 45 a5 3c 36 2f 32 3c 6b 75 8d 3c da 2d 71 3c
       0.02017478 0.010875514 0.017267903 0.0147204045
