results/c6b3818f_2025-01-09 05:17:18/model.ckpt (torch_old, 651797 bytes, 89 tensors)

encoder.latency_model.net.network.0.weight f4 [32, 1, 3]
000000 41 67 04 bf 02 89 fc be 7d 52 92 be cb 30 eb 3e
       -0.5172005 -0.4932328 -0.2857856 0.45935664
000010 06 1a fb be 9a 33 89 bb 06 bd 9b be 8c df a9 be
       -0.49043292 -0.0041870596 -0.3041765 -0.33178365
000020 bf 03 81 bd 0e 00 ab 3e 7e 0b dc be d8 b7 ce 3e
       -0.06299543 0.3339848 -0.42977518 0.40374637
000030 ee 41 11 3f 63 8f 1d bf 7b 11 35 3e b1 c5 19 bd
       0.56741226 -0.61546916 0.1768245 -0.03754205
000040 c4 76 a9 bd da 47 3d 3e e5 8d ec b9 9e 78 fb 3e
       -0.08274606 0.1848444 -0.00045119147 0.4911546
000050 2f 48 09 bf 36 83 d6 bd 1e 36 4e be 5c bc 08 3f
       -0.5362577 -0.10474245 -0.20137832 0.53412414
000060 33 0d f5 be b2 c5 c9 be 90 cd 89 bc 8a 76 91 be
       -0.47861633 -0.39408642 -0.016821653 -0.2841075
000070 f2 bc 8b 3e d5 e1 c4 3e 85 f6 65 3e 51 66 7d 3e
       0.2729259 0.38453546 0.22457321 0.24746062
000080 a6 1c 32 bf 1e 75 ae 3c bf c0 5e bd a7 92 3b 3f
       -0.69574964 0.02129608 -0.054383036 0.7327065
000090 db 9d 14 3f 8e e7 82 3e 78 5f d6 bd 31 49 c9 bd
       0.5805337 0.25567287 -0.10467428 -0.09828413
0000a0 04 50 18 be b7 b3 ed 3e aa 5e 0b bf 8b 49 46 3e
       -0.14874274 0.46426174 -0.5444132 0.19363992
0000b0 59 dd b4 3e 0f 9d 4f 3e 3d 04 04 bf ab 4b 2c 3f
       0.35325125 0.20274757 -0.5156897 0.6730296
0000c0 6e 24 8d be 49 4a 3f 3d dd eb ab 3e bf d7 3f be
       -0.27566856 0.046701703 0.33578387 -0.18734644
0000d0 1f dc cb be 9f 7f 2f 3e 58 b1 b8 3e 5f 4a a2 bd
       -0.39816377 0.17138527 0.36072803 -0.079243414
0000e0 b7 f7 01 3f 98 70 42 3e 21 8e 50 bd 4b ae dc be
       0.5076861 0.18988264 -0.050916795 -0.43101725
0000f0 18 d4 2e 3f a4 d7 e6 3d b1 e7 b2 bd e3 14 b6 be
       0.6829238 0.11271599 -0.08735598 -0.3556281
000100 d5 76 ae 3d 2e f3 1f 3f f1 73 46 be cc 73 4c bf
       0.08518759 0.6248044 -0.19380166 -0.7986419
000110 37 fb 91 3c d1 75 8b 3b dc 00 db 3e 4b ce b7 be
       0.017819984 0.004255988 0.42774093 -0.35899577
000120 f5 74 06 3f 02 53 fc bc ef 8a 06 bf 31 a3 45 3d
       0.5252221 -0.0308013 -0.52555746 0.048251335
000130 f5 89 03 bf f0 40 18 bb 3c f6 8d 3e c3 50 db 3e
       -0.5138238 -0.0023232065 0.27726924 0.42835054
000140 29 7e f2 3e f1 46 ce 3e 23 85 04 bd 42 09 5c 3e
       0.47361878 0.402885 -0.03235353 0.21487907
000150 09 30 b0 bd fb ee f1 3e 69 fe 42 bd 43 60 1b 3d
       -0.08602912 0.4725264 -0.047605906 0.0379336
000160 4c 98 fd be 22 a6 2a 3d 47 cb 86 bd 69 8e e6 3e
       -0.49530256 0.041662343 -0.06581741 0.45030525
000170 42 9d d3 be a9 b3 0e 3e a5 ef 2b be a0 10 de 3e
       -0.41330916 0.13935722 -0.16790636 0.4337206

encoder.latency_model.net.network.0.bias f4 [32]
000000 fe f3 8b be 40 cc 07 bf 23 0a 3e be 6a ae e3 be
       -0.2733459 -0.53046036 -0.18558554 -0.44469005
000010 c7 bd 4d be 8c d5 c6 bc c6 52 7b be 77 f0 0b bd
       -0.20091926 -0.024271749 -0.24543294 -0.034164872
000020 a7 d5 c0 be 83 c4 03 bf 14 f7 da 3e 23 51 0f be
       -0.37663004 -0.5147173 0.4276663 -0.13995795
000030 0e e4 05 bf 32 c9 3b be 83 3d 4d be 22 e7 14 3e
       -0.5230111 -0.18338469 -0.20042996 0.14541295
000040 fc 18 12 3e 16 77 13 3f f9 70 e8 3e a7 90 26 be
       0.14267343 0.57603586 0.4539869 -0.16266118
000050 26 ee bf be 70 71 c8 be 6d 39 bb 3e da 60 99 be
       -0.3748638 -0.39149046 0.3656725 -0.29956704
000060 d0 6b 0f be 3a 5e 9c 3e d5 92 eb be 77 53 8e be
       -0.14005971 0.3054064 -0.4601046 -0.27798054
000070 24 7e 81 3d fd 8d 81 bd c5 f9 f0 be 25 95 87 3d
       0.063228875 -0.0632591 -0.4706556 0.06620244

encoder.latency_model.net.network.1.weight f4 [32]
000000 07 fa 8d 3f 8c 25 9d 3f e3 dd 8e 3f c3 ea 69 3f
       1.1091927 1.2277083 1.1161464 0.9137384
000010 de 5c 73 3f 87 b0 5e 3f 51 81 99 3f 39 e5 65 3f
       0.9506358 0.8698811 1.1992589 0.8980289
000020 f5 b5 8f 3f c1 64 56 3f e8 d8 97 3f d9 58 5e 3f
       1.1227404 0.8374749 1.186307 0.8685432
000030 d2 c6 46 3f ce 25 61 3f 8c 8f 8d 3f 10 0b 71 3f
       0.77647126 0.8794831 1.1059432 0.94157505
000040 69 67 6d 3f de 6a 91 3f c0 a6 48 3f 1f 1c a3 3f
       0.92735916 1.1360738 0.7837944 1.2742957
000050 f5 41 30 3f fd 00 73 3f 9d ed 96 3f 0f 73 79 3f
       0.6885064 0.94923383 1.1791264 0.9744119
000060 a6 92 97 3f 76 1a a0 3f d3 5d 58 3f 61 a8 5f 3f
       1.1841629 1.2508075 0.84518164 0.873663
000070 e5 72 66 3f 2c c4 9b 3f 63 ab 91 3f 3f f8 3e 3f
       0.90019065 1.2169242 1.1380428 0.74597543

encoder.latency_model.net.network.1.bias f4 [32]
000000 43 a1 1d 3d a7 a5 3e bc c3 f7 91 3d c1 87 b7 3d
       0.03848387 -0.011636174 0.07127335 0.0896144
000010 a3 c8 7c bd 1f 97 5a 3d 87 9f 36 bc 1e ef 6d 3d
       -0.06171478 0.053366777 -0.011146433 0.058089368
000020 92 7c b8 bd 88 d4 8f 3d fe 37 8b 3d 74 e2 a2 3d
       -0.09008135 0.07022959 0.06797789 0.07953349
000030 f4 b9 f1 bd 02 89 2d 3d 1b fc ae 3a ec 83 80 be
       -0.11803046 0.04236699 0.001335028 -0.25100648
000040 d9 01 a9 bd 82 06 9b bd 2f 89 ca be 21 d1 0f 3d
       -0.082523055 -0.07569601 -0.39557788 0.03511155
000050 81 e5 71 3d 3c d6 d1 be 5a 9c 68 3c 6b 88 80 bd
       0.059056763 -0.4098376 0.014197433 -0.0627602
000060 ed 4f d0 bb 96 0e 56 3d 1a d5 87 3d 4f f7 ae 3d
       -0.006357184 0.052260004 0.06632443 0.08543264
000070 bb d5 af 3c b0 02 33 3d 77 07 0c bc f7 7d c2 be
       0.02146422 0.043703735 -0.008546702 -0.3798673

encoder.latency_model.net.network.1.running_mean f4 [32]
000000 f4 1b d4 c6 55 ed 2a c4 99 b4 64 c6 44 26 c9 45
       -27149.977 -683.7083 -14637.149 6436.783
000010 f0 3b 2b 45 d6 e4 a5 44 33 8d 64 c4 aa 6e 94 45
       2739.746 1327.1511 -914.20624 4749.833
000020 41 a1 91 c6 80 85 f4 45 90 37 92 c5 1d cd 64 46
       -18640.627 7824.6875 -4678.9453 14643.278
000030 56 71 6f 46 07 29 8d 45 db aa ac 42 8e 5c ec 45
       15324.334 4517.1284 86.3337 7563.5693
000040 8f bf 0e 45 89 df 06 c6 94 d9 80 46 18 3a bd c5
       2283.9724 -8631.884 16492.79 -6055.2617
000050 19 9f 67 46 29 00 e8 45 c9 e6 9f c6 81 7e c5 44
       14823.774 7424.02 -20467.393 1579.9532
000060 a4 09 19 c4 8e 0a 18 c6 23 05 c1 46 75 7b 3f 46
       -612.15063 -9730.639 24706.568 12254.864
000070 0a 0b dd 45 fe b9 07 c6 89 fe 0c c4 63 3c 04 46
       7073.38 -8686.498 -563.9771 8463.097

encoder.latency_model.net.network.1.running_var f4 [32]
000000 3c 6b b9 51 e2 36 a6 4f cb 56 dc 50 12 e3 0e 50
       9.9546006e+10 5.5772293e+09 2.9573405e+10 9.588984e+09
000010 21 f5 04 50 30 db 40 4e ab 56 c3 4f 6f d4 df 4f
       8.922629e+09 8.0889754e+08 6.554474e+09 7.5104824e+09
000020 b3 dd 35 51 b4 cc 3a 50 a6 ed 2b 50 5a 30 fb 50
       4.8819286e+10 1.253591e+10 1.1537914e+10 3.3714e+10
000030 28 4b 04 51 d8 14 b4 4f d6 52 dd 4f b7 1c 63 50
       3.5512287e+10 6.04253e+09 7.426387e+09 1.524124e+10
000040 d8 1f 67 4f a4 00 3a 50 e5 41 0c 51 43 e5 f2 4f
       3.8776238e+09 1.2482417e+10 3.765006e+10 8.1502223e+09
000050 e1 5b 00 51 e9 1f 67 50 96 6f 65 51 ed e9 76 4f
       3.445608e+10 1.5510513e+10 6.1588726e+10 4.1425257e+09
000060 f5 64 0c 50 1a 4d 63 50 73 52 99 51 7d 17 9b 50
       9.421706e+09 1.5253924e+10 8.231416e+10 2.0816062e+10
000070 ea 63 08 50 3a 02 3c 50 1a e2 82 4f 8c eb 29 50
       9.152997e+09 1.261705e+10 4.391712e+09 1.1403145e+10

encoder.latency_model.net.network.4.weight f4 [64, 32, 3]
000000 c2 60 7f bc cc b0 54 3d fe 18 8f 3c 8f 6e ed bd
       -0.015587034 0.05192642 0.017467972 -0.11593353
000010 c9 f5 de 3c ac a3 4c bd 47 62 92 bc 3b 1c 1d be
       0.027216809 -0.049960777 -0.017869128 -0.153428
000020 04 b4 df bc 19 d2 ed bb 38 99 9a 3d d1 7e 39 3c
       -0.027307518 -0.0072577116 0.075487554 0.011321739
000030 00 ee ac bd b1 d6 86 3d c1 a9 0e 3e 29 6c 9d bd
       -0.084438324 0.06583918 0.13931943 -0.076866455
000040 8a 2a 88 3d 4e 00 08 3e e4 11 12 be 96 3f f8 bd
       0.06648739 0.13281366 -0.14264637 -0.12121503
000050 60 03 81 bc ab ff 1a be 48 05 89 3d d0 ae 3b bc
       -0.01574868 -0.15136592 0.066904604 -0.011455253
000060 e6 eb 38 be f5 57 68 be 2a ef 55 3c 55 7e 4f ba
       -0.18058738 -0.22689803 0.013057509 -0.0007915248
000070 d4 fa ea 3b 84 69 a8 3d c8 fd 67 3d da b3 c6 bd
       0.0071710143 0.082232505 0.05663851 -0.09702273
000080 7a c9 88 3d 97 2c ca bc 78 65 2c 3c 72 c1 7a 3d
       0.066790536 -0.024679465 0.010522239 0.06121964
000090 a6 e8 f7 bd 66 b1 ce 3d 21 67 83 bd d7 6b 3c be
       -0.12104921 0.1009243 -0.06416155 -0.18400513
0000a0 96 f5 07 3c b5 6b 62 3d f2 0b 86 be 37 04 09 be
       0.008298298 0.0552785 -0.2618099 -0.13380514
0000b0 4a 12 ab 3d 62 18 43 3c c1 23 92 3d f8 fb 67 3e
       0.08353098 0.011907669 0.07135726 0.22654712
0000c0 87 7b d3 bd f2 08 16 bd a5 fb 1b 3e cd d5 54 be
       -0.10326295 -0.036629625 0.15232714 -0.20784684
0000d0 c7 b2 58 be 6d ab 00 3e e5 a4 e3 3c e1 75 13 bd
       -0.21161948 0.12565394 0.027788589 -0.03600109
0000e0 9c 93 39 3d 11 4a 60 3e d8 54 68 3d e0 80 ff 3c
       0.045306787 0.21903254 0.05672154 0.031189382
0000f0 3c d2 3b bd 4c 9d 9d 3d f5 ba 5c bd 2e 00 52 bc
       -0.045854792 0.076960176 -0.053889234 -0.012817426
000100 9b 1d b2 bd 0d 20 45 3e 85 40 a8 bd 6e 2a be bd
       -0.08697053 0.19250508 -0.08215431 -0.092854366
000110 4c e6 02 3e 52 33 7e 3d f7 45 64 bd 8a 50 e0 3d
       0.12783164 0.06206066 -0.055730786 0.109528616
000120 e6 48 86 be 94 b9 32 bd e6 77 83 3d 7c 4f c1 3d
       -0.26227492 -0.043634012 0.06419353 0.094389886
000130 8d 93 3d bd fc 64 29 3d 45 44 19 3c 30 8c 14 3d
       -0.046283294 0.04135607 0.009354656 0.036266506
000140 13 87 fd 3d 8c 95 85 bd b5 ba c5 3a 63 f5 ed 3d
       0.12379279 -0.065226644 0.001508555 0.116190694
000150 45 b9 2f 3d ab ec b8 3d 00 f7 fc 3d d9 ef 5e 3d
       0.042901296 0.09029516 0.12351799 0.054427955
000160 9d 0b 1a be 27 b1 61 3c 7f 54 39 bc 8b 35 cd bd
       -0.15043493 0.013775147 -0.011311649 -0.10019978
000170 d1 e2 01 bb 69 e5 c1 3d 43 0f cf 3c 48 41 b2 3d
       -0.001981903 0.09467585 0.025275832 0.08703858
000180 0f 90 00 3e 05 e8 2e 3d f8 db 87 bd e5 9f f0 3d
       0.12554954 0.04270174 -0.066337526 0.117492475
000190 ba 23 0b 3c fb 2e b0 3d 2c 1c ab 3d 44 6b e0 3d
       0.008492405 0.08602711 0.08354983 0.10957959
0001a0 25 52 8e bd 0d fd 9a bc e4 53 27 3d 74 3c 8d bd
       -0.069492616 -0.018919492 0.04085149 -0.06896296
0001b0 27 4d 56 be 42 cf fb bd cd ee 19 be a3 78 c8 b9
       -0.20927869 -0.12295391 -0.15032502 -0.00038236854
0001c0 bf 58 6b bd bb 6e 95 3d 0b 73 a3 3d 26 0b 1b 3e
       -0.05745768 0.07296511 0.07980927 0.15140972
0001d0 d4 96 90 3d 15 eb 7f 3d 3f b9 13 3d f1 90 12 bd
       0.07060018 0.06248005 0.036065336 -0.03578276
0001e0 28 5a 9f 3e a6 00 04 3e 20 e6 9d 3d a0 13 83 bd
       0.3112347 0.12890872 0.077099085 -0.064002275
0001f0 05 73 e6 3c cf c0 a4 3d 23 b8 1a be 56 02 21 be
       0.028131017 0.08044588 -0.15109305 -0.15723547
000200 f5 ef 2c bc 0d 0d 0e be c1 2d bb bd f4 6c f7 bd
       -0.010555257 -0.13872166 -0.09139586 -0.12081328
000210 31 15 72 3c d4 52 a4 3b ee 5e 84 bd e7 bf 7e 3d
       0.01477556 0.0050147567 -0.06463419 0.06219473
000220 e1 17 99 3d 5c 0d 07 bd f0 c7 1e 3e e7 2f b3 bc
       0.07475258 -0.032971725 0.15505958 -0.021873428
000230 05 23 ce 3d 37 b4 b2 bd 5f 72 c5 bd cf db c8 bc
       0.10065273 -0.087257795 -0.09640955 -0.024518875
000240 69 e7 da 3c d3 51 95 bd 56 c8 20 be 8e 40 98 3e
       0.026721673 -0.07290997 -0.15701422 0.2973675
000250 28 31 56 3e 21 09 31 3e 5d 40 a5 3c ba a0 19 3d
       0.20917189 0.17288639 0.020172292 0.037506796
000260 d7 bd df bd 60 44 61 3d 05 97 31 bd ca bf 81 bd
       -0.10924881 0.054996848 -0.043356914 -0.06335409
000270 ea cb a7 bd 5e 3f 82 3d 9e c1 36 bc 1d 89 45 bd
       -0.081931904 0.063597426 -0.01115456 -0.048226465
000280 58 c6 07 be 41 eb 6c bd 59 f5 1b 3e c8 30 e6 3c
       -0.13259256 -0.057841543 0.15230311 0.028099433
000290 79 6c 5e 3c 6d ef a8 bd 4b 0e 97 bd 3d 56 16 3d
       0.013575667 -0.08248792 -0.07375773 0.036703337
0002a0 49 7d 31 3e f3 2f d3 3d f4 27 fe 3c f9 66 d3 3c
       0.17332949 0.1031188 0.03102491 0.025805937
0002b0 5e 76 f4 bc 43 9e ae bd 33 d0 28 3d 82 8d b1 3b
       -0.029841598 -0.0852628 0.04121418 0.0054184804
0002c0 89 5e 35 3d ae 7d eb bd 69 5d 51 3c 94 81 2f 3d
       0.04427961 -0.11498581 0.012778618 0.042848185
0002d0 ad 5a b6 3d 13 f7 fa 3c 92 13 b1 bd fd 6e 4b bb
       0.08904014 0.030635392 -0.08646311 -0.0031041496
0002e0 a9 d8 c8 3d 26 8f c8 3d 76 b5 35 3e 58 7f 05 3e
       0.0980695 0.097929284 0.17745003 0.13036859
0002f0 bf 07 8f 3d 47 10 a0 bd 22 3a 9c bc 1e 12 cb bd
       0.06983899 -0.07815605 -0.019070689 -0.09915565
000300 e2 bf b0 3d 4f 0b bd bc 6c 9a 9a bd ec fc 11 bf
       0.08630349 -0.023076681 -0.07548985 -0.57026553
000310 7a 3f b6 3a 01 b4 c3 bd 6a 0b 3d bb c6 f4 83 bd
       0.0013904416 -0.095558174 -0.0028845915 -0.06443171
000320 c1 f6 80 bd 20 38 e4 bd 64 69 7c 3c 19 91 19 ba
       -0.062970646 -0.111435175 0.015405986 -0.0005858108
000330 38 57 52 3d 8e db 11 3d 0d e4 e7 3d 44 8b de 3d
       0.05135271 0.035609774 0.11322794 0.108664066
000340 ed c0 da bc 9b 98 d1 3c b5 07 d3 be 7a 1a fb be
       -0.026703322 0.025585463 -0.41216817 -0.49043638
000350 63 16 ea bc 95 01 3e bc 63 d1 90 bd 11 73 aa bc
       -0.028575128 -0.011597057 -0.07071187 -0.020806821
000360 28 cc 33 be 4b 9a 88 be d8 a0 ef bc 99 b0 a0 bd
       -0.17558348 -0.26680216 -0.029251501 -0.07846183
000370 0c 36 c7 bd d8 ed 0e bd de 29 ac bd 47 d5 62 3e
       -0.097271055 -0.034894794 -0.08406423 0.22151671
000380 a1 c4 40 3d 5e a0 0d 3c bf 53 dd bd 8d 55 20 3c
       0.04706252 0.008644192 -0.10806989 0.009786022
000390 75 eb 88 bd 84 a8 90 3d 01 5f 95 3c d3 8d a9 bd
       -0.06685535 0.07063392 0.018233778 -0.08279004
0003a0 9d 7a fb bc 88 bd 7b bd e0 2f 0d be 6f c3 c4 be
       -0.030698115 -0.061460048 -0.13787794 -0.38430354
0003b0 dc 05 3f 3c 5b fd b2 3d 46 93 9b bc f7 bc 88 3d
       0.011659112 0.0873973 -0.018991124 0.06676667
0003c0 a1 43 c0 3d 43 82 9e 3c 2e 18 2c 3d f6 09 2b bc
       0.09387899 0.019349223 0.042015247 -0.010439387
0003d0 d3 c3 3e be 10 e7 11 bd 38 35 98 bc f1 84 f3 3d
       -0.18629389 -0.03562075 -0.018580064 0.11890591
0003e0 d1 9d 65 3c 38 0c 92 3d 9a f9 c8 3d e4 07 fb bd
       0.014014677 0.07131237 0.09813233 -0.122573644
0003f0 c3 ed 22 3c 42 88 5c 3c 9e d5 5a bd 4b 9b ad 3c
       0.009944382 0.013460221 -0.053426377 0.021192214

encoder.latency_model.net.network.4.bias f4 [64]
000000 5c f3 8b 3c c4 9d e4 3e ef 0d 0d be 9e 81 e0 3e
       0.017083816 0.44651616 -0.13774846 0.4384889
000010 3e dc a3 be 0c 38 d0 3d 65 5c 3c 3d 63 d2 e9 3d
       -0.3200397 0.1016694 0.04598655 0.11417081
000020 dc 76 3e bf 01 48 e5 3d 03 c0 c1 be 1d f3 9e 3e
       -0.74400115 0.11195374 -0.37841806 0.31044856
000030 07 37 5a 3c a7 9f 96 bc 21 de ed 3d 42 15 8b 3d
       0.013318784 -0.018386675 0.11614633 0.06791164
000040 39 60 18 3e 5b 75 85 3e 16 11 48 3e 95 82 b0 3e
       0.14880456 0.26066098 0.19537768 0.34474626
000050 8a c6 cd 3d 0b 44 d9 3e 7c de b4 bc e8 9f 58 be
       0.10047634 0.42434725 -0.022078745 -0.2115475
000060 68 81 ab 3e 84 d1 76 3e 3e e8 48 be bb c0 4c 3e
       0.33497167 0.24103361 -0.19619843 0.19995396
000070 53 12 48 3e e8 bf 02 3b ff 30 10 3e 10 77 96 3e
       0.1953824 0.001995081 0.1408119 0.29387712
000080 c0 c0 25 be d4 21 57 3e c3 36 a7 3e 95 5a 61 be
       -0.1618681 0.21008998 0.32658967 -0.2200721
000090 8e 43 89 bd a2 c3 8e 3e 4f bd 27 3d cf 16 0e 3e
       -0.06702338 0.2788363 0.040952023 0.13875888
0000a0 55 bd ce be 71 2d db 3d 85 02 f0 bd 0f 2c 3f 3e
       -0.40378824 0.10702027 -0.117192306 0.18669151
0000b0 75 53 58 3e 67 16 cd 3d 19 dd e7 be d6 7a 99 3e
       0.21125586 0.100140385 -0.45285872 0.2997653
0000c0 db bf 88 3e 0d 1a de bd 26 59 5f 3e 4f a5 f1 3d
       0.26708874 -0.108448125 0.21811351 0.11799108
0000d0 c2 93 90 3e c1 22 93 3d 8e 06 5e bc 3d d4 8b 3d
       0.2823773 0.07184363 -0.013551367 0.068275906
0000e0 fe 64 33 3e 79 ee 99 3d 51 c0 f6 3d 0d e3 be be
       0.17518994 0.07516188 0.120484 -0.372826
0000f0 e2 b7 c4 bc ae 2f cf bd 42 e2 23 3e 49 fb 03 3e
       -0.024013463 -0.10116516 0.1600428 0.12888826

encoder.latency_model.net.network.5.weight f4 [64]
000000 62 49 86 3f f7 c0 8e 3f 1d 0f 94 3f 6d 43 85 3f
       1.0491145 1.1152638 1.1567112 1.0411202
000010 a7 bc 99 3f ed 5a 86 3f 43 da 67 3f ca b1 86 3f
       1.2010697 1.0496498 0.90567416 1.0523007
000020 57 af a4 3f 27 f4 96 3f b4 c1 99 3f 86 6f 86 3f
       1.286601 1.1793259 1.2012239 1.0502784
000030 a2 ff 8b 3f 04 d6 94 3f 30 50 89 3f c9 30 98 3f
       1.0937388 1.1627812 1.0727596 1.1889888
000040 be 92 86 3f 5a a3 84 3f da 96 8e 3f ad 13 7f 3f
       1.0513532 1.0362351 1.1139786 0.996394
000050 67 24 92 3f 5e 7a 8d 3f fd 85 99 3f 48 dd 84 3f
       1.1417359 1.1052969 1.1994015 1.038003
000060 28 86 80 3f 4e bf 77 3f a5 f6 8d 3f f7 93 97 3f
       1.0040941 0.9677628 1.1090895 1.184203
000070 d8 ff 85 3f cf 80 9d 3f 70 da 74 3f 33 f6 89 3f
       1.0468702 1.2304934 0.9564581 1.0778259
000080 7c 10 88 3f 42 4d 84 3f 3f 1e 89 3f 89 b4 8c 3f
       1.0630031 1.0336077 1.0712355 1.0992595
000090 bc 64 93 3f 93 c0 8b 3f c8 02 8e 3f aa 95 8b 3f
       1.1515117 1.0918144 1.1094599 1.0905049
0000a0 04 d0 a4 3f 55 b9 8c 3f cd 53 c4 3f da ee 91 3f
       1.2875981 1.0994059 1.5338074 1.1401017
0000b0 5b b9 96 3f 10 8a 92 3f 94 33 93 3f e0 7e 8a 3f
       1.1775316 1.1448383 1.1500115 1.0819969
0000c0 49 ba 85 3f 00 9d 81 3f f5 0c 7e 3f 09 03 87 3f
       1.0447475 1.0126038 0.9923852 1.0547801
0000d0 2b 5b 89 3f 2b ae 7f 3f 95 49 82 3f 75 23 7f 3f
       1.0730947 0.99875134 1.0178705 0.9966348
0000e0 a1 ff 90 3f a0 bd 81 3f af 4d 81 3f 57 ce 8c 3f
       1.1328012 1.0135994 1.0101832 1.100047
0000f0 b4 b1 8a 3f f3 3f 83 3f 5b b0 83 3f 8b 01 86 3f
       1.0835481 1.0253891 1.0288194 1.0469221

encoder.latency_model.net.network.5.bias f4 [64]
000000 5b a4 81 3c 87 56 dc 3d b3 6f 9d 3b 99 00 c2 3d
       0.015825441 0.10758691 0.0048045754 0.0947277
000010 d6 58 ed 3d 63 50 ae 3d 9a 57 dd 3d 09 a7 a6 3d
       0.1158921 0.08511426 0.10807724 0.08137328
000020 b3 f1 72 3e 1d 26 35 3e 39 a7 dc 3d 0e c2 86 3d
       0.23725013 0.1769032 0.10774083 0.06579982
000030 0e 88 b3 3d fd 27 6a bd 54 27 d1 3d 64 e6 7b 3d
       0.08766185 -0.057167042 0.10212579 0.061499014
000040 49 d2 a8 3c 07 f5 d6 3d 8e b4 0c 3e 53 d1 c3 3d
       0.020608084 0.10495954 0.13740751 0.0956141
000050 bb 07 17 3c 92 23 f7 3d fb 01 44 3d dc ff a9 3d
       0.009218152 0.120673314 0.04785345 0.083007544
000060 63 04 b4 3d 23 bf a5 3d 4b 46 7e 3d bc 00 02 3e
       0.08789899 0.08093097 0.062078755 0.12695593
000070 57 f1 b1 3d c0 b2 26 3d 77 61 d3 3d ea 6f cc 3d
       0.0868861 0.040697813 0.10321324 0.099822834
000080 37 5f 75 3c a8 78 ab 3d 99 7c bd 3d 88 2c 25 3e
       0.014976314 0.08372623 0.09252281 0.16130269
000090 de a1 0d 3e c1 4a ff 3d 95 da 19 3d fa 32 a0 3c
       0.13831279 0.1246543 0.03756197 0.019555558
0000a0 a1 da 6e 3d d7 ce f1 3d 88 fc 92 3d 8a 96 59 3d
       0.05831397 0.1180703 0.07177073 0.05312208
0000b0 ae b4 d9 3d e9 25 92 3d ad e6 48 3d 19 ba aa 3d
       0.10630165 0.07136137 0.049048115 0.083362766
0000c0 89 21 d1 3d 6c e7 d2 3d 21 ee ed 3d 5b 19 cd 3d
       0.102114744 0.102980465 0.11617685 0.10014602
0000d0 75 fe d3 3d 1a 14 b3 3d e8 15 60 3d a6 a8 c0 3d
       0.10351268 0.087440684 0.05470839 0.09407167
0000e0 0b b9 27 3d 23 92 b6 bd f8 56 9f 3c ca 36 8c 3d
       0.040947955 -0.08914592 0.01945065 0.06846388
0000f0 85 ab 5c 3d ca 7d 89 3c 6c 97 34 3d e7 dd 85 3d
       0.05387451 0.016783614 0.04408972 0.06536465

encoder.latency_model.net.network.5.running_mean f4 [64]
000000 2c 20 52 3d c6 cb e2 3e f9 a4 97 be 80 ff c2 3e
       0.051300213 0.44296092 -0.29618052 0.38085556
000010 91 f2 ac be df d3 90 3d f5 9b 2e 3e b5 71 04 be
       -0.33778813 0.07071661 0.1705168 -0.12934001
000020 e8 cf b8 be d7 fa ac 3e 96 82 3c be 4e b6 18 3e
       -0.3609612 0.33785126 -0.1840919 0.14913294
000030 b1 2c 09 bf 74 46 55 3e 05 79 b3 3c 48 6e 18 be
       -0.5358382 0.20827657 0.021908293 -0.14885819
000040 38 f3 58 3e bd 54 e1 3e b2 f5 9d 3e 3f 37 b5 3e
       0.2118653 0.44009963 0.30851513 0.35393712
000050 97 02 aa 3e 6e ec e7 3e 30 2d 02 be 5a 96 93 bd
       0.332051 0.4529757 -0.1271255 -0.07206412
000060 5c 68 6b 3e 24 2d 19 3e 85 be f9 bd 13 d0 5b 3e
       0.22989029 0.14958626 -0.12194542 0.21466093
000070 b9 65 b0 3e 5b 8b 40 be 68 c4 a3 3d 7f 01 b2 3e
       0.34452608 -0.1880316 0.07996446 0.34766766
000080 eb fb 50 3d c0 2b 46 3e 70 9b f2 3e 13 67 f1 3d
       0.051021498 0.19352627 0.47384214 0.11787238
000090 ed 8d 43 3e ca 92 db 3e ff f9 fa bd da 1c fe 3c
       0.19097109 0.4288543 -0.12254714 0.031019617
0000a0 f4 2a 05 bf 71 be a5 3d ed 9d 89 be 54 69 e7 3d
       -0.52018666 0.080929644 -0.268783 0.112993866
0000b0 8c 2b 69 3e e3 06 82 3d dd 4b 9a be 19 22 9d 3e
       0.22770518 0.0634897 -0.30136004 0.30690077
0000c0 ff 15 24 3e e8 e8 b8 bd bd 94 92 3e 30 81 dd 3d
       0.16024016 -0.09028798 0.28629103 0.10815656
0000d0 84 f0 99 3e 25 68 de bd cb c7 1a 3e be 5a 51 3e
       0.3006631 -0.10859708 0.15115277 0.20444772
0000e0 19 46 df ba b9 de 47 3e fb 25 a4 3e dd 44 23 be
       -0.001703444 0.19518556 0.32060227 -0.15944238
0000f0 2d 71 52 be 0d 14 0f 3c bf a9 32 3e ab d5 a3 3d
       -0.20550986 0.008732808 0.17447565 0.07999738

encoder.latency_model.net.network.5.running_var f4 [64]
000000 1b 9e 92 3f 0c ec 06 3f db 62 c4 3f 5e bd eb 3e
       1.14545 0.5270393 1.5342668 0.46042913
000010 08 82 cf 3e c2 f1 da 3e 97 c0 2d 3f cf 2b e8 3e
       0.40528893 0.42762572 0.67871994 0.45345923
000020 fc 5c 11 3e fd 56 c0 3e f7 49 33 3f 17 62 09 40
       0.14195627 0.37566367 0.70034736 2.146612
000030 41 49 36 3e 41 fd 88 3f 6d 87 9c 3f 9a e4 cb 3f
       0.17801382 1.0702287 1.2228829 1.5929139
000040 62 44 e8 3e 04 7f 68 3f c0 f6 52 3f 74 0d c9 3f
       0.45364672 0.9081881 0.8240776 1.570723
000050 2c c9 cb 3f fa 30 1e 3e bf dd 09 3f 33 43 a5 3f
       1.5920768 0.1544837 0.5385398 1.2911133
000060 7a 1f 01 3f 7f 70 9d 3f fa bd 7e 3f d4 60 7d 3f
       0.50438654 1.2299956 0.9950863 0.98975873
000070 e8 28 b3 3e fb 84 d7 3f f0 76 70 3f dc ab 24 3f
       0.34992146 1.6837457 0.93931484 0.64324737
000080 ab 79 f1 3f 0d e6 71 3f 9c 1c 99 3f ea fc 5b 3f
       1.8865255 0.94491655 1.1961856 0.8593279
000090 d5 b9 63 3e e5 02 92 3e c8 fe 8f 3f 97 28 6a 3f
       0.22238858 0.28517833 1.1249628 0.91468185
0000a0 6a b5 d0 3e 21 06 5b 3e 44 80 0e 40 85 3a c3 3f
       0.40763408 0.21389057 2.2265787 1.5252234
0000b0 64 3e 8b 3e 62 52 43 3f d6 ea d8 3e 74 3c 10 3f
       0.27196038 0.7629758 0.42366666 0.56342244
0000c0 d7 4a 6e 3f a9 d3 f7 3f f7 b7 bd 3f 92 b5 7a 3f
       0.93082947 1.9361469 1.4821767 0.97933304
0000d0 36 77 7d 3e 78 6c 03 40 31 44 e2 3f 8a 35 d3 3e
       0.24752507 2.0534954 1.767706 0.41251785
0000e0 3b a3 fb 3e 47 a7 bb 3f 9b 6f e2 3f 89 87 ae 3e
       0.49147972 1.4660424 1.7690309 0.3408778
0000f0 be 15 f5 3e 77 ad 8a 3f 18 dd a0 3f b6 ba c4 3f
       0.4786815 1.0834187 1.2567472 1.536948

encoder.latency_model.attn_layer.atten_w f4 [20, 64, 1]
000000 54 fc ad bc b8 25 d6 be ff e4 af bd 21 43 5d bd
       -0.021238483 -0.41825652 -0.085885994 -0.054019097
000010 c8 be f2 3c 23 b0 8c 3e e6 41 47 3d f3 98 a8 bd
       0.029631987 0.27478132 0.04864683 -0.08232298
000020 fc 13 91 be ed 00 10 bf 2a d7 8e be 17 fa 97 3d
       -0.2833556 -0.5625141 -0.27898532 0.07420748
000030 36 f5 27 bf af 43 de be fd 4b 6b be f9 09 13 3e
       -0.6560854 -0.43411013 -0.22978206 0.14359273
000040 e0 60 13 3d ef 59 e7 3d b0 c6 22 bf ca 95 8a 3e
       0.03598106 0.1129645 -0.63584423 0.27067405
000050 a8 89 61 bc 9d 6c 06 be 5d 9f 02 3e 68 ed 48 bd
       -0.01376573 -0.1312737 0.12756105 -0.049054533
000060 27 9b 49 be 59 20 04 3e 05 0a 73 3e 33 f4 65 be
       -0.19688092 0.12902965 0.23734291 -0.22456436
000070 58 22 5c 3d d8 af b8 3e 7e a2 71 3e 8f a0 b0 3d
       0.05374369 0.36071658 0.23597142 0.08624374
000080 bf 20 03 3e c5 19 8c be 01 e0 1b 3e da 9e e0 3d
       0.1280546 -0.2736341 0.1522217 0.109677985
000090 e3 d1 58 be 1a 32 3f 3e f1 55 0c 3d 2e 7e 0e 3e
       -0.21173815 0.18671456 0.034261648 0.13915321
0000a0 b2 2d e9 3d cb 3d 83 be 44 6f 49 3c 43 d9 39 be
       0.11385669 -0.25633082 0.012294594 -0.18149285
0000b0 d3 36 ab bd f8 9c 0e be 12 58 99 bc 6d c7 b9 be
       -0.08360066 -0.13927066 -0.018718753 -0.36284962
0000c0 78 e7 b6 3d 31 55 f3 3b f5 32 9a be d7 a2 fb 3d
       0.08930868 0.007425927 -0.30117002 0.122869186
0000d0 9b b2 95 bd 39 0c 09 3e 52 2f 83 3e 14 92 23 be
       -0.07309457 0.13383569 0.2562204 -0.15973693
0000e0 4e 2f ba bd bc 64 21 3c 91 89 5f be 68 9f 20 3f
       -0.09091054 0.009850677 -0.21829821 0.62743235
0000f0 a9 1b ea 3b 18 02 22 3e 11 f9 74 be a4 d3 a0 be
       0.0071444106 0.15821111 -0.23923136 -0.3141147
000100 64 85 61 3e 9b 28 1d be a2 8e 1b 3d ea 44 83 bc
       0.2202354 -0.15347521 0.037977822 -0.016024072
000110 45 cb 08 be 82 f3 b4 be 01 f8 9d 3d 69 2e 0f be
       -0.13358791 -0.35342032 0.077133186 -0.13982548
000120 af cc b5 be eb 96 6d bc 6e 70 98 3e 44 0b 8c be
       -0.35507724 -0.014501314 0.29773277 -0.27352345
000130 bb 22 d4 bd b2 e5 8b be be 3b 6e be c1 4e 10 3e
       -0.10358187 -0.2732368 -0.23264977 0.14092542
000140 8e e9 e4 3c 46 f7 63 be ed 48 c1 be d6 f6 b5 3d
       0.027943399 -0.22262296 -0.3775095 0.08884971
000150 15 7d f5 be bc ea 7c be 5b cb 82 3e 2a 83 98 bd
       -0.47946993 -0.24698919 0.25545773 -0.074468926
000160 b0 60 d5 be 98 66 03 be 31 a8 51 3e 71 72 db 3d
       -0.4167533 -0.12832105 0.20474316 0.10715187
000170 6e 7c 9c 3a 4f 78 00 3e fa 38 4d be 29 fa 10 3e
       0.0011938938 0.12545894 -0.20041266 0.14157929
000180 2e ee b5 3d d1 8d a5 be c1 6f fd bd 84 93 32 3e
       0.0888332 -0.3233476 -0.12374831 0.17439085
000190 78 c7 ec 3d 41 64 a5 bd 63 ba 49 bd b1 5a c8 3d
       0.11561483 -0.080757625 -0.049250018 0.09782923
0001a0 61 a8 0b bd bf 0c c0 be 1d 2b bd 3e c0 7d 85 bc
       -0.034096126 -0.37509724 0.36946955 -0.016295314
0001b0 8e 59 0c 3c 63 93 45 3b 1d fe 1a 3e 4f 3b db 3d
       0.008566273 0.0030147664 0.15135999 0.107046716
0001c0 b9 c7 8d bd ae f2 f1 bd 69 b7 c1 be 4d 6a 84 bd
       -0.0692286 -0.118138656 -0.37835243 -0.06465588
0001d0 4e 2e 04 bf 36 93 81 be 28 fd 46 be e0 e9 af bd
       -0.51633155 -0.25307626 -0.19432509 -0.0858953
0001e0 cd 6e dd bb 0e cc 2a be 16 1b 2d bc 59 12 9d 3e
       -0.0067575932 -0.16679403 -0.01056554 0.3067806
0001f0 3d 7b b6 be 37 7b ae be f8 65 84 be 76 a1 27 3e
       -0.35640898 -0.3407838 -0.25859046 0.16370186
000200 ea 6c 8f be 01 16 cc 3d f3 f4 e9 be 89 94 10 be
       -0.28012782 0.099651344 -0.45694694 -0.14119162
000210 ce db 27 be 07 e2 c3 be 8b f6 a2 bd 6f ed 0e bf
       -0.16392443 -0.38258383 -0.079571806 -0.55831045
000220 3e 0e 5f 3e c5 ec 2e be 69 3a 88 3e 07 cd e0 be
       0.21782777 -0.17082508 0.26607063 -0.43906423
000230 a1 fb ca be 02 32 3a 3e 36 0b 08 bf 3c 22 69 be
       -0.39645103 0.18183139 -0.53142107 -0.22766966
000240 2b 4b 1f 3e a0 b9 c6 bb bd 07 65 3d b1 a0 35 3e
       0.15556018 -0.0060646087 0.055915583 0.1773708
000250 a4 a4 d9 be 18 27 22 be 94 3f bf be dd 02 1d be
       -0.42508423 -0.15835226 -0.37353194 -0.15333124
000260 91 ce 90 be 1a af 07 be 62 a7 3c be a3 45 b3 be
       -0.28282598 -0.1325039 -0.18423226 -0.35014066
000270 63 6a a9 be 25 52 8f be 19 03 08 bd 5c 60 46 be
       -0.3308898 -0.2799236 -0.03320608 -0.19372696
000280 fc 80 05 be 29 ac fb 3c 53 d2 1a bd d1 c5 a0 be
       -0.13037485 0.03072174 -0.037798237 -0.31400922
000290 90 37 38 3e 7f 8d ee 3d 39 e3 e5 be 38 54 03 3e
       0.17989945 0.11648082 -0.4489992 0.12825096
0002a0 27 98 20 bc ff f0 1c bf 8a 77 8b be 33 79 0c 3e
       -0.009801901 -0.6130523 -0.2723964 0.13718109
0002b0 81 8b 8a bd 48 aa c5 be 6f 91 b8 3d ed 3b 8b be
       -0.067648895 -0.38606477 0.09012114 -0.27194157
0002c0 50 d4 8b be 07 a2 93 bc 94 39 d6 bd 8f 3d 8f bd
       -0.2731042 -0.018021597 -0.10460201 -0.06994163
0002d0 e5 98 0f bf 34 96 f6 bd 3d 79 d6 be 21 3d 29 be
       -0.56092674 -0.12040368 -0.41889372 -0.16527225
0002e0 ff 91 f1 be de f7 bd 3c 78 60 9d be f1 ba 33 3e
       -0.471817 0.023189481 -0.30737662 0.17551781
0002f0 9e 5a d3 be da ea 9e bd 27 50 c0 be 6f 84 45 be
       -0.41280073 -0.07759638 -0.3756115 -0.192888
000300 df 7c 94 be ec 47 99 be 74 03 30 be 3f cd 3e be
       -0.2900152 -0.29937685 -0.17188817 -0.18632983
000310 83 00 ea 3e 0c eb 3e 3e 03 1e ab 3e 12 e5 ce be
       0.45703515 0.18644351 0.33421335 -0.40409142
000320 67 68 1c 3f 18 75 0e bd f2 b3 4c 3e f7 a5 93 be
       0.61096805 -0.034779638 0.19990519 -0.2883756
000330 73 02 03 bd 80 ab 03 be 90 19 ba 3d 71 02 81 3e
       -0.031984758 -0.12858391 0.09086907 0.25197175
000340 3e fd b9 3e 9c 4e 3f be 44 13 0d 3e 67 c4 1b bd
       0.3632602 -0.18682331 0.1377688 -0.0380291
000350 e3 6f 3b 3e f0 25 f1 be 3d 36 16 3e be a4 a7 3e
       0.183044 -0.47099257 0.14669128 0.32742876
000360 b3 96 a5 be c7 0f 63 3a 9f f6 09 3d 57 02 40 3e
       -0.32341537 0.0008661714 0.03368246 0.18750893
000370 3a d2 a6 3e 91 79 e7 3e 76 db bf bd 10 8f 1d bf
       0.32582265 0.45209935 -0.09368031 -0.6154642
000380 ea 92 02 3e 9c 15 5e 3e 9a 8a 91 be 60 d6 bc 3e
       0.12751356 0.21687931 -0.28426057 0.36882305
000390 59 c6 e0 be 69 66 35 3b 5b 7b 74 bd 31 90 76 3e
       -0.43901327 0.002767945 -0.059687953 0.24078442
0003a0 be 42 a0 3e f3 39 55 3e ce 97 46 3f b0 db 95 be
       0.3130092 0.20822887 0.77575386 -0.2926917
0003b0 fd 11 b4 3d 92 5e 3c 3e df 54 1f be 76 8a 78 bd
       0.087924935 0.1839545 -0.1555972 -0.06067892
0003c0 f7 72 b1 be 1c 99 ac 3e 03 e2 f2 be f2 72 6b 3d
       -0.34658024 0.33710563 -0.47438058 0.057482667
0003d0 8d 17 a4 bd ac f5 70 bd a9 d2 72 bd f1 63 f5 bd
       -0.080123045 -0.05882804 -0.059282932 -0.11981953
0003e0 51 e1 af be f6 c4 e5 bd e0 8b 96 3d df 35 99 bd
       -0.3435159 -0.11219208 0.07350898 -0.07480978
0003f0 0e e1 a7 bd 44 94 9d 3d 0d c8 67 be 29 1a c6 3d
       -0.08197223 0.07694295 -0.22634907 0.096729584

encoder.latency_model.attn_layer.atten_bias f4 [20, 1, 1]
000000 c8 11 cd 3c e0 fb 3e be 44 af 7b be ba 6e e4 bd
       0.025032893 -0.1865077 -0.24578577 -0.11153932
000010 27 c8 bd bd c8 db 03 be e9 45 84 bd 2f 2b 82 bd
       -0.09266692 -0.12876809 -0.06458647 -0.06355893
000020 3f 5f ae bd db 3d b8 bc ea e1 81 bd e5 20 a8 bd
       -0.085142605 -0.022490432 -0.06341918 -0.08209399
000030 aa c7 72 bd f3 5a 2b bd 29 01 61 bd 5b 3c 82 bd
       -0.059272446 -0.041834783 -0.054932747 -0.06359168
000040 0f ad 52 bd 5f 91 7e 3d eb a0 5d bd 55 74 af bb
       -0.051434573 0.062150355 -0.05410854 -0.005354444

encoder.cpu_model.net.network.0.weight f4 [32, 1, 3]
000000 10 f0 2a 3e 85 8e ca be b4 ed ec be 41 b4 d9 bc
       0.16693139 -0.3956186 -0.46275103 -0.02657521
000010 cb 84 42 be 10 5d b3 3e c0 d7 90 be a2 60 02 3f
       -0.18995969 0.3503194 -0.28289604 0.509287
000020 e4 59 d7 3e 88 60 f8 3d 02 9b 91 be bb 2f ab be
       0.4206077 0.12127787 -0.28438574 -0.33434853
000030 11 ae 51 be 3f 78 16 3f 44 39 04 bd 7e ef 04 bf
       -0.20476557 0.5877723 -0.032281175 -0.51927936
000040 19 e6 17 3d b7 a3 17 3f 84 ba 4d 3e 5f ee 0f bd
       0.037084673 0.59234184 0.20090681 -0.035139438
000050 49 aa 32 be d1 bb 8e 3e be 46 87 3e 76 07 0c bf
       -0.17447771 0.27877668 0.2642116 -0.54698884
000060 fd 69 9f 3e 90 85 fe 3d 03 c2 01 bf 1b f6 bb 3e
       0.3113555 0.12427819 -0.50686663 0.367112
000070 3b f2 c9 be d2 a2 da be 7e 1b f1 3d c3 c6 cb 3d
       -0.3944262 -0.42702347 0.11772822 0.0995002
000080 d6 80 e5 be b0 65 b4 3e 42 c3 e9 3e 90 85 cd 3d
       -0.44824857 0.3523383 0.45656782 0.10035241
000090 de 8c d8 3e 90 40 2a 3e 7d f7 74 3e e9 d6 33 be
       0.42294973 0.16626191 0.23922534 -0.1756245
0000a0 c3 b1 00 bf 1e 6b 1a 3e 9c 66 f1 3d e9 8b 34 be
       -0.5027124 0.15079924 0.11787149 -0.17631496
0000b0 f8 39 bc 3e f6 14 cb be 3a 2b a9 be b3 b6 2c 3e
       0.36762977 -0.3966443 -0.33040792 0.16866569
0000c0 f9 9d bd 3e 7f 2f a6 bd 4e db 48 bd c6 aa ba bd
       0.37034586 -0.08114528 -0.04903727 -0.09114604
0000d0 78 21 f5 3d 64 f5 56 3d d6 9e 14 3f d0 09 25 3e
       0.11969274 0.052480116 0.58054864 0.16117024
0000e0 97 e3 c8 be 21 2e 01 bf 3c 21 c9 be a1 46 03 bf
       -0.39236137 -0.5046101 -0.39283168 -0.51279646
0000f0 e8 e6 1e 3e de ee c7 3e 55 a1 a0 bd 2d 7e f0 3e
       0.15517771 0.3904943 -0.07843272 0.46971264
000100 ae 40 f5 3e 1b 34 a4 bd f9 9b 05 3f 5e 1c 92 be
       0.4790091 -0.08017751 0.5219112 -0.28537267
000110 03 ff c4 3d f9 3f f6 3e 45 9d 83 3e 7b 8f 04 3f
       0.09618952 0.48095682 0.25705925 0.51781434
000120 3f 91 b4 3d 0b 44 cd be 7e 97 df 3d b4 53 f3 bc
       0.08816766 -0.40090975 0.10917567 -0.029702999
000130 5d b7 bb 3e 39 bd 65 3e 05 38 80 be 52 78 20 3f
       0.36663333 0.22435464 -0.2504274 0.62683594
000140 b2 a2 37 3e bd dd 9a be c2 2e 2e 3e 6d 77 8a be
       0.17933157 -0.30247298 0.17010024 -0.2704424
000150 3f 20 31 3e 35 a5 e9 3c 24 a3 a7 3e 8c 49 b5 3e
       0.17297457 0.02852116 0.32741654 0.35407674
000160 15 3d 68 3e 59 5d cd be e1 f5 96 3d 50 ee 4c 3e
       0.22679551 -0.4011028 0.073711164 0.20012784
000170 ac 9f a8 3d 4c 85 fb be 42 0d 11 3e 92 fc 8f be
       0.0823358 -0.49125135 0.14165214 -0.28122383

encoder.cpu_model.net.network.0.bias f4 [32]
000000 fe 83 0a bf 10 46 22 be 6c df f1 be 3f 87 c9 be
       -0.54107654 -0.15847039 -0.4724077 -0.39360997
000010 62 e6 71 3e a3 63 d2 be 70 b3 a9 3e d8 38 f7 3e
       0.2362304 -0.41091642 0.33144712 0.48285556
000020 e6 21 2d 3e 60 1f 11 bf ea f6 81 be d9 50 98 be
       0.16907462 -0.566885 -0.25383693 -0.29749182
000030 d8 41 fc 3e 89 67 b8 be 96 25 f2 be 68 98 b1 3e
       0.49268985 -0.3601649 -0.472943 0.3468659
000040 4c 8b ba be 46 a0 d9 3e 7a a6 9d bc 05 61 0a 3a
       -0.364344 0.4250509 -0.019244421 0.0005278739
000050 9b 25 13 bf ed 83 ac be 2d 02 0c bf d5 74 36 be
       -0.57479256 -0.336944 -0.5469082 -0.17818005
000060 35 78 cc 3e 17 59 87 3d b6 f6 ea 3d 39 22 a1 be
       0.3993546 0.066087894 0.114728376 -0.31471422
000070 ed 4b 27 be 13 fc 08 3f 31 42 e2 b8 b1 f6 37 be
       -0.16337557 0.53509635 -0.00010788849 -0.17965199

encoder.cpu_model.net.network.1.weight f4 [32]
000000 55 a0 7f 3f 45 02 82 3f 95 f5 83 3f 94 3a 87 3f
       0.9985402 1.0156943 1.0309321 1.0564752
000010 00 4d 82 3f 4c 02 88 3f 6e c4 69 3f 49 74 78 3f
       1.0179749 1.0625701 0.9131535 0.9705244
000020 59 44 6c 3f 31 d9 83 3f a5 a3 80 3f 0e 78 81 3f
       0.9229179 1.0300657 1.004994 1.0114763
000030 29 6a 75 3f 8c 1c 85 3f ea 46 83 3f 80 44 79 3f
       0.9586511 1.0399337 1.0256016 0.9737015
000040 67 ec 82 3f 2a c3 7a 3f a1 1f 79 3f 2c 80 86 3f
       1.0228394 0.97954047 0.97313887 1.0507865
000050 d6 86 81 3f 73 29 75 3f fb 22 80 3f ec 3e 82 3f
       1.0119274 0.9576637 1.0010675 1.0175452
000060 65 85 80 3f ac 3b 81 3f 8e b3 76 3f 98 5b 80 3f
       1.0040709 1.0096335 0.9636773 1.0027952
000070 b7 4a 82 3f 32 10 7d 3f ab ee 84 3f 17 c6 82 3f
       1.0179051 0.9885284 1.0385336 1.0216702

encoder.cpu_model.net.network.1.bias f4 [32]
000000 fe 90 8e 3d 34 b5 c5 bc 76 fe 76 bd 9c b3 95 3d
       0.06961249 -0.024134256 -0.060301267 0.073096484
000010 9c a4 b1 bd fd 7a 00 be fe d7 40 bd d6 53 8e bc
       -0.08673975 -0.12546916 -0.047080986 -0.01737396
000020 00 73 92 3c f3 2c e7 ba f7 0d 59 3c fc 86 d2 bc
       0.017877102 -0.0017637297 0.013247958 -0.025699131
000030 6c 2b 9b bd db e0 ab 3d 5b 77 a3 bc 69 2f 1d 3d
       -0.075766414 0.08392497 -0.019954374 0.038375292
000040 ef c0 29 bd 16 80 b1 bd 45 f4 81 bd b1 d7 aa 3d
       -0.04144376 -0.086670086 -0.06345419 0.08341921
000050 49 dd 89 bd f6 f3 7d bd ee 8c 57 bd 89 c4 f6 bc
       -0.0673166 -0.062000237 -0.052624635 -0.030123012
000060 2f 92 3b 3d 90 bc 97 bd a7 65 ed bc 6b 46 b5 3d
       0.04579371 -0.07409012 -0.028979136 0.08851322
000070 22 99 ff bc 8f 7f 55 bd d0 ea 3a bd 60 c8 48 3d
       -0.03120095 -0.052123602 -0.04563409 0.049019217

encoder.cpu_model.net.network.1.running_mean f4 [32]
000000 c9 19 46 c3 f9 5a 17 42 08 3f 38 43 02 96 0e c3
       -198.10072 37.83884 184.24622 -142.58597
000010 43 0f c9 42 ce c9 fa 41 6a 78 18 3f 3a 85 29 bf
       100.52981 31.348537 0.5955874 -0.6621891
000020 be f9 9e c1 4f 59 02 c3 f5 96 84 c2 3d c1 81 43
       -19.871944 -130.34886 -66.29484 259.50967
000030 ba 13 6d 43 ea 53 16 c3 d0 99 af 42 e3 86 1e c3
       237.07706 -150.32779 87.800415 -158.5269
000040 e5 9b 88 42 2d 56 ba 41 1e ff c6 42 53 57 c9 c3
       68.30448 23.292078 99.498276 -402.68222
000050 63 d9 04 43 ee 9f 77 43 93 da bc 42 f4 39 b3 43
       132.84917 247.62473 94.4269 358.45276
000060 de ca 60 c2 3b 4a 20 43 a0 be 1e 43 19 a1 e6 c2
       -56.198112 160.28996 158.74463 -115.314644
000070 6c a5 16 43 37 2d 4e 42 e1 2c cb 42 52 57 34 c3
       150.64618 51.544155 101.587654 -180.3411

encoder.cpu_model.net.network.1.running_var f4 [32]
000000 87 c0 42 48 2e 25 30 46 90 d2 30 48 ad db c9 47
       199426.11 11273.295 181066.25 103351.35
000010 4e 4a 5f 47 ac 4b 0a 47 22 f1 5b 45 7f 4f 91 46
       57162.305 35403.67 3519.0708 18599.748
000020 5e 55 93 46 f6 86 c2 47 a7 f4 e1 46 4a 25 a0 48
       18858.684 99597.92 28922.326 327978.3
000030 cb d0 82 48 c7 68 e2 47 fe e3 19 47 20 59 ff 47
       267910.34 115921.555 39395.992 130738.25
000040 b7 91 d2 46 3b a5 51 45 5a 0b 8b 47 19 59 3d 49
       26952.857 3354.327 71190.7 775569.56
000050 ee 7a af 47 fd 4f 95 48 d1 13 41 47 9b da 15 49
       89845.86 305791.9 49427.816 613801.7
000060 f7 08 96 46 5c 41 f8 47 3d e9 02 48 c8 c1 78 47
       19204.482 127106.72 134052.95 63681.78
000070 6d 9e d4 47 6a e1 d8 46 c6 ba 43 47 f2 69 18 48
       108860.85 27760.707 50106.773 156071.78

encoder.cpu_model.net.network.4.weight f4 [64, 32, 3]
000000 b7 bc 9c 3c fa 4e 66 3d eb 8f c3 bd 51 8a 26 bc
       0.019132955 0.05622766 -0.095489345 -0.010164813
000010 43 d2 9e bc ca 08 86 3c 55 d7 3f be c8 43 cd bd
       -0.01938737 0.016361613 -0.18734486 -0.10022694
000020 c2 5b 80 bd d2 b8 b6 3c ad 88 b4 3c 3e 46 9f bd
       -0.062675014 0.022304926 0.022037828 -0.077770695
000030 63 8c 24 be 5d 8a 99 be f6 3d 17 bc d3 a7 11 bd
       -0.16069178 -0.29988375 -0.009231081 -0.03556044
000040 e9 4d 1d 3c c4 18 3b 3d 1c 50 0d bd 3d ce af bd
       0.009601095 0.045677915 -0.034500226 -0.08584259
000050 3a ad 50 3d a8 16 8e bd 80 29 5a bd ae a8 85 bd
       0.05094645 -0.06937915 -0.053262234 -0.06526314
000060 a5 06 6b bd da e7 4f 3d b2 06 5d bd ee a3 b2 3b
       -0.057379384 0.05075822 -0.053961463 0.005451671
000070 6a 53 b7 3d 7a d8 63 bc c4 bb 26 3d 37 57 8d bd
       0.08951457 -0.0139065925 0.04070641 -0.069014005
000080 71 13 79 3d 6d fa be 3b f1 3f 2e be 72 8d 8a bd
       0.060809556 0.005828193 -0.17016579 -0.0676526
000090 04 64 86 bd 56 eb 68 bd ba c5 3b be 21 ee 6a bd
       -0.06562045 -0.05686506 -0.18337145 -0.057356004
0000a0 9e 40 1b bd 09 91 58 3d ed a2 a5 bd 3a 5a 28 be
       -0.03790342 0.05287269 -0.08087716 -0.16440669
0000b0 6e 02 4e bd a4 95 69 b9 f5 0a 8a 3d 45 07 d5 bd
       -0.050295286 -0.00022276357 0.06740371 -0.10401777
0000c0 c2 97 91 3b d2 a5 96 bd 1b 00 01 bd 0a e9 e6 bc
       0.00444314 -0.073558465 -0.03149424 -0.028187294
0000d0 dd 12 de be 23 f3 91 bd 2f 4c e3 bd d2 75 3e be
       -0.43373767 -0.07126453 -0.11098515 -0.18599632
0000e0 35 3a b8 bc 24 3e c5 bd 93 2a 0f 3d 89 1a 7a 3b
       -0.022488693 -0.09630993 0.03495271 0.003816279
0000f0 45 af 3c bd 51 9f b9 bd d0 26 d3 bd 59 44 b0 3c
       -0.046065588 -0.0906359 -0.10310137 0.021516966
000100 43 27 2f bd 6a ae 52 be 8a 21 11 be c8 4b 04 be
       -0.042762052 -0.20574346 -0.1417295 -0.12919533
000110 9d ba 0e be f2 6a b3 bd 1c ee 1a be af 70 b8 bd
       -0.13938375 -0.087606326 -0.15129894 -0.09005868
000120 92 f1 06 3c 7e 49 a4 bd 0e b6 05 bd 67 43 26 be
       0.008236306 -0.0802183 -0.032644324 -0.1623665
000130 d9 a9 55 bd d5 57 fb bd 63 01 12 be 70 00 3f be
       -0.052163932 -0.12272612 -0.14258341 -0.1865251
000140 05 48 9e 3c 16 6c ab 3d 32 08 df bc 82 7c 94 bd
       0.019321451 0.08370225 -0.027225588 -0.072503105
000150 70 a6 8c bd cc d8 0f bc 4f d7 bf bd e6 78 7f 3d
       -0.06867683 -0.008779716 -0.09367239 0.062371157
000160 32 e7 3f be d9 84 0c bd 1d c2 d2 bd 6c 04 ae bd
       -0.18740538 -0.03430638 -0.102909304 -0.08496937
000170 22 0a 21 bc 69 2f e2 bd fb ee 8f bd c2 72 a4 bd
       -0.009829076 -0.11044199 -0.07028004 -0.08029701
000180 22 e0 02 3c 59 c0 60 3d 85 2e 8e bc ac 8d d3 3b
       0.007988008 0.054870937 -0.017356167 0.0064560976
000190 3e 27 a1 bd 2a 05 71 3c ef de 82 3d 94 23 d7 bd
       -0.07868813 0.014710704 0.063901775 -0.10504833
0001a0 98 d8 26 bd be 84 12 3e 04 19 2b 3d 8a 9c 04 3e
       -0.040733904 0.1430845 0.041771904 0.1295034
0001b0 bc 2c 17 3d 6a 3b 99 bd 8b 81 09 3d c3 d7 8b 3d
       0.036907896 -0.074820355 0.033570807 0.06828263
0001c0 bc 72 4a 3d b9 39 03 bc d3 a9 14 3e 1f 7d 0e 3e
       0.049425825 -0.008009368 0.14517908 0.13914917
0001d0 b3 2f 00 3e b0 08 c4 bd fd c8 a6 3d 3e 5f 91 3c
       0.12518196 -0.095719695 0.08143804 0.01774561
0001e0 3d 82 bf bc 77 2b 0d bd 89 73 d3 bc 8a d4 e0 3d
       -0.023377532 -0.03446528 -0.025811927 0.109780386
0001f0 c9 b4 ec 3d 8c 05 7e bc 46 a1 01 3e cd 3b f9 bb
       0.115579195 -0.015504252 0.12659177 -0.0076060058
000200 7d 07 b6 3d 9a 37 d6 bb 2e ee e2 bd 44 26 02 be
       0.08888147 -0.00653739 -0.110805854 -0.1270991
000210 e6 4e cb 3d eb a5 a8 bd 11 1c 6a bc f2 04 41 3e
       0.09927158 -0.08234771 -0.014288918 0.18849543
000220 bd ef 9b 3d f3 85 57 bb 6e 00 b0 3d 5f 0c ff bd
       0.07614086 -0.0032886236 0.08593832 -0.124535315
000230 12 f9 0b 3c 84 2e 08 3e d8 32 f0 3d c4 4c 3e bc
       0.00854327 0.13298994 0.11728448 -0.011614982
000240 2d a8 2c bc 07 73 6a 3c 46 cf ca bd b6 c6 10 bb
       -0.010538143 0.014309651 -0.099028155 -0.0022091097
000250 11 bf b4 bd 19 58 69 3d 64 d6 86 3d c2 ac 26 3d
       -0.088255055 0.056968782 0.065838605 0.0406921
000260 e4 ec 11 3b bc 09 64 3e 7e 40 1f 3e 95 fc 07 3d
       0.0022266442 0.22269338 0.15551946 0.033199865
000270 78 e2 7a 3d 0c 66 de 3c 94 05 b8 bc d8 c0 2a 3c
       0.061251134 0.02714827 -0.022463597 0.010421954
000280 2c 68 fb 3a c2 e6 ca 3c f2 31 83 bd 43 0e 01 be
       0.0019180826 0.024768237 -0.06406011 -0.12603097
000290 21 83 6c 3d 82 f1 b8 bd 51 3c 8f bd 87 64 35 bd
       0.05774224 -0.09030439 -0.06993926 -0.044285323
0002a0 18 a3 31 3c b6 a4 bb 3d de 9a f5 3c a3 89 28 bd
       0.010842107 0.091622755 0.029981073 -0.041146886
0002b0 e7 89 d1 bc fa 10 6e bd bc de bf bd 6a ef 88 bd
       -0.025578452 -0.05812166 -0.09368655 -0.066862896
0002c0 5f c9 29 bd 79 98 60 3e 85 e2 30 3e 38 8b c5 bc
       -0.041451808 0.21933164 0.1727391 -0.024114236
0002d0 df 7b 9c bd 4c 9e d8 3c d7 9b c0 bc d0 d5 dd 3d
       -0.07640814 0.02644267 -0.02351181 0.10831797
0002e0 84 1b ba bd b2 db f2 bd a1 ba c8 bc 04 17 4b bd
       -0.090872794 -0.1185831 -0.024503054 -0.049582496
0002f0 16 46 4d 3b 4c b6 37 3e d4 8d 24 3d a6 8c 31 3e
       0.0031322292 0.17940634 0.04017432 0.1733881
000300 85 f6 ea bd 2b cf aa bd fb 24 87 3d aa 43 52 3d
       -0.11472801 -0.083402954 0.0659885 0.05133406
000310 86 b6 97 3c 96 1a b2 bd b4 60 2a 3d 95 3b 87 bc
       0.018519651 -0.08696477 0.04159613 -0.016507903
000320 a6 3d 4a 3d a9 a1 8b bd 9c b5 1b bd e9 c1 10 3d
       0.0493752 -0.068179436 -0.038014993 0.035341177
000330 84 34 d1 3d 2a 82 d3 bc cc dd e7 bd db f6 d2 3d
       0.10215095 -0.025818903 -0.11321601 0.1030099
000340 0c 92 a5 bc 2c 73 78 bd fc b2 df 3c bf 0c 6c 3d
       -0.020211242 -0.06065671 0.027307026 0.057629343
000350 5a 82 5b 3d e1 32 79 bd 88 f8 ae bd b3 c7 e3 3a
       0.05359111 -0.060839538 -0.08543497 0.0017378241
000360 a7 95 06 3c 34 f4 6e 3c 51 c7 80 3d 70 78 8b bd
       0.008214391 0.01458459 0.062880166 -0.06810081
000370 a2 93 d9 bd 1a ad dc bd 30 ac a5 bd 16 22 48 3c
       -0.10623862 -0.10775204 -0.08089483 0.012215158
000380 ec 2d 0c 3d 47 50 e1 3d 2d 91 d7 3d 01 cf a0 3d
       0.034223482 0.1100164 0.10525737 0.07851983
000390 f7 9f 80 3d 38 c9 4d bd c7 7e 0a 3c 87 6e b4 3d
       0.06280511 -0.050240725 0.008453078 0.08810144
0003a0 88 c9 07 3d 24 c7 42 bc d7 96 08 3e d4 9e 16 bd
       0.03315118 -0.011888299 0.13338791 -0.036772564
0003b0 a8 4b 03 bd 5e 11 0f bd 48 a5 48 bd 4d c2 90 bc
       -0.032054573 -0.034928672 -0.04898575 -0.017670775
0003c0 6e 13 18 3e 19 5d bb 3d 36 fe 98 bd bd 6c 8f bd
       0.14851162 0.09148616 -0.07470362 -0.07003162
0003d0 0d 29 42 3c ad d4 da bb 7f 0f 3b 3e 6d d1 a5 bc
       0.011850608 -0.006678185 0.1826763 -0.020241464
0003e0 76 a2 09 3d 4c 04 16 3d 64 c9 be bc 1f bc 3b 3d
       0.0336022 0.03662519 -0.02328939 0.045833703
0003f0 a6 a5 1b 3e 4e 36 79 3d f6 0f 05 3d ce 8c fc 3d
       0.15199909 0.060842805 0.032485925 0.12331544

encoder.cpu_model.net.network.4.bias f4 [64]
000000 35 e7 d6 3d 8d 7b 13 3e f5 f1 6c 3d 00 19 d9 bd
       0.10493318 0.144026 0.057847936 -0.106004715
000010 b4 f8 16 3d ed 54 17 bd e1 fb 82 3e f0 b5 93 3e
       0.036858276 -0.036946226 0.25582793 0.28849745
000020 8d f7 1c 3e 0e 66 29 bd ff 59 0b 3e 82 9f 76 3e
       0.15328808 -0.041357093 0.1360855 0.24084285
000030 01 02 9d bd da df fa ba 02 7b f6 bd e4 3e 5b 3e
       -0.07666398 -0.0019140199 -0.12035181 0.2141071
000040 91 98 bf 3d a4 48 84 3e 31 90 71 bd 7f 6a 8d bc
       0.093552716 0.2583667 -0.058975402 -0.017262695
000050 93 50 df bc c6 c3 bf bd 75 e2 0d 3d ea 50 2d 3d
       -0.0272601 -0.09363513 0.034639794 0.042313494
000060 1d ac 65 3c 30 f5 81 3d c3 8d 7b 3e 71 65 b3 3d
       0.014018086 0.06345594 0.24565797 0.08759583
000070 1d 58 a9 3d 7f 55 30 be 9f 72 a7 bd 09 9a 7f bd
       0.082687594 -0.17220114 -0.08176159 -0.06240276
000080 de 3e 88 3d 98 de 1e 3d 00 89 25 bc 21 bc 26 3e
       0.06652616 0.0387865 -0.010103464 0.16282703
000090 21 a2 c8 3d 63 29 45 3e 0d a0 79 3d 46 3c c5 3d
       0.09796549 0.19254069 0.060943652 0.09630637
0000a0 d8 2b cd bd 95 d0 84 3e a7 0a fe bc fc 92 b2 bc
       -0.10018128 0.25940385 -0.031010939 -0.021798603
0000b0 92 00 62 bd 17 3b 04 3d 77 4f 30 be 70 91 87 3e
       -0.055176325 0.032282915 -0.17217813 0.26478148
0000c0 73 f2 cd 3c 0c ce 39 bd 94 78 84 3d f6 9c 85 3d
       0.025140023 -0.045362517 0.06468311 0.065240785
0000d0 6d 9a 64 3d d9 0b ca 3d ed 7a 44 bd 5b 84 cc 3d
       0.055811334 0.09865541 -0.047968794 0.09986182
0000e0 92 c4 05 3e 1c 9c 28 3e 69 5d b4 3d c7 ff a6 3c
       0.13063267 0.16465801 0.08806879 0.020385636
0000f0 e6 cf 14 3d d1 a1 3f be c2 f8 f6 bd 96 ad cd bd
       0.03633108 -0.18714072 -0.120591655 -0.100428745

encoder.cpu_model.net.network.5.weight f4 [64]
000000 20 d5 7f 3f 9f 9c 77 3f 44 23 71 3f ad d2 6d 3f
       0.9993458 0.9672336 0.94194436 0.9289959
000010 f9 3e 81 3f 69 ed 86 3f 9a da 8c 3f 33 d3 89 3f
       1.0097343 1.0541202 1.1004212 1.0767578
000020 89 11 82 3f 4e 5c 70 3f 6d 46 7f 3f d3 ed 8b 3f
       1.0161601 0.93890846 0.99716836 1.0931953
000030 a0 e7 72 3f 83 25 77 3f 37 2d 66 3f 37 09 81 3f
       0.9488468 0.96541613 0.8991274 1.0080937
000040 ee 7d 88 3f dd 9a 8d 3f 75 67 8c 3f cd 1f 73 3f
       1.0663431 1.1062886 1.0969073 0.949704
000050 95 41 79 3f 19 e6 69 3f 80 90 6d 3f bf d3 77 3f
       0.97365695 0.91366726 0.92798615 0.96807474
000060 f0 55 88 3f fb 1a 5d 3f fb 00 83 3f b5 71 7c 3f
       1.0651226 0.86369294 1.0234674 0.98611003
000070 19 40 5e 3f 30 98 81 3f 94 e8 79 3f 80 b0 7c 3f
       0.86816555 1.0124569 0.9762051 0.9870682
000080 c0 49 65 3f e7 61 80 3f 66 d7 6c 3f dc ac 7f 3f
       0.8956566 1.0029877 0.9251617 0.9987314
000090 9c 0d 8b 3f 83 08 88 3f e7 e9 8e 3f 4a cf 8b 3f
       1.0863528 1.0627598 1.1165131 1.0922635
0000a0 a7 8f 69 3f 4f 06 94 3f e8 af 5f 3f 99 a7 73 3f
       0.9123482 1.1564425 0.87377787 0.9517761
0000b0 91 18 72 3f 02 56 88 3f 53 9c 6c 3f 10 09 8a 3f
       0.94568735 1.0651248 0.9242603 1.0784016
0000c0 6c 5d 72 3f 64 8b 6c 3f 2a 10 89 3f f6 7c 6f 3f
       0.946738 0.92400193 1.0708058 0.9355005
0000d0 85 1d 75 3f d7 0d 83 3f a7 8f 69 3f 27 d3 82 3f
       0.9574817 1.0238599 0.9123482 1.0220689
0000e0 aa e2 7e 3f 9f a4 8b 3f 71 90 80 3f bc a3 86 3f
       0.9956461 1.0909613 1.004408 1.0518718
0000f0 c7 ab 86 3f 82 9c 75 3f 4e 95 7b 3f 48 f2 73 3f
       1.0521172 0.95941937 0.98274696 0.95291567

encoder.cpu_model.net.network.5.bias f4 [64]
000000 80 0f 5e 3d bd 7a 22 bd 57 00 13 bd df 01 40 bd
       0.054214 -0.039667834 -0.035888996 -0.046876784
000010 8a 62 77 bd b5 15 23 bc 4c 25 9d 3d dc c1 94 bc
       -0.06039671 -0.009953906 0.076731294 -0.018158846
000020 0e 6b 8b 3c 42 fd 18 bd 80 be 1e 3c 78 ac 46 3d
       0.017018821 -0.0373509 0.009688973 0.048504323
000030 68 11 ed bd 05 ef f9 bd 6d 2d 33 bd 79 58 4c 3d
       -0.115755856 -0.122037925 -0.043744493 0.04988906
000040 fd d0 9b 3c 9b 11 b5 3d ef 35 75 3c b6 3d cb bd
       0.019020552 0.088412486 0.014966472 -0.0992388
000050 a1 a8 fd bc d7 11 00 bc f5 b7 df bd cd ad b7 bc
       -0.030964198 -0.007816753 -0.10923759 -0.022421742
000060 6a e9 54 3c a4 0d 90 bd 91 65 65 3d d1 e4 57 be
       0.012995103 -0.07033852 0.056005064 -0.2108338
000070 9f 37 e1 bd 37 93 95 bb 66 16 ac 3d a8 38 03 bd
       -0.10996937 -0.0045646685 0.0840271 -0.032036453
000080 60 38 1f bd bb 9f 8e bb 54 d0 32 bc 68 c7 b9 bc
       -0.038872123 -0.0043525374 -0.010913927 -0.022678092
000090 87 7f bd 3c dc 1a 8e 3d 7c ae c3 3d 67 f4 5b 3d
       0.023132099 0.06938717 0.09554765 0.053699877
0000a0 57 10 a3 bd 0e a0 cf 3d 1c aa 7d bd e3 74 88 bc
       -0.07962101 0.1013795 -0.061929807 -0.016657298
0000b0 f2 40 96 bd 3c 04 35 3c db 4c 36 bc b2 bf 6d 3d
       -0.07336606 0.011048373 -0.011126722 0.058044143
0000c0 31 7a 28 bc 72 22 19 bd 14 f1 c0 bc 74 40 37 bd
       -0.010283039 -0.037386365 -0.023552455 -0.0447392
0000d0 81 54 34 be bc ce f6 3d d9 7e 76 bd 96 be b0 bb
       -0.1761036 0.1205115 -0.060179565 -0.0053938134
0000e0 45 bd c5 bc a2 26 9f 3d fb d8 f9 bc f2 f5 0a 3d
       -0.024138102 0.077710405 -0.030498972 0.033925958
0000f0 ff 65 96 3d 1c 8d eb bc fa f7 55 bd ab 6a b3 bc
       0.07343673 -0.02875381 -0.052238442 -0.02190145
