results/c6b3818f_2025-01-09 05:57:06/model.ckpt (torch_old, 651797 bytes, 89 tensors)

encoder.latency_model.net.network.0.weight f4 [32, 1, 3]
-0.12580904 0.32355878 -0.43787783 -0.13011076 -0.28249955 -0.24860689 -0.08486251 -0.43710226
-0.5687465 0.17696987 -0.26151264 0.52050275 -0.21035798 0.45176396 -0.2569025 0.3905967
0.19986676 -0.27673712 0.00024220286 0.2135234 -0.73303425 -0.0026071905 -0.4044728 -0.61786246
0.23779564 -0.32379812 0.07019114 -0.54664326 0.20779553 0.32758692 0.56832236 0.42468828
-0.010212946 -0.1061658 0.5479687 0.27686355 -0.2244519 0.16126168 -0.4069201 -0.26439753
-0.22792839 -0.24851242 0.5146136 -0.007293185 -0.5138342 0.15095553 -0.14999592 0.51968753
-0.36692262 0.079994686 -0.24661942 0.13387248 0.14086927 0.021249684 0.0016188923 0.0033787626
0.37096924 0.07568048 0.19154243 0.587306 -0.17735317 0.019798333 0.14218764 0.34473503
-0.06578386 -0.28612357 0.049239222 -0.41980797 -0.3315691 -0.1727205 0.5886185 -0.47014198
-0.002716068 -0.0042922623 -0.151497 0.07251459 -0.4148345 -0.43332994 -0.019985287 -0.23737289
-0.2979314 0.024196528 -0.48304737 0.23949201 -0.018592821 -0.0892076 0.45367628 0.30506086
0.45738196 0.34973967 0.18900621 -0.29724684 -0.13909855 0.00018930287 -0.18534707 -0.45592386
00000000: 16d4 00be 7fa9 a53e 8631 e0be c13b 05be
00000010: c8a3 90be ce92 7ebe 65cc adbd decb dfbe
00000020: 5f99 11bf 9737 353e fce4 85be ab3f 053f
00000030: 1568 57be 9b4d e73e b988 83be 4afc c73e
00000040: dfa9 4c3e 7db0 8dbe d6f7 7d39 e1a5 5a3e
00000050: 22a8 3bbf 66dd 2abb 0f17 cfbe 3c2c 1ebf
00000060: b380 733e dec8 a5be 5fc0 8f3d d0f0 0bbf
00000070: 5ac8 543e 79b9 a73e 937d 113f be70 d93e
00000080: 3354 27bc 746d d9bd ad47 0c3f 0fc1 8d3e
00000090: b8d6 65be c821 253e d557 d0be 1d5f 87be
000000a0: 0f66 69be 0a7a 7ebe b8bd 033f acfb eebb
000000b0: a38a 03bf 1694 1a3e 8898 19be 3e0a 053f
000000c0: 48dd bbbe 41d4 a33d cd89 7cbe de15 093e
000000d0: 0940 103e d113 ae3c 0331 d43a 3b6e 5d3b
000000e0: aeef bd3e 5efe 9a3d b323 443e b059 163f
000000f0: 129c 35be 1d30 a23c a399 113e 1c81 b03e
00000100: b0b9 86bd ca7e 92be 11af 493d 12f1 d6be
00000110: 6dc3 a9be a5dd 30be b4af 163f 73b6 f0be
00000120: 0f00 32bb 1ba6 8cbb 0822 1bbe 8882 943d
00000130: 3065 d4be 6cdd ddbe 2fb8 a3bc e111 73be
00000140: 778a 98be cc37 c63c fc51 f7be 653d 753e
00000150: f94f 98bc 79b2 b6bd 4248 e83e f030 9c3e
00000160: f82d ea3e 1411 b33e d88a 413e bd30 98be
00000170: da6f 0ebe 9a7f 4639 9fcb 3dbe da6e e9be

encoder.latency_model.net.network.0.bias f4 [32]
-0.20165183 -0.24383168 0.38668507 -0.4804523 0.12567475 0.20399648 -0.28119263 0.3624604
0.36068857 -0.3978558 -0.47542813 0.061591573 0.5245013 -0.4454754 0.44010893 -0.38917422
0.36123955 0.05603627 -0.18865816 0.40562937 0.43214804 0.24341239 -0.17264387 -0.20019782
0.114645265 -0.0691823 0.56333655 0.550611 -0.04178939 0.50045955 -0.20717452 -0.0796421
00000000: d17d 4ebe 03af 79be 96fb c53e d8fd f5be
00000010: e2b0 003e 74e4 503e 7bf8 8fbe 6994 b93e
00000020: 2cac b83e c1b3 cbbe 516b f3be 7247 7c3d
00000030: b845 063f 5a15 e4be f555 e13e d841 c7be
00000040: 64f4 b83e 4a86 653d 9b2f 41be a7ae cf3e
00000050: 8242 dd3e 1941 793e 8ec9 30be a800 4dbe
00000060: 23cb ea3d 73af 8dbd d336 103f d8f4 0c3f
00000070: 5a2b 2bbd 1e1e 003f 8f25 54be 661b a3bd

encoder.latency_model.net.network.1.weight f4 [32]
1.0128177 1.1626738 1.1636195 0.95885193 1.0031644 0.77120876 1.1974237 1.1767414
1.1112688 0.8480573 0.8972758 0.97815126 1.0243034 1.0280975 1.078353 0.97325647
1.0961579 0.7073323 0.9634479 0.8994055 0.98246133 1.0460293 1.1300737 0.8605373
1.1773611 1.1805427 1.2003981 1.1057211 0.8939943 0.899956 1.0762056 1.1803565
00000000: 03a4 813f 7fd2 943f 7cf1 943f 5277 753f
00000010: b167 803f f06d 453f 2e45 993f 769f 963f
00000020: 0e3e 8e3f 491a 593f deb3 653f 1f68 7a3f
00000030: 601c 833f b398 833f 7907 8a3f 5627 793f
00000040: e74e 8c3f bb13 353f 86a4 763f 703f 663f
00000050: 9682 7b3f 4ae4 853f 41a6 903f 2c4c 5c3f
00000060: c5b3 963f 061c 973f a5a6 993f 4588 8d3f
00000070: cfdc 643f 8463 663f 1bc1 893f ec15 973f

encoder.latency_model.net.network.1.bias f4 [32]
-0.066572934 -0.05042911 0.001735729 0.20963074 0.00040452677 0.024197139 0.03412231 -0.006217486
-0.009923531 -0.00033930736 0.1809157 -0.58562773 -0.103536285 -0.10902457 -0.0019607772 -0.5086015
0.013202185 -0.015891975 -0.05359977 0.3405629 -0.0010483663 -0.0058340738 -0.045212027 -0.009029681
0.01372704 0.008450739 0.026480533 -0.022601811 -0.4777012 0.3762184 0.0961525 0.020294473
00000000: 6457 88bd c18e 4ebd 6781 e33a 71a9 563e
00000010: aa16 d439 1439 c63c d6c3 0b3d 0ebc cbbb
00000020: 4e96 22bc 10e5 b1b9 f741 393e b3eb 15bf
00000030: d50a d4bd 4648 dfbd 6280 00bb b533 02bf
00000040: fa4d 583c e32f 82bc 6f8b 5bbd 435e ae3e
00000050: 5669 89ba c22b bfbb 3f30 39bd 3af1 13bc
00000060: 61e7 603c f874 0a3c b4ed d83c 6f27 b9bc
00000070: 4095 f4be b39f c03e 9aeb c43d 9840 a63c

encoder.latency_model.net.network.1.running_mean f4 [32]
-4988.915 -13695.473 -22597.068 9026.16 -283.11838 6473.596 -10686.869 -21239.627
-312.87216 -252.71107 20332.943 14913.131 -9770.858 -15344.9375 -128.29947 10833.441
-11065.692 6121.533 7762.769 17687.242 -329.49835 -165.75728 -14548.49 -1117.6844
-3297.267 -16060.49 -11503.848 -4510.5034 7174.6147 23037.188 -5029.737 -13294.152
00000000: 52e7 9bc5 e4fd 55c6 238a b0c6 a408 0d46
00000010: 278f 8dc3 c54c ca45 7afb 26c6 41ef a5c6
00000020: a36f 9cc3 09b6 7cc3 e3d9 9e46 8604 6946
00000030: 6fab 18c6 c0c3 6fc6 aa4c 00c3 c445 2946
00000040: c5e6 2cc6 444c bf45 2796 f245 7c2e 8a46
00000050: cabf a4c3 ddc1 25c3 f651 63c6 e7b5 8bc4
00000060: 4614 4ec5 f6f1 7ac6 64bf 33c6 07f4 8cc5
00000070: eb34 e045 60fa b346 e52d 9dc5 9cb8 4fc6

encoder.latency_model.net.network.1.running_var f4 [32]
5.9547894e+09 2.72506e+10 7.547157e+10 1.4001679e+10 2.5425933e+09 9.518223e+09 2.1543086e+10 6.791008e+10
1.4685821e+09 6.177189e+09 6.237346e+10 3.4941166e+10 1.4697476e+10 3.3817594e+10 7.7976806e+09 1.8569712e+10
1.8055578e+10 5.5483837e+09 9.711845e+09 4.676381e+10 7.7479174e+08 2.987705e+09 3.2347392e+10 5.190627e+09
1.7264874e+09 3.9667032e+10 1.972523e+10 5.618229e+09 9.319118e+09 7.673386e+10 5.1797473e+09 2.6879287e+10
00000000: 7077 b14f 6508 cb50 a693 8c51 2ba4 5050
00000010: e58c 174f 24d5 0d50 2d82 a050 19fc 7c51
00000020: 9211 af4e 3618 b84f f85b 6851 7e2a 0251
00000030: 6c02 5b50 f1f5 fb50 9563 e84f ea5a 8a50
00000040: 4886 8650 cf5a a54f c0b7 1050 7235 2e51
00000050: 89b9 384e c314 324f c101 f150 57b1 9a4f
00000060: 37d0 cd4e 6ec5 1351 e4f6 9250 b06f a74f
00000070: 9ddd 0a50 8eed 8e51 565e 9a4f 2c44 c850

encoder.latency_model.net.network.4.weight f4 [64, 32, 3]
0.03808905 -0.05384025 -0.005641825 0.008537901 0.08763608 0.08996776 -0.01271117 0.09674008
0.12946057 0.06789293 0.01974738 0.0778647 -0.14790897 0.033463523 0.054908205 0.2026329
0.038781296 0.1258247 0.12714547 0.020184027 0.058180198 -0.04283609 0.1343355 -0.0003705459
-0.014246641 -0.07224782 -0.043846875 -0.056517743 -0.099976994 -0.1135626 0.071463965 -0.059869666
-0.05934182 -0.07502717 -0.09222105 -0.04072927 0.07480486 0.07376763 -0.11181899 -0.020459745
0.041191977 0.14204895 -0.032066666 0.0038411764 0.032480065 0.066951886 -0.058962274 0.033193186
0.09957879 0.13296187 0.0053970693 0.1700914 0.06259104 0.091441534 0.12943839 0.13664399
0.21555449 0.11906595 0.010693094 0.16711207 -0.14827593 -0.005216916 -0.023809431 -0.091516554
-0.103304066 -0.15240861 0.034123514 0.04863058 0.070440724 -0.05624624 -0.040002782 -0.026821071
0.071954235 0.027273731 0.06732602 0.14437167 0.119135946 -0.026792262 0.07880354 0.107254036
0.095029406 0.009982262 0.001845513 0.0004067905 0.0920547 -0.004143801 -0.06546307 0.08649597
-0.017994134 -0.030938884 0.035832763 -0.009565198 -0.14563839 -0.008350332 -0.012502393 0.085605025
0.025825266 -0.07965331 -0.07839193 -0.019234106 -0.007494778 -0.0065349448 0.041251823 0.017206674
0.0037324843 0.03520793 0.12679829 0.029611738 0.12510711 -0.050579593 0.055779316 0.014161344
-0.014194784 -0.07203873 0.065858945 -0.04656879 0.14019366 0.07637274 0.105957836 0.05469207
-0.06276911 0.023625765 0.019690285 -0.025716973 -0.021620495 0.030473702 0.012184071 0.08751434
-0.09432956 0.14553837 0.027734222 0.0036778834 0.15734725 0.033246044 0.11893765 0.07181711
-0.006870011 0.05114888 0.0079924045 -0.034138154 0.054616865 -0.018625678 0.12491968 -0.039985362
0.03883975 0.12799478 -0.025723977 0.054604508 0.09827483 -0.07838359 -0.062113713 0.16168341
-0.045743175 0.025647191 0.0986277 -0.042336162 0.014984375 0.06578137 -0.09798356 -0.057617582
-0.106597245 -0.01652835 0.059768923 0.05854177 0.06734015 -0.00070743315 -0.08451862 -0.062324714
0.11075717 0.095437944 -0.023983095 0.03443922 -0.016394354 0.1497722 0.032858517 -0.008309385
0.105926804 0.03633202 0.11392739 -0.009971209 -0.0131668085 0.015567003 -0.016040009 0.008608919
-0.009133444 -0.035016846 0.048676137 0.05257036 -0.013821966 0.092204385 0.03987576 -0.01372087
-0.018356279 -0.061507296 -0.029625392 0.11548398 0.012357581 0.17351833 0.023588032 0.057893243
-0.041298438 0.041954167 0.0045861313 0.03673741 0.06656995 -0.12182277 0.001065034 0.016054304
-0.06916249 0.050261885 0.16789451 0.10307615 -0.019205868 0.028008731 0.13867067 -0.029001106
0.021024136 -0.07462696 -0.02396115 0.08966002 -0.007129434 -0.05392585 0.062548764 -0.16910537
0.17924081 0.12519215 0.008296755 -0.013874386 0.051589154 0.069666915 0.05544431 0.066449195
-0.008484246 0.040413246 0.11577561 -0.15740153 0.05841462 -0.018449036 -0.010441338 0.07451731
0.22858134 0.17251985 0.099675044 -0.057982925 -0.034658723 0.033339426 0.033327222 -0.040802468
0.11487987 -0.030020574 -0.055190578 0.046513468 0.13079797 0.12464987 0.011304067 0.015171574
00000000: 4403 1c3d 9887 5cbd 0fdf b8bb 8de2 0b3c
00000010: 8c7a b33d 0441 b83d 8342 50bc aa1f c63d
00000020: 5091 043e 730b 8b3d 42c5 a13c 8777 9f3d
00000030: 7375 17be 0c11 093d 6de7 603d 007f 4f3e
00000040: 23d9 1e3d 31d8 003e 6c32 023e f958 a53c
00000050: 5c4e 6e3d e574 2fbd 3f8f 093e d445 c2b9
00000060: be6a 69bc aaf6 93bd c898 33bd 267f 67bd
00000070: bdc0 ccbd 8293 e8bd b35b 923d e539 75bd
00000080: 6910 73bd d8a7 99bd 64de bcbd bcd3 26bd
00000090: 4a33 993d 7c13 973d 5b01 e5bd 329b a7bc
000000a0: ebb8 283d 4875 113e 5658 03bd 3fbc 7b3b
000000b0: d109 053d 121e 893d 6d82 71bd 94f5 073d
000000c0: f7ef cb3d 2827 083e e6d9 b03b 712c 2e3e
000000d0: bb2f 803d b345 bb3d 7f8b 043e 67ec 0b3e
000000e0: 51ba 5c3e d9d8 f33d 1632 2f3c 6d1f 2b3e
000000f0: a5d5 17be aaf2 aabb ff0b c3bc 086d bbbd
00000100: 1591 d3bd 0111 1cbe 19c5 0b3d dc30 473d
00000110: 3a43 903d 7562 66bd f5d9 23bd ddb7 dbbc
00000120: be5c 933d 296d df3c 39e2 893d 2bd6 133e
00000130: 8cfd f33d 727b dbbc c063 a13d 01a8 db3d
00000140: c79e c23d a48c 233c 24e5 f13a 7f46 d539
00000150: 2d87 bc3d b9c8 87bb 8111 86bd cd24 b13d
00000160: 6f68 93bc 8b73 fdbc 60c5 123d 59b7 1cbc
00000170: 3b22 15be d5cf 08bc d6d6 4cbc b051 af3d
00000180: 828f d33c 4621 a3bd f38b a0bd d890 9dbc
00000190: c196 f5bb 1723 d6bb acf7 283d 03f5 8c3c
000001a0: b29c 743b 3136 103d 69d7 013e 5194 f23c
000001b0: 141c 003e 8c2c 4fbd da78 643d fb04 683c
000001c0: 3d91 68bc 0b89 93bd 0ee1 863d eabe 3ebd
000001d0: ed8e 0f3e 5069 9c3d 6c00 d93d cb04 603d
000001e0: 178d 80bd d28a c13c 854d a13c 67ac d2bc
000001f0: 771d b1bc fca3 f93c b39f 473c b83a b33d
00000200: db2f c1bd 0308 153e e132 e33c a508 713b
00000210: a31f 213e 012d 083d 9595 f33d d914 933d
00000220: d41d e1bb 7d81 513d 93f2 023c 73d4 0bbd
00000230: efb5 5f3d e194 98bc e4d5 ff3d b1c7 23bd
00000240: 6e16 1f3d 1011 033e 17bb d2bc faa8 5f3d
00000250: 5044 c93d 9387 a0bd f36a 7ebd 5690 253e
00000260: 325d 3bbd 0f1a d23c 52fd c93d af68 2dbd
00000270: 0681 753c 62b8 863d 9bab c8bd 6a00 6cbd
00000280: a84f dabd 7666 87bc 42d0 743d 7fc9 6f3d
00000290: a2e9 893d 0973 39ba 1918 adbd 3348 7fbd
000002a0: a8d4 e23d f874 c33d 3278 c4bc 2410 0d3d
000002b0: 744d 86bc e25d 193e a796 063d 1624 08bc
000002c0: 27f0 d83d e2d0 143d c352 e93d 485e 23bc
000002d0: 99b9 57bc be0c 7f3c 5666 83bc 6c0c 0d3c
000002e0: 71a4 15bc d36d 0fbd a160 473d 0554 573d
000002f0: 8775 62bc a7d5 bc3d c454 233d 80cd 60bc
00000300: e85f 96bc 13ef 7bbd f3b0 f2bc dd82 ec3d
00000310: 7477 4a3c caae 313e b03b c13c 7721 6d3d
00000320: 8d28 29bd 22d8 2b3d 4247 963b f779 163d
00000330: d355 883d 377e f9bd 9c98 8b3a 5184 833c
00000340: 10a5 8dbd 68df 4d3d 8aec 2b3e 9719 d33d
00000350: a055 9dbc 9172 e53c afff 0d3e ba93 edbc
00000360: cf3a ac3c 05d6 98bd 2c4a c4bc ac9f b73d
00000370: 079e e9bb 5ae1 5cbd 9119 803d f529 2dbe
00000380: e78a 373e 5f32 003e 1def 073c 6551 63bc
00000390: 264f 533d 87ad 8e3d 9319 633d 8416 883d
000003a0: 8201 0bbc 5c88 253d c31b ed3d de2d 21be
000003b0: 2b44 6f3d 6f22 97bc 2512 2bbc 889c 983d
000003c0: 3a11 6a3e 0ba9 303e 6e22 cc3d 817f 6dbd
000003d0: 4ef6 0dbd ec8e 083d 2082 083d 7d20 27bd
000003e0: 2346 eb3d b5ed f5bc 840f 62bd e884 3e3d
000003f0: e7ef 053e 6e48 ff3d b234 393c 3292 783c

encoder.latency_model.net.network.4.bias f4 [64]
-0.228358 -0.10116945 0.18561913 -0.53397125 -0.013810419 0.17677912 -0.22612545 0.8758067
-0.22796759 0.05263993 -0.007849909 -0.45614412 0.20989929 -0.24775234 -0.11664188 0.026188467
-0.10111368 -0.70723885 -0.6898648 0.31630087 0.10062773 -0.25539413 -0.186262 0.10286655
-0.019416297 -0.01729189 -0.21250656 0.5822035 -0.05385965 0.25599936 -0.23320402 0.2797286
0.27438056 0.46470532 -0.23075558 0.041396145 0.25644833 -0.01965692 -0.06232733 -0.11221695
0.4448076 -0.67354065 -0.32175288 -0.4239639 -0.0018074936 -0.8883444 0.7119038 -0.062818035
0.037124604 -0.32759154 -0.3042493 -0.21134847 0.0011862981 -0.23700096 0.75241363 -0.24985223
-0.13659836 -0.5670491 0.030395051 -0.17667337 0.005580085 0.21505028 -0.23454668 -0.4737773
00000000: aed6 69be ee31 cfbd f112 3e3e 57b2 08bf
00000010: 1845 62bc 9605 353e 6e8d 67be de34 603f
00000020: 5670 69be f89c 573d e89c 00bc b98b e9be
00000030: d7ef 563e cab2 7dbe f0e1 eebd 3289 d63c
00000040: b014 cfbd 9b0d 35bf fb9a 30bf 30f2 a13e
00000050: e915 ce3d 05c3 82be 77bb 3ebe b3ab d23d
00000060: ed0e 9fbc b9a7 8dbc 529b 59be 4a0b 153f
00000070: f09b 5cbd 5912 833e 09cd 6ebe 9638 8f3e
00000080: 9c7b 8c3e dbed ed3e 314b 6cbe 018f 293d
00000090: 324d 833e 8d07 a1bc f14a 7fbd 00d2 e5bd
000000a0: d2bd e33e 296d 2cbf cbbc a4be cc11 d9be
000000b0: 6ce9 ecba 8a6a 63bf 543f 363f bea6 80bd
000000c0: f80f 183d 14ba a7be 90c6 9bbe bc6b 58be
000000d0: 8f7d 9b3a 61b0 72be 2e9e 403f 43d9 7fbe
000000e0: 71e0 0bbe 212a 11bf 0bff f83c dde9 34be
000000f0: 25d9 b63b 2436 5c3e 012d 70be f092 f2be

encoder.latency_model.net.network.5.weight f4 [64]
1.0129514 0.8785739 1.0044446 1.156844 0.9114739 0.9519854 0.9435674 1.3051322
0.9200596 0.957725 0.8934339 0.9628555 1.0782073 0.9462699 0.94994164 1.0153637
1.0357193 0.99913365 1.0554345 1.0426834 0.91899234 0.939404 1.0176005 0.9614902
0.90117335 0.95252997 0.9180938 1.1415747 1.0573778 0.96726906 0.927582 1.0772446
1.0560366 1.2450835 1.0336205 0.9146567 1.0557678 0.94417936 1.0522536 1.1140527
1.1251968 1.0535702 0.9748509 0.9427791 1.1200496 1.0147444 1.1248505 0.9765257
1.1256236 1.0672642 0.97875655 0.9241051 0.8766885 1.0034391 1.2827115 1.0203791
0.90841615 0.9711113 1.0171851 1.0280585 1.0233146 1.0499219 0.95378375 1.0358934
00000000: 64a8 813f 38ea 603f a491 803f 7713 943f
00000010: 5a56 693f 51b5 733f a28d 713f 920e a73f
00000020: 0789 6b3f 772d 753f 16b8 643f b37d 763f
00000030: b202 8a3f bf3e 723f 602f 733f 70f7 813f
00000040: 7392 843f 39c7 7f3f 7a18 873f a676 853f
00000050: 1543 6b3f c87c 703f bc40 823f 3924 763f
00000060: 4cb3 663f 01d9 733f 3208 6b3f 1f1f 923f
00000070: 2858 873f f29e 773f 0476 6d3f 27e3 893f
00000080: 352c 873f e55e 9f3f ad4d 843f f126 6a3f
00000090: 6623 873f bdb5 713f 3fb0 863f 4799 8e3f
000000a0: 7306 903f 63db 863f d48f 793f f959 713f
000000b0: c95d 8f3f 25e3 813f 1afb 8f3f 97fd 793f
000000c0: 6f14 903f 1d9c 883f ca8f 7a3f 2792 6c3f
000000d0: a86e 603f b170 803f e42f a43f c89b 823f
000000e0: f68d 683f c09a 783f 1f33 823f 6c97 833f
000000f0: f9fb 823f d763 863f 2c2b 743f 2898 843f

encoder.latency_model.net.network.5.bias f4 [64]
0.022497246 -0.05286771 0.07764046 0.09769221 -0.18318428 0.0005890509 0.06816396 0.036785282
0.05772997 0.008676411 0.054569095 0.057285413 -0.10946887 0.025195565 0.065649234 0.21723218
0.045163944 0.09234014 0.12719417 -0.054796305 0.05878252 0.0757789 0.07168269 0.079626285
0.0072255097 -0.029489545 0.044082664 0.036568187 0.10167431 -0.057827346 0.10123189 0.07654845
-0.13842787 0.016098699 -0.071781196 0.07963172 -0.08585139 0.068317056 -0.030795375 0.10289382
0.041462395 0.0809637 0.062213555 0.0691021 -0.07563292 0.077272795 0.026962304 -0.03636703
-0.021999938 0.07600886 0.05044909 0.07210837 -0.18164812 -0.033711158 0.015396786 0.20746303
-0.00052849273 0.059216704 -0.031714186 0.081747085 -0.02498504 0.05260973 0.09758028 0.07323953
00000000: 254c b83c d08b 58bd f601 9f3d da12 c83d
00000010: a994 3bbe 896a 1a3a 8c99 8b3d 2aac 163d
00000020: 4376 6c3d 8127 0e3c d883 5f3d 1ca4 6a3d
00000030: 3731 e0bd ee66 ce3c 1b73 863d 1d72 5e3e
00000040: d4fd 383d d41c bd3d 303f 023e 1772 60bd
00000050: f1c5 703d f831 9b3d 60ce 923d 1b13 a33d
00000060: f8c3 ec3b 0f94 f1bc 0690 343d 86c8 153d
00000070: 9f3a d03d 5edc 6cbd aa52 cf3d 6fc5 9c3d
00000080: 09c0 0dbe 6be1 833c 0502 93bd f515 a33d
00000090: dbd2 afbd d0e9 8b3d 9546 fcbc ffb9 d23d
000000a0: 79d4 293d 4cd0 a53d a4d3 7e3d 6785 8d3d
000000b0: 6fe5 9abd 3341 9e3d 0de0 dc3c 98f5 14bd
000000c0: 3739 b4bc 88aa 9b3d b4a3 4e3d 8ead 933d
000000d0: f701 3abe b614 0abd cd42 7c3c 3071 543e
000000e0: 8c8a 0aba 378d 723d bce6 01bd 046b a73d
000000f0: 6dad ccbc 4d7d 573d 2bd8 c73d 9bfe 953d

encoder.latency_model.net.network.5.running_mean f4 [64]
0.01730659 0.06373705 0.47762248 -0.8597585 0.09854257 0.41478682 -0.15713067 0.75255394
-0.0732073 0.014691924 0.08935686 -0.4566143 0.50173336 -0.2976432 -0.05700796 0.3615297
-0.3909109 -0.7230763 -0.60062736 0.45734537 0.33922344 -0.2602713 -0.29607975 0.42575663
0.26486015 0.31317988 0.013553761 0.41622856 0.04571785 0.45858365 0.07906468 0.08171308
0.53720677 0.3530912 -0.22682175 0.21621752 0.41819617 -0.026718661 -0.071732335 -0.08614229
0.2583675 -0.72923243 -0.2895773 -0.39959025 -0.087555856 -0.9083952 0.53390926 -0.15102075
0.060924843 -0.37052587 -0.03808535 -0.14386526 0.32970154 0.0047675283 0.6614307 -0.0014818006
0.06328027 -0.48487297 0.050808676 -0.058769464 -0.12410181 -0.047682412 -0.054817762 -0.35086545
00000000: 8dc6 8d3c 9288 823d ef8a f43e 2219 5cbf
00000010: b0d0 c93d f05e d43e dde6 20be 60a7 403f
00000020: b5ed 95bd 65b6 703c bb00 b73d 59c9 e9be
00000030: 9971 003f b164 98be 2e81 69bd 6c1a b93e
00000040: 7925 c8be 871b 39bf b7c2 19bf 2c29 ea3e
00000050: b2ae ad3e 4842 85be c497 97be c6fc d93e
00000060: c09b 873e 1d59 a03e 9810 5e3c e91b d53e
00000070: a442 3b3d 7acb ea3e aaec a13d 3059 a73d
00000080: 6286 093f 5fc8 b43e f643 68be 2068 5d3e
00000090: cf1d d63e 18e1 dabc 67e8 92bd 5e6b b0bd
000000a0: bf48 843e faae 3abf 7a43 94be 1897 ccbe
000000b0: 7c50 b3bd 968c 68bf 47ae 083f 2fa5 1abe
000000c0: 548c 793d 91b5 bdbe 62ff 1bbd 6a51 13be
000000d0: a4ce a83e ed38 9c3b 8653 293f fa38 c2ba
000000e0: 1699 813d 4541 f8be c21c 503d 40b8 70bd
000000f0: 1729 febd a24e 43bd 9788 60bd a3a4 b3be

encoder.latency_model.net.network.5.running_var f4 [64]
0.67026854 0.30291498 0.3391593 0.1018455 0.29417557 0.45543212 0.24962053 0.38563564
0.29161012 0.18378277 0.5773795 0.3892364 0.25546002 0.2878673 0.5130548 0.156906
0.32416236 0.48077202 0.9932371 0.28969482 0.7102931 0.25597906 0.35821888 0.26849866
1.1785202 1.6722608 1.1635942 0.25439113 0.66263366 0.16064364 0.31414357 0.2563455
0.21810159 0.56256455 0.39189002 0.33770004 0.3056358 0.39173913 0.22500592 0.71558267
0.2448063 0.807262 0.28578675 0.32487598 0.43020204 0.20480263 0.2968157 0.59918416
0.25184372 1.1725076 0.8484779 0.23770365 0.3641994 0.44133276 0.35236233 0.17296933
0.27999386 0.2570575 0.28120583 0.22351876 0.45394865 0.6180235 0.81330115 0.15079296
00000000: b896 2b3f ac17 9b3e 4aa6 ad3e 6094 d03d
00000010: 2e9e 963e 662e e93e 869c 7f3e 0972 c53e
00000020: ec4d 953e 8d31 3c3e 25cf 133f fe49 c73e
00000030: a8cb 823e 5863 933e 8f57 033f f7ab 203e
00000040: 9cf8 a53e c027 f63e c944 7e3f e152 943e
00000050: c5d5 353f b00f 833e 7768 b73e a878 893e
00000060: c0d9 963f a40c d63f a8f0 943f 8e3f 823e
00000070: 5ca2 293f c47f 243e 6dd7 a03e b83f 833e
00000080: 0656 5f3e 3b04 103f cfa5 c83e 05e7 ac3e
00000090: 4c7c 9c3e 0892 c83e f467 663e 6d30 373f
000000a0: 81ae 7a3e b9a8 4e3f a452 923e 2556 a63e
000000b0: 7143 dc3e c8b7 513e 3af8 973e 2264 193f
000000c0: a9f1 803e bb14 963f d935 593f 9668 733e
000000d0: 5878 ba3e 5ef6 e13e d668 b43e df1e 313e
000000e0: 5b5b 8f3e 0a9d 833e 36fa 8f3e 1ae2 643e
000000f0: f56b e83e ca36 1e3f 8134 503f 7869 1a3e

encoder.latency_model.attn_layer.atten_w f4 [20, 64, 1]
0.1517048 0.011826757 0.24519652 0.37525314 0.077996954 -0.1196802 0.10276326 0.060536172
0.13097584 0.25742593 0.19376794 0.09521696 -0.040689204 0.36659497 -0.48227736 -0.1754717
0.37817 -0.018810978 0.22145604 0.0073245354 0.15366873 0.32421622 0.33957016 -0.2260703
0.08587223 -0.11261119 0.14696111 -0.010705433 0.058697518 0.33325693 0.3860485 0.23211342
0.17715555 -0.022764992 0.24109076 0.266019 -0.23947904 0.05465815 0.38193706 -0.052305352
0.18431672 0.2560124 0.34647804 0.32831362 0.09793897 0.22461145 0.029657578 0.11044446
-0.18921411 -0.19062832 -0.12419659 0.40285227 0.07284529 -0.08105091 0.12541485 -0.12241188
0.1290834 0.041484933 0.3495462 0.103469566 -0.14569432 -0.09771307 0.35526773 -0.22037713
-0.003237672 -0.22028853 -0.011233724 0.09746694 -0.11176446 -0.003356449 0.32781047 0.32756022
0.14694609 -0.09581297 0.23046188 -0.19319297 0.20710583 0.3617169 0.27489477 -0.07162804
-0.033583652 0.023945425 -0.043706447 -0.23044172 -0.08807781 0.19927908 -0.052017566 0.25026014
-0.039282586 -0.03966247 0.1701796 0.05588932 -0.08811451 -0.20480597 0.10845549 0.041327994
0.23874025 -0.08689948 -0.37202722 0.25038135 0.25067016 0.21864258 -0.17569573 0.19452465
0.13902193 0.12013321 0.10089418 0.06121918 0.14780541 0.27812165 -0.26985762 0.00032995112
0.26169518 0.30668625 -0.2170859 -0.20041075 0.25420523 -0.009499139 0.20974968 -0.08049461
0.2760541 -0.10643405 -0.13700518 -0.0027258436 0.046982095 0.07643092 0.21897542 -0.05595451
0.35419527 0.095174626 0.18352899 0.3248983 0.28657514 -0.0049750437 0.10110319 -0.10360767
-0.17876866 -0.08631992 0.14305319 0.00068085425 0.24063225 0.116031915 0.18312018 0.05539415
0.16150196 0.07457603 0.40104032 -0.20525137 0.34198737 0.121785715 0.41766116 -0.120568566
0.067371376 0.29332548 0.05512436 0.49798414 0.3860461 0.26903105 0.11168371 0.0098522585
0.36193344 -0.040864963 -0.033180203 0.13238521 -0.08277497 0.008953719 0.30370504 -0.09077836
-0.09211516 0.21871834 0.27140993 0.3046774 0.41200727 0.48213595 0.019762885 0.28281003
0.23301335 -0.10677027 0.27142128 -0.20446007 0.335816 0.13232642 -0.16418119 -0.03720572
-0.13604118 -0.1415984 0.07356049 0.06080299 -0.29811367 0.37168616 0.29654866 0.32945827
-0.012600443 -0.1135481 -0.23214789 0.013780307 -0.18555917 -0.044470143 0.01250598 -0.24350354
0.09113075 -0.09020601 -0.089661025 -0.01936594 -0.32788906 0.18058734 0.032220848 0.10644269
0.3356059 -0.24009244 0.35014677 -0.39059612 -0.098464794 0.091583975 0.10550819 -0.1914541
0.10039439 0.27229494 0.14213386 0.25254416 0.2784937 -0.14264797 -0.2584709 0.24284688
-0.2722045 0.14054553 -0.25541323 0.13043249 -0.41824913 0.057210796 -0.36669987 0.24472651
-0.21429658 0.18686755 0.084746644 0.27691257 -0.23983233 -0.20193839 -0.15585603 -0.23216362
-0.24714197 0.31375512 -0.15183334 -0.28315228 -0.2655281 -0.16897956 0.10784413 -0.1316191
-0.10224315 -0.25193092 -0.28838545 0.21213396 0.22415355 0.15595722 0.3029183 -0.18455029
00000000: 8158 1b3e 04c5 413c cc14 7b3e 2e21 c03e
00000010: debc 9f3d e51a f5bd 8b75 d23d c7f4 773d
00000020: 881e 063e 55cd 833e 1a6b 463e 1c01 c33d
00000030: b9a9 26bd 56b2 bb3e 0fed f6be daae 33be
00000040: 809f c13e 7b19 9abc 5fc5 623e a802 f03b
00000050: 565b 1d3e abff a53e 24dc ad3e f97e 67be
00000060: c8dd af3d b2a0 e6bd f97c 163e d765 2fbc
00000070: cf6c 703d a7a0 aa3e 26a8 c53e 24af 6d3e
00000080: 4468 353e a67d babc 7fe0 763e a433 883e
00000090: fe39 75be 39e1 5f3d 418d c33e 233e 56bd
000000a0: 86bd 3c3e 0f14 833e 9265 b13e b918 a83e
000000b0: 3a94 c83d 8b00 663e 73f4 f23c b430 e23d
000000c0: 58c1 41be 1234 43be c85a febd a742 ce3e
000000d0: e92f 953d 05fe a5bd c06c 003e 14b3 fabd
000000e0: 702e 043e 1bec 293d b8f7 b23e dae7 d33d
000000f0: e430 15be ca1d c8bd a7e5 b53e 8baa 61be
00000100: 1f2f 54bb 5193 61be a70d 38bc bf9c c73d
00000110: c4e4 e4bd dff7 5bbb c6d6 a73e f9b5 a73e
00000120: 0979 163e 9739 c4bd 33fe 6b3e 61d4 45be
00000130: 8d13 543e f532 b93e 02bf 8c3e b9b1 92bd
00000140: 038f 09bd 3229 c43c 8805 33bd eaf8 6bbe
00000150: 2462 b4bd d10f 4c3e 5f10 55bd 1922 803e
00000160: c7e6 20bd 1d75 22bd 9043 2e3e 33ec 643d
00000170: 6175 b4bd a8b8 51be e91d de3d 8b47 293d
00000180: 5378 743e 5bf8 b1bd 5a7a bebe fc31 803e
00000190: d757 803e d7e3 5f3e 95e9 33be 7831 473e
000001a0: c45b 0e3e 6708 f63d 9ca1 ce3d f6c0 7a3d
000001b0: 4d5a 173e f665 8e3e c72a 8abe 4afd ac39
000001c0: e9fc 853e fb05 9d3e c44b 5ebe 7a38 4dbe
000001d0: 3027 823e 47a2 1bbc 9fc8 563e 5cda a4bd
000001e0: f756 8d3e 18fa d9bd 164b 0cbe 11a4 32bb
000001f0: 4c70 403d d087 9c3d 183b 603e 8e30 65bd
00000200: 1559 b53e eaea c23d 06ef 3b3e 1259 a63e
00000210: fab9 923e b105 a3bb 300f cf3d 4230 d4bd
00000220: 220f 37be 80c8 b0bd 897c 123e 5b7b 323a
00000230: 4d68 763e 24a2 ed3d db83 3b3e fae4 623d
00000240: c560 253e 51bb 983d 2855 cd3e 6a2d 52be
00000250: f818 af3e ca6a f93d afd7 d53e a7ec f6bd
00000260: 01fa 893d c22e 963e 15ca 613d c7f7 fe3e
00000270: d6a7 c53e 70be 893e 6eba e43d 5e6b 213c
00000280: 574f b93e 0562 27bd f7e7 07bd fd8f 073e
00000290: ec85 a9bd 9fb2 123c 3a7f 9b3e 01ea b9bd
000002a0: dfa6 bcbd b3f7 5f3e 3ef6 8a3e adfe 9b3e
000002b0: 9ef2 d23e 86da f63e c6e5 a13c 7acc 903e
000002c0: 0d9b 6e3e 5faa dabd bbf7 8a3e fb5d 51be
000002d0: 13f0 ab3e 9480 073e 1d1f 28be 0665 18bd
000002e0: 614e 0bbe 2cff 10be e2a6 963d 8e0c 793d
000002f0: 5ba2 98be a64d be3e 3ad5 973e c1ae a83e
00000300: 1772 4ebc e88b e8bd 2db8 6dbe ccc6 613c
00000310: 3903 3ebe 5326 36bd e2e5 4c3c fe58 79be
00000320: c2a2 ba3d eebd b8bd 33a0 b7bd 52a5 9ebc
00000330: 13e1 a7be e3eb 383e 02fa 033d a0fe d93d
00000340: 89d4 ab3e cbda 75be 7046 b33e 37fc c7be
00000350: e9a7 c9bd 6190 bb3d ae14 d83d 8b0c 44be
00000360: 939b cd3d 3e6a 8b3e 8a8b 113e 784d 813e
00000370: ba96 8e3e 4f12 12be 4c56 84be daac 783e
00000380: 635e 8bbe 2beb 0f3e 86c5 82be 1890 053e
00000390: c024 d6be de55 6a3d 16c0 bbbe 9699 7a3e
000003a0: 9070 5bbe 355a 3f3e a68f ad3d 7cc7 8d3e
000003b0: 9b96 75be f0c8 4ebe b998 1fbe 4dbc 6dbe
000003c0: c912 7dbe 83a4 a03e 337a 1bbe 56f9 90be
000003d0: 4df3 87be fa08 2dbe 62dd dc3d 28c7 06be
000003e0: db64 d1bd 17fd 80be 42a7 93be a539 593e
000003f0: 8288 653e 40b3 1f3e 1b18 9b3e c0fa 3cbe

encoder.latency_model.attn_layer.atten_bias f4 [20, 1, 1]
0.10663268 0.1407245 0.16620584 0.16108155 0.09376904 0.17180404 0.060605716 0.009867848
0.06385237 0.0758902 0.09298314 0.08873036 0.07867205 0.11434143 0.04044331 0.022691205
0.11832519 0.06756056 0.16272749 0.12737168
00000000: 3c62 da3d 151a 103e dd31 2a3e 90f2 243e
00000010: fc09 c03d 66ed 2f3e b33d 783d c1ac 213c
00000020: 08c5 823d 526c 9b3d f26d be3d 43b8 b53d
00000030: d01e a13d d72b ea3d e2a7 253d e8e2 b93c
00000040: 7a54 f23d 315d 8a3d 09a2 263e b96d 023e

encoder.cpu_model.net.network.0.weight f4 [32, 1, 3]
-0.23071273 0.38933986 -0.3248696 -0.49238634 0.073174484 -0.1220153 -0.16384281 -0.6617601
-0.25978094 0.23402229 -0.14030713 -0.3729132 -0.55282533 -0.41739297 0.30573815 -0.33382428
0.41575983 -0.532528 0.22222531 -0.012903395 -0.21123868 -0.029604238 0.028086865 -0.37233308
0.5537956 0.20033562 0.08641665 0.13718422 -0.13955271 -0.25604925 0.49876606 -0.5035551
-0.4145979 -0.42739516 0.42072946 -0.39502075 -0.41153046 -0.45559406 -0.48882613 -0.14853513
0.35705543 -0.41985703 0.37634903 -0.22808218 -0.6232405 -0.5344571 0.09539241 -0.21590102
-0.17479937 0.3185319 -0.6064732 -0.075459294 0.110767595 0.4690514 -0.5895213 0.09832145
0.19672818 -0.23721004 0.52638465 -0.23195915 -0.26005533 0.2366992 -0.65137726 -0.037868354
-0.38071296 -0.31711078 -0.48258704 0.47507942 0.5007626 0.55541295 0.3723742 -0.30998996
0.52416193 -0.2565267 -0.570499 -0.54339635 -0.119721614 -0.12509954 0.263945 -0.45817202
0.5548288 0.54228884 -0.36004826 -0.331824 -0.19679011 0.27503732 0.049841907 0.56784487
-0.5315054 -0.5457888 0.517087 -0.12421292 0.20137466 -0.3829322 0.57503533 0.49718124
00000000: f53f 6cbe 8e57 c73e 4f55 a6be 101a fcbe
00000010: 81dc 953d 28e3 f9bd 69c6 27be 1c69 29bf
00000020: 0202 85be 8aa3 6f3e acac 0fbe 7bee bebe
00000030: f685 0dbf 88b4 d5be b689 9c3e 04eb aabe
00000040: 79de d43e c153 08bf 088f 633e c368 53bc
00000050: f44e 58be 9684 f2bc 6d16 e63c 71a2 bebe
00000060: 8cc5 0d3f c824 4d3e 36fb b03d 057a 0c3e
00000070: e8e6 0ebe e318 83be 445e ff3e fde8 00bf
00000080: 2d46 d4be 8ad3 dabe da69 d73e 2940 cabe
00000090: 1fb4 d2be a043 e9be 6b47 fabe 9819 18be
000000a0: f8cf b63e 80f7 d6be d2b0 c03e 608e 69be
000000b0: b08c 1fbf 2ed2 08bf 195d c33d 2815 5dbe
000000c0: 9bfe 32be 9d16 a33e d441 1bbf 678a 9abd
000000d0: 1fda e23d 8127 f03e deea 16bf c25c c93d
000000e0: 1d73 493e 30e7 72be 25c1 063f b386 6dbe
000000f0: f925 85be 4661 723e a9c0 26bf d91b 1bbd
00000100: cfec c2be 585c a2be a615 f7be 9c3d f33e
00000110: fa31 003f 8b2f 0e3f d5a7 be3e 01b7 9ebe
00000120: 7a2f 063f 7857 83be 390c 12bf 061c 0bbf
00000130: 9b30 f5bd 181a 00be cd23 873e 8695 eabe
00000140: 4309 0e3f 71d3 0a3f 3f58 b8be d6e4 a9be
00000150: 5983 49be b1d1 8c3e 0727 4c3d 485e 113f
00000160: bd10 08bf d1b8 0bbf d05f 043f 5863 febd
00000170: 2935 4e3e b00f c4be 8435 133f 8a8e fe3e

encoder.cpu_model.net.network.0.bias f4 [32]
0.29462963 0.40786406 0.5757995 0.12709373 -0.028939608 0.55331063 0.5357837 -0.54106295
0.538143 0.25895712 -0.3354863 0.48913485 0.4693432 0.20423965 0.19463329 0.15784946
-0.49574825 -0.24495618 -0.21264482 0.51581186 0.18005723 0.19668329 -0.45771167 0.25895756
-0.31226087 -0.40145808 -0.1480008 -0.39594778 0.39044458 -0.41954958 0.47491738 0.04856486
00000000: b2d9 963e 8fd3 d03e 9967 133f dc24 023e
00000010: c212 edbc c4a5 0d3f 1f29 093f 1a83 0abf
00000020: bdc3 093f 0796 843e dcc4 abbe e26f fa3e
00000030: c04d f03e 3324 513e f34d 473e 4aa3 213e
00000040: b7d2 fdbe cbd5 7abe 90bf 59be 3f0c 043f
00000050: ec60 383e 5867 493e 2f59 eabe 1696 843e
00000060: a8e0 9fbe ea8b cdbe 868d 17be abb9 cabe
00000070: 5ae8 c73e 34cf d6be 5f28 f33e f2eb 463d

encoder.cpu_model.net.network.1.weight f4 [32]
0.9492645 1.0258632 1.0330383 0.9986608 0.96651226 0.9836036 0.92270064 1.0450208
0.99816394 1.0069062 1.0006248 0.95092887 0.95612854 1.0327247 0.9912176 0.98833376
0.9521316 1.0102768 1.0509685 1.0151466 0.9434697 0.9952135 1.0621247 1.0162302
0.962302 0.96942365 1.0120814 0.9946307 1.0385259 1.0097655 0.97471786 1.0517826
00000000: 0003 733f 7c4f 833f 993a 843f 3ca8 7f3f
00000010: 596d 773f 72cd 7b3f 1c36 6c3f 3ec3 853f
00000020: ac87 7f3f 4de2 803f 7914 803f 1370 733f
00000030: d7c4 743f 5330 843f 70c0 7d3f 7103 7d3f
00000040: e6be 733f c050 813f 2386 863f 53f0 813f
00000050: 3b87 713f 50c6 7e3f b4f3 873f d513 823f
00000060: 6d59 763f 262c 783f e28b 813f 1ea0 7e3f
00000070: 6bee 843f ff3f 813f 1c87 793f d0a0 863f

encoder.cpu_model.net.network.1.bias f4 [32]
0.04296474 0.09321957 0.058727432 -0.019877836 0.057414964 0.07743849 -0.036149092 0.07186486
-0.054611024 0.06702071 0.05848613 0.058435004 -0.05505685 0.05725885 -0.036669113 0.031562626
0.06424138 -0.062639974 0.08624026 -0.04986841 0.05528734 0.07813538 -0.0004760049 0.009026794
-0.012348581 0.043079123 0.008765666 0.045242168 -0.043760553 0.049293924 -0.09056443 -0.004551325
00000000: ccfb 2f3d e7e9 be3d 2d8c 703d d8d6 a2bc
00000010: f42b 6b3d 1298 9e3d 1211 14bd e22d 933d
00000020: cfaf 5fbd 2742 893d 278f 6f3d 8b59 6f3d
00000030: 4b83 61bd 4288 6a3d 5a32 16bd d047 013d
00000040: fc90 833d 6349 80bd bc9e b03d d142 4cbd
00000050: fa74 623d 7105 a03d 4c90 f9b9 1ee5 133c
00000060: b451 4abc bc73 303d de9d 0f3c da4f 393d
00000070: 443e 33bd 6de8 493d d879 b9bd 4823 95bb

encoder.cpu_model.net.network.1.running_mean f4 [32]
-47.865757 -154.32477 -309.363 -79.75641 -190.33682 -127.30087 -0.21175359 -107.13189
240.35565 -73.58789 -120.2151 -114.457375 -386.99487 -59.986645 -135.87889 -186.8503
-132.3898 144.72 -85.13765 16.846798 -192.34581 -209.96965 142.17976 176.64238
-87.28526 -225.54253 103.43914 -43.527527 38.382946 -145.77812 169.83702 198.73381
00000000: 8976 3fc2 2453 1ac3 77ae 9ac3 4883 9fc2
00000010: 3a56 3ec3 0c9a fec2 efd5 58be 8743 d6c2
00000020: 0c5b 7043 002d 93c2 226e f0c2 2dea e4c2
00000030: 587f c1c3 53f2 6fc2 ffe0 07c3 add9 3ac3
00000040: ca63 04c3 52b8 1043 7a46 aac2 3ec6 8641
00000050: 8758 40c3 3bf8 51c3 052e 0e43 73a4 3043
00000060: 0e92 aec2 e38a 61c3 d7e0 ce42 301c 2ec2
00000070: 2388 1942 33c7 11c3 47d6 2943 dbbb 4643

encoder.cpu_model.net.network.1.running_var f4 [32]
14962.072 117253.59 467068.66 39874.652 194443.28 82847.02 4646.163 56860.7
279436.72 30186.004 95086.54 67109.34 717952.1 22159.822 113858.195 168805.27
89674.805 107388.61 49745.277 8109.4775 181127.62 215182.81 126071.805 169605.33
67126.266 245286.34 58183.668 30909.45 10246.411 137895.2 138935.3 214713.84
00000000: 4ac8 6946 cc02 e547 950f e448 a7c2 1b47
00000010: d2e2 3d48 83cf a147 4e31 9145 b31c 5e47
00000020: 9771 8848 02d4 eb46 45b7 b947 ac12 8347
00000030: 0248 2f49 a51f ad46 1961 de47 51d9 2448
00000040: 6725 af47 4ebe d147 4751 4247 d26b fd45
00000050: e8e1 3048 b423 5248 e73b f647 55a1 2548
00000060: 221b 8347 9689 6f48 ab47 6347 e67a f146
00000070: a519 2046 cda9 0648 d3ad 0748 76ae 5148

encoder.cpu_model.net.network.4.weight f4 [64, 32, 3]
0.029747656 0.11315627 0.07703053 0.11884164 0.107857786 0.04741982 0.10109389 -0.0179984
-0.020107519 -0.006123522 0.025758417 -0.07266459 0.05757674 0.020697625 0.119121924 0.07502069
0.034953844 -0.026866306 0.06243542 -0.049417328 0.10759912 -0.041155428 -0.028995218 -0.032358315
0.10083355 0.09184672 0.07915241 0.023449382 0.052765265 0.040172935 0.09470504 0.074617006
-0.043725334 0.13019098 -0.0515431 -0.045493152 0.042811353 0.11714761 -0.021552017 0.061031736
0.0010431104 0.03514501 -0.066951275 0.09954778 0.04629021 0.055331774 0.084951214 -0.05463365
0.052296076 0.07967896 0.030957738 0.1411026 0.093761556 0.09993453 0.032960683 0.14452167
-0.03001519 -0.012011532 0.060467448 0.091094844 0.06885655 0.12109196 -0.023252903 0.050526854
0.006530239 0.101510294 -0.054289762 0.20162487 0.1482955 0.079473175 0.04418464 0.13278557
-0.018571028 -0.035617243 0.014355729 0.10271716 -0.018250927 -0.025747709 0.08713304 0.04650168
-0.025822962 0.11495586 0.09784 -0.022306519 0.022407297 0.064784005 0.047738455 0.102202654
0.076241344 0.0730395 0.08116037 0.039687898 0.021518653 -0.027518414 0.030561604 0.04890662
0.09667625 -0.004747872 0.066329114 0.11288998 0.10955545 0.08183624 0.00589809 0.09186104
0.087995924 0.19528759 0.027329654 0.015068098 0.030145204 0.071465306 0.13597114 0.054313395
0.089979015 -0.014806946 -0.009627768 0.05890484 0.016099883 0.07533799 0.13758752 0.15468928
0.057240773 0.06787104 0.08088662 0.14204697 0.13615365 0.04683055 0.13844989 0.0067819846
0.13301747 0.1858216 0.044325855 0.06023453 0.18735407 0.02675621 0.05209688 0.04861342
0.12748761 0.08590144 0.18176675 0.047221966 0.18670267 0.1907352 -0.0025455696 0.04540036
0.034471236 -0.0055173603 0.062585115 0.021688605 -0.021347411 -0.05414436 0.18102948 0.027698085
0.04485469 0.11683894 0.052518073 0.083573826 0.0535335 0.09868769 0.008231078 0.12633108
-0.016715555 0.035931665 0.07523905 0.0636332 0.009108604 -0.08383442 0.011551497 0.011395522
0.16110438 0.11987568 0.09035624 0.10315439 0.08094469 0.14125188 -0.080939144 0.011208704
-0.0015975715 0.03848862 0.06319954 0.05103595 -0.050134532 -0.06560155 0.028020881 0.13438326
0.08696118 -0.0066104312 -0.062441807 0.007110256 -0.0760095 0.0589125 0.09089869 0.01771144
0.055683218 0.009218267 0.20422378 -0.030142376 0.011005837 0.23567231 -0.034934297 0.050892666
0.19494677 -0.010541583 -0.0045303153 0.15648183 0.009258855 0.04346257 0.15108493 0.026839772
-0.01597837 0.22381018 -0.058125515 0.028206555 -0.012861147 -0.08563596 -0.01574266 0.1383525
-0.07751634 -0.010964372 0.03228278 -0.09249702 0.20556179 0.12508519 0.0791562 0.14625013
0.205199 -0.01365894 -0.025965871 0.18940718 0.06328809 -0.0024558932 0.16907278 -0.04049672
-0.026488267 0.14096989 -0.019403942 0.19838293 0.18286656 0.02250349 -0.05434801 0.23735592
-0.10744331 0.04933786 0.2041466 0.05512534 0.025708025 -0.049361333 -0.02892556 0.06849626
0.10509843 -0.104183674 -0.17537639 -0.013867778 -0.012221985 0.00835351 0.11538556 0.02306261
00000000: 5bb1 f33c 79be e73d 2fc2 9d3d 3f63 f33d
00000010: 8be4 dc3d 493b 423d 500a cf3d 6171 93bc
00000020: 86b8 a4bc d3a7 c8bb 5103 d33c 2cd1 94bd
00000030: 96d5 6b3d 118e a93c 32f6 f33d 73a4 993d
00000040: c32b 0f3d ba16 dcbc 48bc 7f3d d369 4abd
00000050: ed5c dc3d 9892 28bd 6187 edbc 278a 04bd
00000060: d281 ce3d 221a bc3d a91a a23d eb18 c03c
00000070: 6420 583d 608c 243d b7f4 c13d cdd0 983d
00000080: 5619 33bd c950 053e dc1e 53bd 0757 3abd
00000090: f55a 2f3d 16eb ef3d db8d b0bc 6afc 793d
000000a0: fab8 883a 37f4 0f3d c01d 89bd b5df cb3d
000000b0: ce9a 3d3d 92a3 623d e7fa ad3d 89c7 5fbd
000000c0: 6934 563d b92e a33d 159b fd3c 337d 103e
000000d0: 0f06 c03d 7aaa cc3d c801 073d 7dfd 133e
000000e0: 6ae2 f5bc 04cc 44bc b7ac 773d ef8f ba3d
000000f0: aa04 8d3d 10ff f73d df7c bebc 3ff5 4e3d
00000100: 9dfb d53b a1e4 cf3d f15e 5ebd c076 4e3e
00000110: c7da 173e d5c2 a23d f4fa 343d f1f8 073e
00000120: 4522 98bc 63e3 11bd 4b34 6b3c 605d d23d
00000130: f882 95bc dcec d2bc cf72 b23d 8c78 3e3d
00000140: ad8a d3bc fa6d eb3d 5760 c83d 29bc b6bc
00000150: 828f b73c 7aad 843d 6689 433d a04f d13d
00000160: 6c24 9c3d bc95 953d 6837 a63d c78f 223d
00000170: e347 b03c 4c6e e1bc 545c fa3c 4f52 483d
00000180: 33fe c53d 0994 9bbb 8fd7 873d dd32 e73d
00000190: 9c5e e03d c299 a73d c444 c13b a421 bc3d
000001a0: 3537 b43d 78f9 473e 70e2 df3c 2fe0 763c
000001b0: 13f3 f63c 675c 923d 053c 0b3e b977 5e3d
000001c0: eb46 b83d d598 72bc c9bd 1dbc 3446 713d
000001d0: e7e3 833c ce4a 9a3d bee3 0c3e de66 1e3e
000001e0: 4d75 6a3d f9ff 8a3d e2a7 a53d c374 113e
000001f0: dd6b 0b3e 64d1 3f3d cfc5 0d3e 693b de3b
00000200: bb35 083e 0448 3e3e 078f 353d 7cb8 763d
00000210: bfd9 3f3e d72f db3c 8a63 553d de1e 473d
00000220: 1d8c 023e 18ed af3d 1021 3a3e d26b 413d
00000230: fc2e 3f3e 1750 433e 92d3 26bb baf5 393d
00000240: b631 0d3d f9ca b4bb a02c 803d 4dac b13c
00000250: c4e0 aebc 7ac6 5dbd cb5f 393e 18e7 e23c
00000260: 8db9 373d 4149 ef3d 311d 573d c128 ab3d
00000270: f145 5b3d c61c ca3d a5db 063c ef5c 013e
00000280: 0fef 88bc 152d 133d ee16 9a3d 2052 823d
00000290: 413c 153c 61b1 abbd 7d42 3d3c 49b4 3a3c
000002a0: 8cf8 243e 6181 f53d b10c b93d 9c42 d33d
000002b0: 54c6 a53d 55a4 103e 6cc3 a5bd b6a4 373c
000002c0: 9b65 d1ba 3ea6 1d3d c36e 813d 130b 513d
000002d0: de59 4dbd 1b5a 86bd 0c8c e53c c49b 093e
000002e0: b418 b23d 519c d8bb fbc2 7fbd 26fd e83b
000002f0: deaa 9bbd 3c4e 713d 1829 ba3d 9517 913c
00000300: 1614 643d 3708 173c 0a20 513e 25ed f6bc
00000310: d351 343c 1554 713e 4417 0fbd d474 503d
00000320: 20a0 473e 9bb6 2cbc 0a73 94bb c63c 203e
00000330: 74b2 173c cf05 323d 02b6 1a3e 15df db3c
00000340: 12e5 82bc 7f2e 653e 0515 6ebd 6f11 e73c
00000350: 8fb7 52bc e861 afbd c0f6 80bc 47ac 0d3e
00000360: e3c0 9ebd e9a3 33bc f33a 043d 146f bdbd
00000370: ca7e 523e 5516 003e a51c a23d 98c2 153e
00000380: b01f 523e bfc9 5fbc 61b6 d4bc f5f3 413e
00000390: 309d 813d 0df3 20bb 6a21 2d3e e3df 25bd
000003a0: ecfd d8bc 695a 103e 04f5 9ebc e524 4b3e
000003b0: 5f41 3b3e 3d59 b83c 059c 5ebd 6e0d 733e
000003c0: 3d0b dcbd 7f16 4a3d ce0b 513e 1ccb 613d
000003d0: a399 d23c 1c2f 4abd 4cf5 ecbc c447 8c3d
000003e0: d83d d73d 405e d5bd de95 33be ad35 63bc
000003f0: b83e 48bc 29dd 083c 444f ec3d cced bc3c

encoder.cpu_model.net.network.4.bias f4 [64]
0.05298269 0.17053588 0.27883136 -0.0008636719 0.20507577 -0.040658183 0.1285165 -0.08471468
0.32566604 0.034170102 -0.30558497 -0.14815657 0.13586707 0.121972054 0.3545969 0.11923777
-0.08823151 0.27189466 0.11531061 0.4180578 0.058485225 0.20070823 0.04963093 0.080051675
0.21292074 0.24399306 0.3055601 -0.085850626 -0.047398213 -0.053592958 0.12557888 0.17357515
0.08700253 -0.2293341 -0.1570312 0.09563253 0.036696006 -0.01373086 0.13020751 -0.12815946
0.27117813 -0.070373796 0.03375731 0.1772663 0.15193129 0.0641352 0.2491473 0.29358497
0.18985952 0.02300241 0.045080513 0.39357486 0.058268968 0.09345374 -0.24229722 0.46479902
0.038683563 0.09381296 0.060194362 0.14237666 0.23477276 -0.1062849 -0.09453835 0.057887685
00000000: 6104 593d f5a0 2e3e fcc2 8e3e 0a68 62ba
00000010: 62ff 513e 3289 26bd d499 033e e47e adbd
00000020: b3bd a63e f3f5 0b3d a275 9cbe 5bb6 17be
00000030: bd20 0b3e 7ccc f93d ba8d b53e ef32 f43d
00000040: b9b2 b4bd c735 8b3e f827 ec3d ac0b d63e
00000050: 348e 6f3d 7586 4d3e cd49 4b3d 22f2 a33d
00000060: e507 5a3e 51d9 793e 6072 9c3e 74d2 afbd
00000070: a124 42bd 4a84 5bbd c097 003e afbd 313e
00000080: 622e b23d 8fd6 6abe c9cc 20be fdda c33d
00000090: 8d4e 163d 67f7 60bc 1e55 053e 3c3c 03be
000000a0: dcd7 8a3e 2320 90bd 1b45 0a3d 4c85 353e
000000b0: e093 1b3e 5159 833d 7820 7f3e c550 963e
000000c0: 896a 423e 8d6f bc3c 58a6 383d a582 c93e
000000d0: 71ab 6e3d ad64 bf3d c31c 78be 23fa ed3e
000000e0: a872 1e3d 0221 c03d 5d8e 763d 30cb 113e
000000f0: 4568 703e e6ab d9bd 539d c1bd a31b 6d3d

encoder.cpu_model.net.network.5.weight f4 [64]
0.9520333 1.0555094 1.0261134 0.94742006 0.9919694 1.0059134 1.0226908 0.9885769
0.9710361 0.9525546 1.1236179 1.1190358 1.0272075 0.8173261 0.9002565 0.91404045
1.140142 1.0337292 1.0391865 1.0031935 1.0064116 0.9673867 1.0310155 0.95182794
0.90046126 0.98896325 1.0100973 1.0117868 1.0544173 1.0108521 1.0106872 0.9467267
0.9826808 1.1838179 1.0153022 0.9766421 1.0307683 1.006804 0.8369594 1.0163871
1.0086547 1.126312 1.0322661 0.94790417 0.98800063 1.0843049 0.9361412 1.0776507
1.0140368 0.88275355 0.96470416 1.043883 1.090804 0.9852247 1.0087923 1.0267149
0.9467713 1.0738759 1.0163559 0.9602259 0.8010995 0.94135237 0.88290465 0.98981345
00000000: 74b8 733f ef1a 873f af57 833f 1f8a 723f
00000010: b5f1 7d3f c5c1 803f 88e7 823f 6013 7d3f
00000020: d295 783f 9eda 733f b6d2 8f3f 913c 8f3f
00000030: 897b 833f 493c 513f 3677 663f 8efe 693f
00000040: 2cf0 913f 3d51 843f 1004 853f a568 803f
00000050: 18d2 803f a8a6 773f 51f8 833f ffaa 733f
00000060: a184 663f b22c 7d3f de4a 813f 3b82 813f
00000070: 25f7 863f 9a63 813f 335e 813f ae5c 723f
00000080: f890 7b3f 5887 973f 6cf5 813f 3705 7a3f
00000090: 37f0 833f f4de 803f f942 563f f918 823f
000000a0: 991b 813f fe2a 903f 4c21 843f d9a9 723f
000000b0: 9ced 7c3f 81ca 8a3f f3a6 6f3f 75f0 893f
000000c0: f5cb 813f 23fc 613f daf6 763f f59d 853f
000000d0: 779f 8b3f b037 7c3f 1b20 813f 656b 833f
000000e0: 9b5f 723f c474 893f f317 823f 5dd1 753f
000000f0: db14 4d3f 78fc 703f 0a06 623f 6a64 7d3f

encoder.cpu_model.net.network.5.bias f4 [64]
-0.08717028 -0.021280373 -0.030907897 -0.04321166 0.047969494 -0.04954928 -0.10177923 -0.03861519
0.06156553 -0.026618926 0.0009973287 0.033737473 0.022331435 -0.1462845 0.017571118 -0.101890676
0.04059391 0.12662345 0.0051202253 0.13245101 -0.00039640267 -0.0001270369 -0.104842104 -0.045225002
-0.13724916 -0.0047888267 -0.05906913 -0.018980423 -0.0043820264 -0.047684804 -0.117505476 -0.018293668
0.00735972 0.02249503 -0.03260948 0.0243349 -0.11005358 -0.05179252 -0.10052535 -0.021080703
0.069737546 -0.0016030635 -0.049238615 -0.05846269 0.0012047506 -0.0104158865 -0.033786353 0.09033755
-0.10188353 -0.11830655 -0.036888897 -0.001457357 0.03373397 -0.035035294 -0.0470626 0.14843814
-0.05594907 0.0685998 0.028020546 0.09851764 -0.00022319889 -0.047947966 -0.05983877 0.015191826
00000000: 5586 b2bd 2d54 aebc 8f32 fdbc b6fe 30bd
00000010: a97b 443d 30f4 4abd a171 d0bd f62a 1ebd
00000020: 232c 7c3d ef0f dabc ccb8 823a 4e30 0a3d
00000030: 6af0 b63c 9bcb 15be 4ef1 8f3c 0fac d0bd
00000040: cd45 263d 94a9 013e 90c7 a73b 3da1 073e
00000050: 44d4 cfb9 3535 05b9 75b7 d6bd da3d 39bd
00000060: 0b8b 0cbe 97eb 9cbb 79f2 71bd d57c 9bbc
00000070: 1a97 8fbb 2451 43bd b6a6 f0bd 9adc 95bc
00000080: ce29 f13b 7f47 b83c 8591 05bd fc59 c73c
00000090: c563 e1bd 6524 54bd 3ce0 cdbd 70b1 acbc
000000a0: 8fd2 8e3d e31d d2ba 6eae 49bd 9376 6fbd
000000b0: b9e8 9d3a 65a7 2abc 8f63 0abd e502 b93d
000000c0: 50a8 d0bd b44a f2bd d018 17bd c904 bfba
000000d0: a22c 0a3d 2b81 0fbd b6c4 40bd 2b00 183e
000000e0: da2a 65bd 0d7e 8c3d 588b e53c 9ec3 c93d
000000f0: 7f0a 6ab9 1665 44bd 8019 75bd 23e7 783c

encoder.cpu_model.net.network.5.running_mean f4 [64]
0.9214831 1.3177872 1.1708192 0.34897214 0.43408638 0.8884327 0.86151874 0.2858477
-0.63331217 -0.36938357 -0.998169 -0.40323272 0.22597194 0.38602453 -0.22925706 -1.1326793
-0.9475796 -0.8287606 -0.81756693 -0.008409941 0.8010859 -0.7433834 1.0157381 0.43528172
1.0566049 -1.3215079 1.3612621 0.3922119 -0.28133264 0.53488666 0.8450837 0.06678295
-0.16218275 -1.1125863 -0.6690726 -0.8095675 0.7517363 0.6581727 -0.20780666 -0.7636959
-0.49739262 -0.86443865 1.2568367 -0.21429865 0.5349227 1.4256463 -0.41861567 -0.60705113
1.0384642 -0.48675403 -0.23673669 -0.7113928 -0.2435015 0.32935232 -0.8514475 -0.21369258
-0.16824092 -1.4089468 0.61990476 -1.0602028 -0.72481126 0.2276358 -0.3174888 -0.0028806687
00000000: 51e6 6b3f 40ad a83f 67dd 953f 7aac b23e
00000010: 9240 de3e 5370 633f 7e8c 5c3f a15a 923e
00000020: bf20 22bf d81f bdbe 0188 7fbf 8574 cebe
00000030: 3065 673e 02a5 c53e 5dc2 6abe a3fb 90bf
00000040: 9494 72bf a829 54bf 114c 51bf d9c9 09bc
00000050: f713 4d3f 604e 3ebf b503 823f 3fdd de3e
00000060: d43e 873f 2c27 a9bf d63d ae3f 00d0 c83e
00000070: d50a 90be 55ee 083f 6857 583f 80c5 883d
00000080: 3c13 26be 3a69 8ebf 5848 2bbf d13f 4fbf
00000090: ca71 403f 027e 283f 45cb 54be 9381 43bf
000000a0: 3faa febe da4b 5dbf 06e0 a03f 1b71 5bbe
000000b0: b2f0 083f 947b b63f cb54 d6be b467 1bbf
000000c0: 65ec 843f d337 f9be 1a6b 72be d71d 36bf
000000d0: 7558 79be dea0 a83e 77f8 59bf 3ad2 5abe
000000e0: 5947 2cbe 5e58 b4bf 14b2 1e3f bab4 87bf
000000f0: 3b8d 39bf 5c19 693e e48d a2be 9ac9 3cbb

encoder.cpu_model.net.network.5.running_var f4 [64]
1.3959711 0.6127924 0.69234186 1.6706462 1.560835 1.2076081 1.3042505 2.4392507
1.1941912 1.9823427 6.2197595 1.9968048 0.24887216 1.0394932 0.36143517 1.2233237
5.822236 0.88394094 0.78180456 0.39816862 0.7238468 1.7725867 2.0059898 1.8471175
0.61063373 1.3808148 0.76385504 2.9672172 3.5083435 4.142955 1.0758822 1.552945
1.6223079 7.567309 1.7616931 0.69146204 1.1176594 1.4608293 2.596888 2.937682
1.3680452 3.9231236 0.97304803 1.2531033 1.9420713 1.0782313 0.85054976 1.2974797
1.153503 0.92719716 1.329754 0.9502442 3.3300307 2.3047047 1.4825611 0.50789106
1.1281114 1.0632161 0.827289 1.0256623 0.6743994 1.5342889 2.9170344 1.6169451
00000000: 2eaf b23f f6df 1c3f 513d 313f bcd7 d53f
00000010: 71c9 c73f e792 9a3f aef1 a63f af1c 1c40
00000020: 42db 983f 68bd fd3f 4508 c740 4d97 ff3f
00000030: 58d8 7e3e 1d0e 853f 080e b93e df95 9c3f
00000040: c24f ba40 f449 623f 5824 483f c2dc cb3e
00000050: 064e 393f 1fe4 e23f 2362 0040 596e ec3f
00000060: 7e52 1c3f 8abe b03f 018c 433f e3e6 3d40
00000070: b388 6040 1693 8440 82b6 893f e7c6 c63f
00000080: c9a7 cf3f 6527 f240 297f e13f a803 313f
00000090: 770f 8f3f 74fc ba3f 6a33 2640 fb02 3c40
000000a0: 1b1c af3f 7514 7b40 ad19 793f b065 a03f
000000b0: cb95 f83f 7c03 8a3f a1bd 593f d113 a63f
000000c0: fca5 933f cb5c 6d3f 6135 aa3f 3443 733f
000000d0: 391f 5540 4880 1340 90c4 bd3f 2605 023f
000000e0: f465 903f 7717 883f 36c9 533f e748 833f
000000f0: 70a5 2c3f 9463 c43f b1b0 3a40 0ff8 ce3f
