results/5fe69b2d/model.ckpt (torch_old, 884408 bytes, 89 tensors)

encoder.latency_model.net.network.0.weight f4 [32, 1, 3]
0	0xbe512d44	-0.20427424
1	0xbed95686	-0.42448825
2	0x3dc205df	0.09473776
3	0x3cb46019	0.02201848
4	0x3e931c61	0.2873259
5	0x3f0b8498	0.54499197
6	0xbd965659	-0.07340688
7	0x3e88d8a8	0.26727796
8	0x3e9d9bba	0.30782872
9	0x3ed29ef2	0.4113689
10	0x3e5bcff6	0.2146605
11	0xbe449521	-0.19197513
12	0xbcb89fd9	-0.022537159
13	0x3ededcfa	0.43527967
14	0xbf07172c	-0.5276973
15	0xbf0e75a0	-0.5564823
16	0x3eebe2ea	0.4607156
17	0xbe06e6e2	-0.13174012
18	0xbe9fe4aa	-0.31229144
19	0xbee967c6	-0.45586985
20	0xbebe0a09	-0.3711703
21	0x3edabb79	0.42721155
22	0x3e8d0d12	0.27549034
23	0x3df0c06d	0.11755452
24	0x3e822393	0.25417766
25	0x3e1547bb	0.14578144
26	0x3f03bce8	0.51460123
27	0x3ef82469	0.4846528
28	0x3c2eece2	0.010676594
29	0x3dfa1c2d	0.12212405
30	0xbef65a55	-0.48115793
31	0x3eed7bfe	0.4638366
32	0x3e9b61fa	0.30348188
33	0x3dc9b7a0	0.09849477
34	0x3dac734a	0.08420427
35	0x3e42dbf5	0.1902922
36	0x3f0b81d4	0.54494977
37	0x3ed8209b	0.42212376
38	0xbe651e89	-0.2237493
39	0x3a605bd0	0.0008558603
40	0x3ebbaef0	0.36656904
41	0x3caeeaf2	0.021352265
42	0xbeefc31b	-0.4682854
43	0x3ebccca5	0.3687488
44	0xbefaf028	-0.4901135
45	0x3f11fa84	0.5702288
46	0xbd455107	-0.048172977
47	0x3e5a24b7	0.21303068
48	0xbeaf6b48	-0.34261537
49	0x3f0dbd0f	0.55366606
50	0x3c356984	0.01107252
51	0xbe4c14df	-0.19929837
52	0xbe2b7ad8	-0.1674608
53	0x3eac04b7	0.33597347
54	0xbe9a4a95	-0.30135027
55	0xbe9b019e	-0.3027467
56	0x3f04a0a6	0.5180763
57	0x3ed3064a	0.41215736
58	0xbe95b2c4	-0.2923795
59	0xbdeed870	-0.11662376
60	0xbf036e58	-0.51340246
61	0xbee4bb38	-0.44674087
62	0xbde6d29b	-0.112706386
63	0x3f092742	0.5357553
64	0xbdf315b4	-0.11869374
65	0x3eb47a33	0.3524948
66	0xbeb086dd	-0.34477893
67	0x3e98f468	0.29873967
68	0xbef3df5b	-0.47631344
69	0xbda6ab02	-0.08138086
70	0x3d1e5ec6	0.0386646
71	0xbeba8470	-0.36429167
72	0x3e84bd23	0.2592555
73	0x3ece3566	0.40275115
74	0xbea5198e	-0.3224606
75	0x3eddc9a3	0.433179
76	0xbdadadfc	-0.084804505
77	0xbdd3039f	-0.10303425
78	0x3bd81a20	0.006594911
79	0x3e8caeff	0.2747726
80	0xbe74af94	-0.23895103
81	0x3c1e6b3f	0.009669124
82	0xbc457173	-0.012050974
83	0x3dc871ad	0.09787307
84	0x3e7ee0bb	0.24890415
85	0x3ed70ad2	0.42000443
86	0xbf0c9586	-0.54915655
87	0x3f0f346c	0.55939364
88	0xbebd6bd7	-0.36996338
89	0xbede8574	-0.43461192
90	0x3f106214	0.56399655
91	0xbd80a900	-0.06282234
92	0xbf050810	-0.5196543
93	0x3e221401	0.15827943
94	0xbd1b29dd	-0.03788172
95	0x3ed45b47	0.4147589

encoder.latency_model.net.network.0.bias f4 [32]
0	0xbe375517	-0.17903553
1	0x3e9fb222	0.31190592
2	0xbe573c05	-0.2101899
3	0x3dab2c1b	0.08358022
4	0xbe0bf5cf	-0.13667987
5	0xbf0afbac	-0.5429027
6	0x3ed2df14	0.4118582
7	0xbee8121c	-0.45326316
8	0xbeefacac	-0.46811426
9	0x3ea10ca6	0.31454962
10	0xbcf18740	-0.029483438
11	0xbe3edb9c	-0.18638462
12	0x3f05123e	0.5198096
13	0xbe7f41d8	-0.24927461
14	0xbe8d0b18	-0.27547526
15	0x3ecba569	0.39774635
16	0x3e2a6681	0.16640665
17	0xbe49914e	-0.19684336
18	0xbe817249	-0.25282505
19	0x3f0ed57d	0.5579451
20	0xbec0e0ea	-0.37671596
21	0x3ddbd0cd	0.10733185
22	0x3e93e3a7	0.28884622
23	0x3ee50be3	0.4473563
24	0x3d57143c	0.05250953
25	0xbe5d2967	-0.21597825
26	0x3d907dd5	0.070552506
27	0xbd012e23	-0.03153814
28	0x3e6086c4	0.21926409
29	0xbcb0ff43	-0.021606093
30	0xbef73a75	-0.48286787
31	0xbe8380fd	-0.25684348

encoder.latency_model.net.network.1.weight f4 [32]
0	0x3f831f7f	1.0243987
1	0x3f7ef146	0.99586904
2	0x3f809e04	1.0048223
3	0x3f7d7988	0.99013567
4	0x3f819d9a	1.0126221
5	0x3f7dcf20	0.9914417
6	0x3f7d2104	0.988785
7	0x3f7f33c3	0.9968836
8	0x3f7bd226	0.98367536
9	0x3f810ce1	1.0082055
10	0x3f81333f	1.0093764
11	0x3f80fd10	1.0077229
12	0x3f80d4ec	1.0064979
13	0x3f8097c9	1.0046321
14	0x3f8035e0	1.0016441
15	0x3f815c51	1.0106298
16	0x3f81d998	1.0144529
17	0x3f7f1938	0.99647856
18	0x3f824a29	1.0178882
19	0x3f7e36b5	0.99302226
20	0x3f800ee7	1.0004548
21	0x3f8073e1	1.0035363
22	0x3f80e1f8	1.006896
23	0x3f809ce7	1.0047883
24	0x3f7f29da	0.99673235
25	0x3f7fb71a	0.99888766
26	0x3f803246	1.0015342
27	0x3f7fc443	0.99908847
28	0x3f7d19d7	0.98867553
29	0x3f81c970	1.0139599
30	0x3f7ef0f1	0.995864
31	0x3f7ad470	0.97980404

encoder.latency_model.net.network.1.bias f4 [32]
0	0x3d332629	0.043737564
1	0xbd2de05f	-0.042450305
2	0xbd0b6e18	-0.03404054
3	0x3d02e7c8	0.031959325
4	0xbcebce7a	-0.02878498
5	0xbd2f3518	-0.042775244
6	0x3bc1ce41	0.00591448
7	0x3cb5b8bd	0.022182817
8	0xbd1b7607	-0.037954357
9	0x3cf076c2	0.029353503
10	0x3d2d5912	0.042321272
11	0x3d3625af	0.04446953
12	0x3cde184d	0.027111197
13	0x3cf321fe	0.029679295
14	0x3cfb9b50	0.030713707
15	0x3d38072a	0.044928707
16	0x3cc82c02	0.024435047
17	0xbbfeb223	-0.0077727004
18	0xbcaf7518	-0.02141814
19	0xba8bc439	-0.0010663337
20	0x3cbc6b9f	0.023000536
21	0x3d0f7920	0.035027623
22	0x3d005eaf	0.031340297
23	0x3cd15175	0.025551537
24	0x3d155fb7	0.036468234
25	0x3c696238	0.014244609
26	0x3ca1f9c2	0.019772414
27	0x3d27e047	0.040985372
28	0xbbea4995	-0.007149885
29	0xbcf3830d	-0.029725576
30	0xbb75b426	-0.003749141
31	0x3c27aac7	0.010233588

encoder.latency_model.net.network.1.running_mean f4 [32]
0	0xc60d5e07	-9047.507
1	0x46622900	14474.25
2	0x4604d113	8500.269
3	0x45e5c77e	7352.9365
4	0xc4f37f9a	-1947.9875
5	0xc5709e78	-3849.9043
6	0xc696d11a	-19304.55
7	0x46592199	13896.399
8	0x467217f7	15493.991
9	0x4623764a	10461.572
10	0x459767c4	4844.9707
11	0x45c57242	6318.282
12	0x4644c5ae	12593.42
13	0x45cdca99	6585.3247
14	0xc61c2c9b	-9995.151
15	0x46429c3f	12455.062
16	0x456b25e4	3762.3682
17	0xc4023afd	-520.9217
18	0xc4b66302	-1459.094
19	0x42567872	53.617622
20	0xc68dff5d	-18175.682
21	0x464bb5dc	13037.465
22	0xc60a4a5d	-8850.591
23	0xc5d7706e	-6894.0537
24	0x45b3ca48	5753.285
25	0x4581c130	4152.1484
26	0x4433b5e6	718.84216
27	0x44ca374d	1617.7281
28	0x44fe42bc	2034.0854
29	0xc581d0a9	-4154.0825
30	0xc39ca88c	-313.31677
31	0x460da90d	9066.263

encoder.latency_model.net.network.1.running_var f4 [32]
0	0x4e10b296	6.069057e+08
1	0x4eab93a1	1.4392895e+09
2	0x4df76f4c	5.189083e+08
3	0x4dd97d1d	4.561069e+08
4	0x4d80bf15	2.700008e+08
5	0x4db0977b	3.7033968e+08
6	0x4f110d8b	2.4335839e+09
7	0x4e991069	1.2839948e+09
8	0x4ebebea6	1.6000827e+09
9	0x4e394520	7.770788e+08
10	0x4dccd006	4.2952314e+08
11	0x4d7b2e2d	2.6338171e+08
12	0x4e917681	1.2202313e+09
13	0x4d9c4e66	3.2779795e+08
14	0x4e55ed44	8.972741e+08
15	0x4e844f44	1.1098936e+09
16	0x4d9306c3	3.0833674e+08
17	0x4cbe4cc7	9.977196e+07
18	0x4d75481e	2.5719651e+08
19	0x4d098d4f	1.4423371e+08
20	0x4f034abe	2.2027136e+09
21	0x4e91ca78	1.2229827e+09
22	0x4e23db09	6.872602e+08
23	0x4da90181	3.54431e+08
24	0x4db2fd49	3.7536797e+08
25	0x4d4a83f5	2.1235285e+08
26	0x4c8be322	7.33412e+07
27	0x4b9d6db3	2.063447e+07
28	0x4d966fc7	3.1548848e+08
29	0x4dd64494	4.4935232e+08
30	0x4d9b07bc	3.2512192e+08
31	0x4e0c55f7	5.88611e+08

encoder.latency_model.net.network.4.weight f4 [64, 32, 3]
0	0xbdb807a0	-0.08985829
1	0x3dd90701	0.10597039
2	0x3c0ce64f	0.008599832
3	0x3daa8768	0.08326608
4	0xbdc6d3bc	-0.09708354
5	0xbdc6dc81	-0.097100265
6	0x3d84ef79	0.06490988
7	0x3c026fc5	0.007961218
8	0x3dad1fea	0.08453353
9	0xbd5c2050	-0.053741753
10	0xbd1e19ab	-0.038598698
11	0x3ccf9cb4	0.025343277
12	0x3c8d05b0	0.017214626
13	0x3c3c8788	0.011506923
14	0xbd98e8c7	-0.07466274
15	0x3da5c6df	0.08094572
16	0xbc99960a	-0.018748302
17	0x3d2c118c	0.04200892
18	0xbcf313e2	-0.029672567
19	0x3c6579b1	0.014006064
20	0x3cc0240a	0.023454685
21	0xbd8f9840	-0.07011461
22	0xbc3f6068	-0.0116807
23	0x3dd4969f	0.10380291
24	0x3c67e380	0.014153361
25	0x3d291b5b	0.041285854
26	0x3cd84c21	0.026403489
27	0xbdbd054a	-0.092295244
28	0xbd7b0c69	-0.061291132
29	0x3db26bd7	0.08711975
30	0xbb139dea	-0.0022524544
31	0x3d8a176d	0.06742749
32	0xbc654431	-0.013993309
33	0xbc198c57	-0.0093718385
34	0x3d0a2c31	0.03373355
35	0x3d9f5405	0.07779697
36	0x3dd2b7e0	0.102889776
37	0x3dc05260	0.09390712
38	0xbd59fa2c	-0.053217098
39	0x3d8f04b9	0.06983323
40	0xbd89f542	-0.06736232
41	0xbc9fa059	-0.01948564
42	0xbd090f12	-0.033461638
43	0x3cd05476	0.0254309
44	0x3cb6cc7d	0.022314304
45	0xbcced7d7	-0.025249405
46	0x3daf70db	0.08566447
47	0x3daabe1a	0.0833704
48	0xbdded755	-0.10880915
49	0x3c8c9a54	0.017163433
50	0xbc5b9351	-0.013401822
51	0x3cc42bbe	0.02394664
52	0xbd78905d	-0.06068455
53	0x3db43a76	0.08800213
54	0xbc5bf35c	-0.013424721
55	0x3d7d9a13	0.061914515
56	0x3dcc0405	0.09961704
57	0x3db7e75f	0.089796774
58	0xbd9a16da	-0.0752389
59	0xbcc7635a	-0.024339367
60	0x3d3d3ce2	0.04620064
61	0x3d1fa6f1	0.038977567
62	0xbd9ade35	-0.07561914
63	0x3d9b9cfe	0.07598303
64	0x3c4eb70a	0.012616882
65	0x3d81048e	0.06299697
66	0x3cdd1b06	0.026990425
67	0xbc3808a5	-0.01123253
68	0x3db32d6e	0.087488994
69	0x3d892db1	0.06698168
70	0xbdb44b13	-0.08803382
71	0x3c257f89	0.0101012075
72	0xbdcf0cbb	-0.1010985
73	0xbb4e7cc0	-0.0031507462
74	0xbd97db49	-0.07414872
75	0xbd883695	-0.06651036
76	0x3cce0195	0.025147239
77	0x3da991c4	0.08279756
78	0xbd64dd98	-0.05587539
79	0x3b235680	0.0024923384
80	0x3d476a9b	0.04868565
81	0xbdcd716e	-0.100314006
82	0x3cbc0b8d	0.022954727
83	0xbd5d22c6	-0.05398824
84	0xbd92278e	-0.07136451
85	0x3d860e00	0.06545639
86	0xbc3d58a6	-0.01155678
87	0xbbc69c2f	-0.006061099
88	0xbd421fc5	-0.04739358
89	0xbda18e24	-0.07888439
90	0xbda00ea8	-0.078152955
91	0xbd6ce67d	-0.057837
92	0xbd24d60f	-0.040243205
93	0x3d5c021b	0.053712945
94	0xbda33605	-0.07969288
95	0x3d4ab1cb	0.049485963
96	0xbd2b593b	-0.041833144
97	0xbde93140	-0.11386347
98	0xbd91f95d	-0.071276404
99	0x3da25a1a	0.07927342
100	0xbd659a9d	-0.056055654
101	0xbda57e91	-0.08080781
102	0xbd7ff91f	-0.06249344
103	0xbca6dbea	-0.020368535
104	0xbd4235e4	-0.047414675
105	0xbd6b8157	-0.057496395
106	0xbd765cb1	-0.06014699
107	0x3dd28307	0.10278898
108	0xbd953839	-0.07286114
109	0xbcbe5296	-0.02323274
110	0x3d97ea64	0.07417753
111	0xbd9fa6ba	-0.077954724
112	0xbc7515b6	-0.01495879
113	0x3da589f2	0.080829516
114	0x3d63a5a1	0.055577878
115	0xbdb7f683	-0.08982565
116	0xbd2fe198	-0.042939752
117	0xbd3be677	-0.045874085
118	0xbdb7a0e8	-0.08966237
119	0xbda0f468	-0.07859117
120	0xbd15ed8e	-0.036603503
121	0x3cc2dde5	0.023787448
122	0xbba244a5	-0.0049520307
123	0x3d8a0f90	0.067412496
124	0x3d2ac7b2	0.04169435
125	0x3ca59c0e	0.020216014
126	0x3d81bf24	0.06335285
127	0x3d1df69d	0.038565267
128	0x3d39acd8	0.045330852
129	0x3da57866	0.08079605
130	0x3d76e495	0.060276587
131	0xba8ecdd8	-0.0010895086
132	0x3d1f4745	0.038886327
133	0x3db419bc	0.08793971
134	0xbce84d22	-0.028357092
135	0x3d37a13d	0.044831503
136	0x3d1a14c8	0.037617475
137	0x3d7ad4fc	0.061238274
138	0x3d565a84	0.052332416
139	0x3c50725b	0.012722577
140	0x3d062fad	0.03276031
141	0xb8cd2fb5	-9.784048e-05
142	0x3d90b0aa	0.07064946
143	0xbdb0b472	-0.08628167
144	0x3dad2a78	0.08455366
145	0xbd8921c5	-0.06695894
146	0x3da2b485	0.079445876
147	0x3da45232	0.0802349
148	0xbd8b2adb	-0.067952834
149	0xbcf4dda8	-0.02989085
150	0x3cf15bb4	0.029462673
151	0x3da695e6	0.081340596
152	0xbc21fa50	-0.009886339
153	0xbbbae73f	-0.005703836
154	0x3d289fa2	0.041167863
155	0x3d3f64bb	0.046726923
156	0x3a3dabcc	0.00072353776
157	0xbdb7f5be	-0.089824185
158	0xbdd4f6f0	-0.10398662
159	0xbb18a2e3	-0.0023290447
160	0x3d255433	0.0403635
161	0xbc988528	-0.018618181
162	0x3bb3c4f2	0.005486124
163	0x3c7a5dfd	0.015281198
164	0x3c2e00cf	0.01062031
165	0x3d25c237	0.04046842
166	0xbc831051	-0.015998991
167	0xbdeb2cc3	-0.11483147
168	0x3de12cda	0.10994883
169	0xbdaa6f88	-0.08322054
170	0x3cb6ae16	0.022299808
171	0xbd40288d	-0.046913672
172	0xbd6baa0f	-0.057535227
173	0x3d20cd73	0.03925843
174	0xbc8c5072	-0.017128203
175	0x3d6c2afe	0.057658188
176	0xbd902a56	-0.07039325
177	0x3d9adeaf	0.07562005
178	0x3d42c726	0.047553204
179	0xbda5ee18	-0.081020534
180	0x3d979325	0.074011125
181	0x3dcc45a3	0.0997422
182	0x3c9decb6	0.019277912
183	0x3d559e19	0.052152727
184	0xbd823fd8	-0.063598335
185	0x3da26bc5	0.07930712
186	0x3daa9e1e	0.0833094
187	0x3d22132f	0.039569076
188	0x3dc5a7af	0.09651124
189	0x3cffb0d1	0.031212242
190	0x3d295935	0.04134484
191	0xbd86a050	-0.06573546
192	0xbbcd064f	-0.0062568556
193	0xbdababd5	-0.08382384
194	0x3c6df5fe	0.014523981
195	0x3d5828ba	0.052773215
196	0xbda8a9b3	-0.082354926
197	0xbd8726d9	-0.065992065
198	0xbdbdc4e0	-0.092660666
199	0x3d42b5ba	0.04753659
200	0x3d51febf	0.051268335
201	0x3c79d58a	0.015248666
202	0xbd36c85b	-0.044624668
203	0x3ca8d8fd	0.02061128
204	0xbd303645	-0.043020505
205	0x3dba644f	0.091011636
206	0xbd50ab0e	-0.05094438
207	0xbc837b8d	-0.016050125
208	0x3cc71e2c	0.02430638
209	0x3d8b707a	0.068085626
210	0xbd84038e	-0.064459905
211	0x3c200023	0.009765658
212	0x3d9308bb	0.071793996
213	0xbceef2ce	-0.029168513
214	0xbba64abe	-0.005074828
215	0xbcc9bc8e	-0.024626043
216	0xbc908879	-0.0176432
217	0xbd88a05d	-0.06671212
218	0xbdadd726	-0.08488302
219	0x3cb3377f	0.021877049
220	0x3da99b29	0.082815476
221	0xbd5e120b	-0.054216426
222	0xbaa25746	-0.0012385629
223	0x3d8c29f0	0.068439364
224	0xbac8e8e5	-0.0015328197
225	0x3d97a375	0.07404224
226	0x3db69ab3	0.08916225
227	0xbd09aa3f	-0.033609625
228	0xbb180fbf	-0.0023202745
229	0x3dca5576	0.09879582
230	0xbc525307	-0.012837178
231	0x3d962e93	0.07333102
232	0x3d822688	0.063550055
233	0x3d461398	0.04835853
234	0x3d2b2813	0.041786265
235	0xbd907799	-0.070540614
236	0xbd8a77ec	-0.067611545
237	0xbd21d4fc	-0.03950976
238	0x3bcc7b3d	0.006240277
239	0x3bf1336d	0.0073608668
240	0x3c648076	0.013946643
241	0xbd6e82a4	-0.058230057
242	0x3cdeda96	0.02720384
243	0x3d825587	0.06363969
244	0x3daf7140	0.085665226
245	0xbce8603b	-0.028366199
246	0xbc79aeee	-0.01523946
247	0xbd52d68e	-0.051474147
248	0x3d2df65f	0.042471286
249	0xbd8c61e2	-0.06854607
250	0x3cfc3d9f	0.030791102
251	0xbb86a86c	-0.004109433
252	0xbd65fdfd	-0.056150425
253	0xbd275f82	-0.040862568
254	0x3cc407cf	0.023929505
255	0x3daff8e6	0.085923955

encoder.latency_model.net.network.4.bias f4 [64]
0	0xbd79c8b5	-0.060982425
1	0x3d5c5524	0.053792134
2	0x3d9eb4c2	0.077493206
3	0xbceb784a	-0.028743882
4	0xbb8d4ae6	-0.004311907
5	0xbd813556	-0.06309001
6	0x3d23de1c	0.040006742
7	0xbb303a10	-0.0026890077
8	0x3d8b7d9c	0.068110675
9	0x3d7470ea	0.059677996
10	0x3d396ad8	0.04526791
11	0xbdb9a3f0	-0.09064472
12	0xbcbed953	-0.023296988
13	0x3d1b5948	0.037926942
14	0xbc9e5ef8	-0.019332394
15	0x3dda8576	0.10669987
16	0x3d1c923d	0.0382254
17	0x3d8ef26b	0.06979831
18	0xbda892a3	-0.08231094
19	0xbdcd6021	-0.10028101
20	0xbda64dbf	-0.08120298
21	0xbd64fc27	-0.055904534
22	0xbd78f011	-0.06077582
23	0xbd77101d	-0.0603181
24	0x3bb17ca9	0.005416472
25	0x3dcb91f6	0.09939949
26	0xbd12decd	-0.03585701
27	0x3d815f19	0.063169666
28	0xbd4ecc0f	-0.050487574
29	0xbc9f6e2b	-0.019461712
30	0x3d42dd5d	0.04757439
31	0xbc5a852e	-0.013337417
32	0x3d36af7f	0.04460096
33	0x3d36e6de	0.044653766
34	0xbcd7d7bb	-0.026347985
35	0xbdb391cb	-0.08768042
36	0xbd0db1f5	-0.03459354
37	0x3daf0ea0	0.08547711
38	0x3d758292	0.059938975
39	0xbceadb12	-0.028668914
40	0x3d417f33	0.047240447
41	0xbd650fba	-0.0559232
42	0xbd2ae057	-0.041717853
43	0x3cea3452	0.028589401
44	0xbdad5d80	-0.08465099
45	0x3ad918a9	0.0016563135
46	0x3cc26bcd	0.023733044
47	0x3b084cee	0.0020797807
48	0x3d2635cf	0.04057866
49	0xbdbeea42	-0.09322025
50	0x3db994fd	0.090616204
51	0x3d9dfb15	0.07713906
52	0x3d3d6fd4	0.046249226
53	0xbbec5f50	-0.0072135106
54	0xbdaee685	-0.08540062
55	0x3d2f5034	0.042801097
56	0x3dd683c6	0.104743525
57	0x3d47c47a	0.04877136
58	0x3c5bc210	0.013412967
59	0x3d8e371b	0.06944104
60	0xbd246a77	-0.040140595
61	0x3cf7ad54	0.030234016
62	0xbd8df542	-0.06931545
63	0xbd575783	-0.052573692

encoder.latency_model.net.network.5.weight f4 [64]
0	0x3f7ff08e	0.9997643
1	0x3f81ff02	1.0155947
2	0x3f82f55c	1.0231128
3	0x3f7f6544	0.99763894
4	0x3f7e7099	0.9939056
5	0x3f82475f	1.0178031
6	0x3f813521	1.0094339
7	0x3f803184	1.0015111
8	0x3f803203	1.0015262
9	0x3f813519	1.0094329
10	0x3f808b2e	1.0042474
11	0x3f838bc7	1.0277032
12	0x3f7e0359	0.9922386
13	0x3f81380e	1.0095232
14	0x3f80df2f	1.006811
15	0x3f81640b	1.0108656
16	0x3f806984	1.0032201
17	0x3f802170	1.0010204
18	0x3f8071c1	1.0034715
19	0x3f8213c2	1.016228
20	0x3f822411	1.0167257
21	0x3f7ba2ae	0.98295105
22	0x3f8107ba	1.0080483
23	0x3f7b82b6	0.98246324
24	0x3f7f5793	0.99743
25	0x3f806339	1.003028
26	0x3f816062	1.0107539
27	0x3f806843	1.0031818
28	0x3f7f1dd2	0.9965488
29	0x3f8006f3	1.0002121
30	0x3f7e5b70	0.9935827
31	0x3f7fbb5f	0.9989528
32	0x3f7ff847	0.99988216
33	0x3f7e450a	0.99324095
34	0x3f7c8b42	0.9864999
35	0x3f7d6603	0.9898378
36	0x3f800117	1.0000333
37	0x3f7db7e3	0.99108714
38	0x3f8017e1	1.0007287
39	0x3f82a7a8	1.0207415
40	0x3f81309d	1.0092961
41	0x3f7f94cd	0.99836427
42	0x3f80c68b	1.006059
43	0x3f82b5f8	1.0211782
44	0x3f8379bf	1.0271529
45	0x3f80e6aa	1.0070393
46	0x3f7c9d1d	0.98677236
47	0x3f82a83f	1.0207595
48	0x3f7f1dd0	0.99654865
49	0x3f816758	1.0109663
50	0x3f81ea13	1.0149559
51	0x3f80faa3	1.0076488
52	0x3f7bfbbe	0.98431003
53	0x3f8241a4	1.0176282
54	0x3f800500	1.0001526
55	0x3f7f646a	0.99762595
56	0x3f830533	1.0235962
57	0x3f7f5702	0.9974214
58	0x3f80440c	1.0020766
59	0x3f811939	1.0085822
60	0x3f7f574b	0.99742573
61	0x3f7ec3b6	0.9951738
62	0x3f7eadc4	0.99483895
63	0x3f7c59b1	0.9857436

encoder.latency_model.net.network.5.bias f4 [64]
0	0x3c2e3bc5	0.010634367
1	0x3d0346b3	0.032049846
2	0x3d3d59f5	0.046228368
3	0x3d141f26	0.036162518
4	0x3c81a033	0.01582346
5	0x3d30070b	0.042975467
6	0x3b802fdc	0.0039119553
7	0x3d227c55	0.039669354
8	0x3cc93eaa	0.024566013
9	0xbd16550a	-0.036702193
10	0x3d00df86	0.03146317
11	0x3cf0dddd	0.029402668
12	0x3c99975e	0.018748935
13	0x3d52dbc0	0.0514791
14	0x3cc7c629	0.024386482
15	0xbb808a66	-0.0039227484
16	0x3d071beb	0.03298561
17	0x3cfbc416	0.03073315
18	0xbc44ee66	-0.012019729
19	0x3d26b8a2	0.040703423
20	0x3adc6f6e	0.0016817877
21	0xbb762416	-0.003755813
22	0x3d0ac4ae	0.033878975
23	0xbca6f279	-0.020379292
24	0x3d16ce0f	0.036817607
25	0x3c779530	0.015111253
26	0x3d070953	0.032967877
27	0x3cbdd881	0.023174526
28	0x3d045861	0.032310847
29	0x3bfedab5	0.0077775368
30	0x3c7e1e16	0.015510103
31	0x3c76a3c3	0.015053692
32	0x3d21e451	0.03952438
33	0xbcc861ee	-0.024460759
34	0x3ba57171	0.0050489237
35	0xbbe191a2	-0.006883816
36	0x3b7cb0d0	0.0038557537
37	0xbc44dbf2	-0.01201533
38	0x3ca0b55f	0.019617734
39	0x3d51c94c	0.051217362
40	0xbbc4c202	-0.006004573
41	0x3d037cbe	0.032101385
42	0xb93b4b2a	-0.0001786171
43	0xbb9d6b8d	-0.004804081
44	0x3bcbbb51	0.006217398
45	0x3d30ea87	0.043192413
46	0xbc887241	-0.016656043
47	0x3d090e7c	0.03346108
48	0x3d02c3fe	0.031925194
49	0xba9e9cb1	-0.0012101141
50	0x3d41f565	0.047353167
51	0x3d0559dd	0.032556403
52	0xbbcfedef	-0.0063455026
53	0x3d27d305	0.04097273
54	0x3d31308c	0.04325919
55	0x3c24cfa9	0.010059276
56	0x3a6aad0f	0.00089521793
57	0xbaf8d4ec	-0.0018984354
58	0x3d02c164	0.031922713
59	0x3ce8c31f	0.028413353
60	0x3d21fb82	0.039546497
61	0x3b219a79	0.0024658723
62	0xbd0ac497	-0.03387889
63	0xbbcae3ac	-0.0061916914

encoder.latency_model.net.network.5.running_mean f4 [64]
0	0x3d359967	0.04433575
1	0x3dabe964	0.08394125
2	0x3e1e6229	0.15467133
3	0xbc94d31e	-0.018167075
4	0x3cbd9342	0.023141507
5	0x3cb5f5a1	0.022211852
6	0x3e5c16bd	0.21493049
7	0x3d47ac8b	0.048748534
8	0x3da2edfc	0.07955548
9	0x3e840013	0.25781307
10	0x3c21b35f	0.009869426
11	0xbcf129b3	-0.029438829
12	0xbe460601	-0.19338228
13	0x3e2fc372	0.171644
14	0xbde518df	-0.111863844
15	0x3ea9b5c4	0.3314649
16	0x3e17f1a3	0.14838271
17	0x3e3d2426	0.18470821
18	0xbe85d2e4	-0.2613746
19	0xbc0ef911	-0.008726374
20	0xbec42bf2	-0.38314778
21	0xbe06a697	-0.13149486
22	0xbdc6de20	-0.09710336
23	0xbe1ae556	-0.15126547
24	0xbcfbce99	-0.030738162
25	0x3df5a4bd	0.11994312
26	0xbddadd20	-0.106867075
27	0x3e15c22e	0.14624855
28	0xbe2fedac	-0.17180508
29	0x3dc4a61a	0.09601994
30	0xbe8af5c0	-0.27140617
31	0x3e4ba193	0.19885854
32	0x3db98bcf	0.090598695
33	0x3e1b8dfe	0.15190884
34	0xbdfd8ee9	-0.123807736
35	0xbe969b6c	-0.29415452
36	0x3d4e840d	0.050418902
37	0xbdfdb852	-0.12388672
38	0x3e1b7121	0.15179874
39	0x3e8e25aa	0.2776311
40	0x3e128828	0.14309752
41	0xbe035bcd	-0.12827988
42	0xbee53672	-0.447681
43	0xbdf2ebf0	-0.11861408
44	0xbeff9ba5	-0.49923435
45	0x3da6428f	0.08118164
46	0x3e86fb11	0.26363423
47	0x3d5f7c2c	0.05456178
48	0x3d4dd3d2	0.050250836
49	0xbee76058	-0.45190692
50	0x3e172ff4	0.14764386
51	0x3dadb0d7	0.08480995
52	0x3d7a6371	0.06112999
53	0xba61c901	-0.0008613021
54	0xbc131800	-0.00897789
55	0x3d7fbb28	0.062434345
56	0xbe6335b5	-0.22188456
57	0xbe297ce3	-0.16551547
58	0x3e598595	0.21242364
59	0x3e59bbea	0.2126309
60	0xbd223099	-0.039597128
61	0xbe04292e	-0.12906334
62	0x3c484d25	0.012225424
63	0x3da01efb	0.07818409

encoder.latency_model.net.network.5.running_var f4 [64]
0	0x3de55993	0.111987256
1	0x3ea6d606	0.32585162
2	0x3e83b8b2	0.2572685
3	0x3e6998ec	0.22812241
4	0x3e3bed43	0.18352227
5	0x3f02cf39	0.51097447
6	0x3ec55b3a	0.38546163
7	0x3e89385f	0.2680082
8	0x3de39d38	0.111139715
9	0x3e1bb289	0.15204825
10	0x3d90dd08	0.07073408
11	0x3e1d1d3d	0.15343185
12	0x3e04af29	0.12957443
13	0x3ef36686	0.47539157
14	0x3dfe963a	0.12430997
15	0x3ede7aef	0.43453166
16	0x3f0c512c	0.5481136
17	0x3e95217f	0.29127118
18	0x3f2afc13	0.66790885
19	0x3e796fbb	0.24359028
20	0x3f3dba0f	0.7411203
21	0x3ddfef1a	0.10934277
22	0x3e9c46a5	0.30522648
23	0x3e8451a8	0.2584355
24	0x3db3971f	0.087690584
25	0x3f100b45	0.56267196
26	0x3df696d2	0.120404854
27	0x3f218c86	0.63105047
28	0x3dbe8677	0.09302991
29	0x3d6beb7d	0.057597626
30	0x3e4bc6f5	0.19900115
31	0x3e7e88da	0.24856892
32	0x3e9805e5	0.29691997
33	0x3de2555e	0.11051439
34	0x3edb22ed	0.42800084
35	0x3eba5525	0.36393085
36	0x3e22bfd2	0.15893486
37	0x3ec69049	0.38781956
38	0x3e2f5e3f	0.17125796
39	0x3f8a05b6	1.0782993
40	0x3dd89f72	0.10577287
41	0x3e621253	0.22077303
42	0x3f136220	0.575716
43	0x3e6b5d31	0.22984768
44	0x3f96688f	1.1750659
45	0x3e965dbb	0.29368386
46	0x3e3ce0b4	0.18445092
47	0x3f17799c	0.59169936
48	0x3e65fe5c	0.22460312
49	0x3f167c46	0.58783376
50	0x3e10c4d1	0.1413758
51	0x3eb7414f	0.35792014
52	0x3e806e6e	0.2508425
53	0x3f035289	0.51297814
54	0x3ed417f9	0.4142454
55	0x3e070e53	0.13189058
56	0x3f087ffd	0.53320295
57	0x3ecde10a	0.40210754
58	0x3e9d72bf	0.30751607
59	0x3df1d6af	0.11808526
60	0x3e2a3195	0.16620477
61	0x3eac1aad	0.33614102
62	0x3dbff05b	0.09372016
63	0x3e1e3230	0.15448833

encoder.latency_model.attn_layer.atten_w f4 [200, 64, 1]
0	0x3e87dffb	0.2653807
1	0x3d2889a4	0.04114689
2	0x3caff633	0.021479702
3	0x3dc30169	0.09521753
4	0xbdb755fc	-0.08951947
5	0x3e1afcc6	0.15135488
6	0xbc95b9bb	-0.01827704
7	0xbd6950e6	-0.056961916
8	0x3d9104e9	0.07081015
9	0xbdea3b50	-0.11437094
10	0x3e0ff52d	0.14058371
11	0xbe346811	-0.17617823
12	0xbc56bda0	-0.013106734
13	0xbe131e61	-0.14367057
14	0xbe477aca	-0.19480434
15	0x3dbd4662	0.0924194
16	0xbc7444d4	-0.014908988
17	0x3cb001f8	0.021485314
18	0x3e74978b	0.23885934
19	0x3e560af0	0.2090261
20	0xbe0639a9	-0.13107933
21	0x3dced339	0.10098881
22	0x3e39772c	0.18111867
23	0xbc8fda9d	-0.017560298
24	0xbe4bb901	-0.19894792
25	0xbe72f026	-0.23724422
26	0x3e894ba9	0.26815537
27	0x3dc7bc84	0.097527534
28	0x3e0b56b2	0.1360729
29	0xbdfca9b2	-0.12337054
30	0xbdedcc48	-0.11611229
31	0x3e812b8a	0.2522853
32	0xbdfcdf99	-0.12347335
33	0x3e717dbf	0.23583125
34	0x3d8931ff	0.06698989
35	0xbe5866bc	-0.2113294
36	0xbc9541f2	-0.018219922
37	0xbe99544b	-0.29947123
38	0xbe8f4ca0	-0.27988148
39	0xbe769234	-0.2407921
40	0xbe9d6335	-0.3073975
41	0x3e8c058b	0.2734798
42	0x3e5be1cb	0.21472852
43	0x3cafccb3	0.021459913
44	0xbe635efd	-0.22204204
45	0xbe9219f2	-0.2853542
46	0x3d88265d	0.06647942
47	0xbe6afb26	-0.22947368
48	0xbdb7ecb4	-0.089806944
49	0x3df06d7a	0.11739631
50	0x3d5da9ac	0.05411689
51	0x3e8c013e	0.27344698
52	0x3dc7ef4b	0.097624384
53	0x3e1c3d5b	0.1525778
54	0xbe75fe4b	-0.24022786
55	0x3d18a106	0.03726294
56	0x3da17b0f	0.078848
57	0x3e136daa	0.14397302
58	0xbd39f5f9	-0.045400593
59	0x3e532f89	0.20623602
60	0x3e052f17	0.13006245
61	0x3d92f9de	0.07176565
62	0x3e166d17	0.14690052
63	0xbe93d180	-0.28870773
64	0x3c429e30	0.011878535
65	0xbe8f8ad2	-0.280356
66	0x3e0f655e	0.14003512
67	0x3db7f84a	0.08982904
68	0x3e345900	0.17612076
69	0xbd43105b	-0.04762302
70	0x3cbe576a	0.023235042
71	0xbe3a03fe	-0.18165585
72	0xbe4c968d	-0.19979306
73	0xbcf97262	-0.03045005
74	0xbe4a78a6	-0.19772586
75	0xbe30f0c7	-0.1727935
76	0xbde5f173	-0.112276934
77	0xbd5f99e2	-0.054590113
78	0xbd945aa5	-0.072438516
79	0xbe20a7d1	-0.15689017
80	0x3dfbdfa8	0.122985184
81	0xbe8dee25	-0.27720752
82	0x3e55366d	0.20821543
83	0xbe74118d	-0.2383482
84	0x3c9a5110	0.018837482
85	0x3e54170e	0.2071192
86	0xbe181ebe	-0.14855477
87	0xbe309167	-0.17242967
88	0x3e915a33	0.2838913
89	0xbdceb0a1	-0.10092283
90	0x3e6831a3	0.22675185
91	0xbe4f4c47	-0.20243941
92	0x3d48c95b	0.049020153
93	0xbe0c2d8a	-0.13689247
94	0xbcf1de64	-0.02952499
95	0x3e0e2e46	0.1388484
96	0xbe1d1574	-0.15340215
97	0x3dff7a4a	0.12474497
98	0x3e481af2	0.19541529
99	0xbe03f25f	-0.12885426
100	0xbda5e1c2	-0.080997005
101	0xbe17ded4	-0.14831096
102	0xbcd95852	-0.026531372
103	0xbe5cbb4b	-0.21555822
104	0x3e5a862f	0.2134025
105	0xbe815802	-0.25262457
106	0xbe57ac8d	-0.21061917
107	0xbe8400df	-0.25781915
108	0x3e4ee79b	0.20205538
109	0xbdf59b54	-0.11992517
110	0x3e077be3	0.13230853
111	0x3e95160c	0.29118383
112	0xbe4d867f	-0.20070837
113	0xbcf20c38	-0.029546842
114	0xbc4bc93e	-0.012438117
115	0x3dbf8409	0.093513556
116	0xbdb01030	-0.085968375
117	0x3cc53402	0.02407265
118	0xbd7c8139	-0.061646674
119	0x3d8ea960	0.069658995
120	0x3de7d325	0.113195695
121	0x3e5cd692	0.21566227
122	0xbe8f2fd7	-0.27966186
123	0xbe219678	-0.15780056
124	0xbe76ea60	-0.24112844
125	0x3ddc4d7d	0.10756967
126	0xbe3954ba	-0.18098727
127	0xbc9a3b52	-0.018827114
128	0xbe863642	-0.2621327
129	0x3e65ea8d	0.22452755
130	0xbdf4574c	-0.11930713
131	0xbe090fc6	-0.13384923
132	0xbe2c188a	-0.16806236
133	0x3e8cd917	0.27509376
134	0xbe695434	-0.22786027
135	0xbe666df5	-0.22502883
136	0x3e9706af	0.29497287
137	0x3e40f56a	0.18843618
138	0xbe824a58	-0.25447345
139	0xbdfd9405	-0.12381748
140	0x3da7460c	0.08167657
141	0x3dd52ca6	0.10408907
142	0x3dc3bd31	0.0955757
143	0xbe54386b	-0.20724647
144	0x3e248aa0	0.16068506
145	0xbe35a8de	-0.17740199
146	0x3da89657	0.082318
147	0x3ded682a	0.11592133
148	0xbcb9be2e	-0.022673693
149	0x3d8d0305	0.068853416
150	0xbe8fb92e	-0.28070968
151	0xbe0f77a1	-0.14010479
152	0x3d0cf7cf	0.034416016
153	0x3e304959	0.1721548
154	0x3d0b36e7	0.033987906
155	0xbe2db4ec	-0.16963547
156	0xbe5ee280	-0.2176609
157	0x3e17fe43	0.14843087
158	0xbe9ef246	-0.31044215
159	0x3e386022	0.18005422
160	0x3e39812f	0.18115686
161	0xbe83dc69	-0.25754097
162	0x3e3bd3c2	0.18342498
163	0x3d285882	0.041100033
164	0x3d8105d1	0.062999375
165	0x3e0ebd13	0.13939314
166	0xbd54bdc7	-0.0519388
167	0xbe6a7fde	-0.2290034
168	0xbd9dbd47	-0.077021174
169	0xbd33c8e3	-0.043892752
170	0x3e727301	0.23676683
171	0x3e849d7a	0.25901395
172	0x3e560346	0.20899686
173	0x3df19b8c	0.11797246
174	0xbbc9b4bd	-0.006155579
175	0xbe46a68e	-0.19399473
176	0xbe27562b	-0.16341464
177	0x3e2cd858	0.16879404
178	0x3e861334	0.26186526
179	0x3e26b072	0.16278246
180	0xbc67af23	-0.014140877
181	0x3e8d2846	0.2756979
182	0xbd4a9107	-0.049454715
183	0xbc7c2488	-0.015389569
184	0xbe11117a	-0.14166823
185	0xbb383121	-0.0028105455
186	0xbe09db05	-0.13462456
187	0xbe2ab99e	-0.1667237
188	0xbe7c1e21	-0.24620868
189	0x3e3cb20e	0.18427297
190	0x3e1b72c9	0.15180506
191	0x3cd1309e	0.025535878
192	0xbd6f0a03	-0.058359157
193	0xbdc3f835	-0.09568826
194	0x3de1d847	0.1102758
195	0x3dee094e	0.116228685
196	0xbdd3085a	-0.10304327
197	0xbe6e6b31	-0.23283078
198	0x3e95298f	0.2913327
199	0x3e86e295	0.26344743
200	0x3dc2d01a	0.095123485
201	0x3e0212fb	0.12702553
202	0x3a73c4fd	0.0009299068
203	0xbc6e7188	-0.014553435
204	0xbe412ca6	-0.18864688
205	0x3dc6a1d4	0.09698835
206	0x3e25bb91	0.16184832
207	0xbddfd848	-0.10929924
208	0xbe7ae5a7	-0.24501668
209	0x3d3646c7	0.044501092
210	0x3e19e313	0.15028028
211	0x3e928031	0.28613427
212	0xbd6c2e05	-0.057661075
213	0xbc848d1f	-0.016180573
214	0xbe5c9e0e	-0.21544668
215	0x3e998bfb	0.2998961
216	0x3d293386	0.041308902
217	0xbd2deeed	-0.042464186
218	0x3e60eea3	0.21966033
219	0x3e51ba65	0.2048126
220	0xbd2014fe	-0.03908252
221	0x3e7f1e45	0.2491389
222	0x3e0e204f	0.13879512
223	0x3e081cbf	0.13292216
224	0x3dd5d1fc	0.10440442
225	0x3e398d80	0.18120384
226	0xbe972a14	-0.2952429
227	0xbe0f2f8d	-0.13982983
228	0x3e82bce4	0.25534737
229	0xbe89daed	-0.2692484
230	0xbda077af	-0.07835328
231	0xbdf273a9	-0.11838467
232	0xbe1ee764	-0.15517956
233	0x3de53f8d	0.11193762
234	0x3db2e409	0.087349005
235	0x3e6da5b7	0.23207746
236	0xbe067058	-0.13128793
237	0x3dfb71b7	0.12277549
238	0x3d573f42	0.05255056
239	0xbe4e1219	-0.20124091
240	0x3e26d334	0.16291505
241	0xbe9a144d	-0.30093613
242	0x3e9550fe	0.29163355
243	0x3e57bf22	0.21069005
244	0xbdc142f6	-0.094366
245	0xbde77696	-0.11301915
246	0x3db328de	0.08748029
247	0xbd1490be	-0.03627085
248	0xbcbe5737	-0.023234947
249	0x3ce824ff	0.028337954
250	0x3ea2ca0d	0.31794778
251	0xbe274f07	-0.1633874
252	0x3e9b6e7c	0.3035773
253	0xbd831053	-0.06399598
254	0xbe76a019	-0.2408451
255	0xbce1fcdd	-0.027586395

encoder.latency_model.attn_layer.atten_bias f4 [200, 1, 1]
0	0x3c78fdca	0.015197227
1	0x3caf7c3c	0.021421544
2	0x3cc50caf	0.0240539
3	0x3cadaf7b	0.02120184
4	0x3c88eccd	0.016714478
5	0x3c631ebb	0.013862307
6	0x3c9d9b77	0.01923917
7	0x3c75c819	0.01500132
8	0x3cf75504	0.030191906
9	0x3ce8aacf	0.02840176
10	0x3cd02353	0.025407469
11	0x3d126c56	0.03574785
12	0x3d09c0dc	0.03363119
13	0x3ce59ee1	0.02802986
14	0x3d1c1f89	0.03811601
15	0x3d0b7c58	0.03405413
16	0x3cd8a082	0.026443724
17	0x3d06a604	0.03287317
18	0x3ccd3e1b	0.025054028
19	0x3d0c867b	0.034307938
20	0x3ce1f6d2	0.027583513
21	0x3d155368	0.036456496
22	0x3d21f13b	0.039536696
23	0x3cc7abdf	0.024373947
24	0x3cdc55f5	0.026896456
25	0x3d033ab8	0.03203842
26	0x3cf8e547	0.030382765
27	0x3cedea1b	0.029042294
28	0x3cca99f9	0.024731623
29	0x3ca3f420	0.020013869
30	0x3cc65c23	0.024213856
31	0x3cbfd580	0.023417234
32	0x3d10a6f7	0.03531548
33	0x3ca9cbd7	0.020727081
34	0x3d0d79f8	0.034540147
35	0x3cf7d99d	0.030255133
36	0x3d1e892c	0.038705036
37	0x3d160260	0.03662336
38	0x3d0af018	0.033920377
39	0x3d095ea0	0.033537507
40	0x3ceee6c2	0.029162768
41	0x3d117071	0.035507623
42	0x3cf085ef	0.02936074
43	0x3d3efcf2	0.046627946
44	0x3d19c6c1	0.037543062
45	0x3cd5d026	0.02610023
46	0x3cbc1d67	0.022963239
47	0x3cb07105	0.021538267
48	0x3cf43203	0.029809004
49	0x3cae2126	0.02125604
50	0x3cf1b7ca	0.029506583
51	0x3d02aed6	0.031905018
52	0x3c9f799f	0.019467173
53	0x3ce7ad2d	0.028280819
54	0x3c5e8bde	0.013583152
55	0x3cad114e	0.021126416
56	0x3d025045	0.031814832
57	0x3cb9a3bd	0.022661084
58	0x3cbc068e	0.022952344
59	0x3c9b46ef	0.018954722
60	0x3ca10b33	0.01965866
61	0x3d02d8a7	0.031944897
62	0x3cfa8500	0.030580997
63	0x3cea7e2b	0.028624615
64	0x3cc9dde5	0.02464194
65	0x3cce35bf	0.025172113
66	0x3cbfdd43	0.023420935
67	0x3cde205a	0.027115036
68	0x3d092d05	0.0334902
69	0x3d004e98	0.031324953
70	0x3cecd815	0.02891163
71	0x3cd87b3b	0.026425948
72	0x3d172af9	0.036906216
73	0x3ce5eadc	0.028066091
74	0x3d071919	0.03298292
75	0x3c543bc0	0.012953699
76	0x3cdc3c48	0.026884213
77	0x3d01a3c7	0.03165033
78	0x3ce994c4	0.02851332
79	0x3ce8924a	0.028390069
80	0x3cc5ed65	0.02416105
81	0x3d03b1b6	0.0321519
82	0x3c93df6a	0.018050868
83	0x3cb31340	0.021859765
84	0x3cbf9f94	0.023391522
85	0x3ccd147b	0.02503418
86	0x3ca0c2a8	0.01962407
87	0x3cda5fb8	0.02665697
88	0x3cf32546	0.02968086
89	0x3d1794f9	0.037007306
90	0x3d0aab97	0.033855047
91	0x3cf9ef3d	0.030509586
92	0x3d109aed	0.035304
93	0x3cce5811	0.025188478
94	0x3cb9a050	0.02265945
95	0x3ce07295	0.027398387
96	0x3cc59b62	0.024121944
97	0x3cf255e8	0.029581979
98	0x3ce1961b	0.027537396
99	0x3cec5e8b	0.028853675
100	0x3ced13aa	0.02894004
101	0x3ce95bd6	0.028486174
102	0x3cf27a81	0.02959943
103	0x3cf36a5f	0.029713808
104	0x3ce5fc75	0.028074482
105	0x3d07e916	0.033181272
106	0x3d0afc7b	0.03393219
107	0x3d040937	0.03223535
108	0x3d16db28	0.036830097
109	0x3d015614	0.03157623
110	0x3ce804f9	0.028322684
111	0x3d1e9580	0.038716793
112	0x3d0c5573	0.03426118
113	0x3cac3731	0.021022411
114	0x3d0f2c5a	0.034954406
115	0x3c9e45ff	0.019320486
116	0x3d08a264	0.033357993
117	0x3d0c5f0e	0.03427034
118	0x3cfecd0f	0.031103639
119	0x3ce80222	0.02832133
120	0x3d06ba83	0.032892715
121	0x3d14eeb4	0.036360458
122	0x3ccbc917	0.02487616
123	0x3cc76877	0.024341805
124	0x3d0531e2	0.032518275
125	0x3cc1fb8d	0.02367952
126	0x3d05de48	0.032682687
127	0x3cea2a6c	0.028584681
128	0x3d1ac64c	0.037786767
129	0x3ce7d13d	0.028298015
130	0x3d06e308	0.032931358
131	0x3cd628eb	0.026142558
132	0x3d1f0830	0.038826168
133	0x3d2d6baf	0.042339023
134	0x3d0c81c7	0.034303453
135	0x3cfc5c8d	0.03080585
136	0x3d15b332	0.036547847
137	0x3d15266d	0.0364136
138	0x3d3777c8	0.044791967
139	0x3cf5556b	0.029947957
140	0x3d0386c6	0.03211095
141	0x3d22b71f	0.03972542
142	0x3d269191	0.040666167
143	0x3d205402	0.039142616
144	0x3d0d8acd	0.0345562
145	0x3d28cd7a	0.041211583
146	0x3c9b4c39	0.018957244
147	0x3cee59c1	0.029095532
148	0x3ce70e6b	0.028205117
149	0x3ce383c1	0.027772786
150	0x3d081244	0.033220544
151	0x3ccfe7a1	0.025379004
152	0x3ce7f6fc	0.028316014
153	0x3d08ea98	0.03342685
154	0x3d0752cd	0.03303795
155	0x3d05be79	0.032652352
156	0x3d1458d7	0.036217537
157	0x3d2edf15	0.042693216
158	0x3cfbeaeb	0.030751666
159	0x3cf5c75d	0.03000229
160	0x3d1aa6c6	0.037756704
161	0x3d0874fb	0.033314686
162	0x3d00202b	0.031280678
163	0x3cf8439e	0.03030568
164	0x3d0f975d	0.03505646
165	0x3d22cacf	0.039744195
166	0x3ce46b75	0.02788327
167	0x3d2612ce	0.040545277
168	0x3d12df5b	0.03585754
169	0x3d14e72c	0.036353275
170	0x3cf1bcdf	0.029509006
171	0x3d2bf10a	0.04197792
172	0x3c5fbfd5	0.013656576
173	0x3d22cbc6	0.039745115
174	0x3d0eaca8	0.034832627
175	0x3cb9e587	0.022692455
176	0x3cda5e31	0.026656242
177	0x3d016f92	0.031600542
178	0x3cd26058	0.025680706
179	0x3ca65879	0.020305859
180	0x3d1b4355	0.03790601
181	0x3d160bda	0.036632396
182	0x3d212ead	0.039351154
183	0x3d029710	0.031882346
184	0x3d015ae1	0.03158081
185	0x3cef4975	0.029209832
186	0x3d0348c4	0.032051817
187	0x3d131edd	0.035918105
188	0x3caae8d2	0.02086297
189	0x3c09ae21	0.008403332
190	0x3cfdd2f2	0.030984376
191	0x3d08fd7d	0.03344487
192	0x3caf60c7	0.021408452
193	0x3d19318c	0.037400767
194	0x3cfe6ada	0.03105681
195	0x3ce2c4da	0.027681757
196	0x3cf42771	0.029803963
197	0x3d00f128	0.031479985
198	0x3d2e0b95	0.042491514
199	0x3d2b77e5	0.041862387

encoder.cpu_model.net.network.0.weight f4 [32, 1, 3]
0	0xbebd6381	-0.36989978
1	0x3e5f8de7	0.21831475
2	0x3e1ad031	0.15118481
3	0x3e7bb2da	0.24579945
4	0xbdb3614a	-0.08758791
5	0x3ee14312	0.43996483
6	0xbe37ee7e	-0.17962071
7	0xbf0b3f4e	-0.5439347
8	0xbef20a21	-0.47273353
9	0xbed5e709	-0.41777828
10	0x3efeb7b8	0.4974954
11	0x3dbffa9d	0.093739726
12	0x3ed75027	0.4205334
13	0x3bcf8cbb	0.006333915
14	0xbe4a6716	-0.19765887
15	0xbeeea08a	-0.46606857
16	0xbda5b4be	-0.080911145
17	0x3eb78e79	0.35850886
18	0x3e2f0d67	0.17094956
19	0xbe42648d	-0.1898367
20	0x3ef32124	0.47486222
21	0xbed6af36	-0.4193055
22	0xbc9e8c28	-0.019353941
23	0x3e9caa7b	0.30598816
24	0xbec29a25	-0.38008228
25	0xbf0a40d2	-0.5400516
26	0xbe0fd26f	-0.14045118
27	0xbf02560c	-0.5091255
28	0x3e11920a	0.14215866
29	0xbd7badf6	-0.0614452
30	0xbc66d254	-0.014088232
31	0x3ec4c158	0.3842876
32	0xbe0e518a	-0.13898292
33	0xbec0d8d2	-0.3766542
34	0xbf0185a8	-0.5059457
35	0x3ecd104e	0.40051502
36	0xbee84284	-0.45363247
37	0xbd5f65c6	-0.054540418
38	0x3eb96d53	0.3621622
39	0xbea40f77	-0.3204305
40	0xbebb5683	-0.3658944
41	0xbe9633ce	-0.293364
42	0xbecf9817	-0.40545723
43	0xbf12eafd	-0.57389814
44	0x3e9ebddd	0.3100423
45	0xbea36f14	-0.31920683
46	0x3f1126e6	0.5669998
47	0x3eea2a1c	0.45735252
48	0xbec7e1ca	-0.3903945
49	0xbf0afad3	-0.5428898
50	0xbe390983	-0.18070035
51	0x3db3f0cc	0.08786163
52	0xbebcd18a	-0.36878616
53	0xbd679b2c	-0.056544468
54	0xbce9a4f9	-0.028521048
55	0xbda25b7d	-0.07927606
56	0xbd189b80	-0.03725767
57	0x3de09835	0.10966531
58	0xbe8b366a	-0.27189952
59	0x3e561913	0.20908003
60	0xbe0ddc3f	-0.13853548
61	0x3f0a106a	0.53931296
62	0xbe9cd435	-0.3063065
63	0x3e12e555	0.14345296
64	0xbed67d98	-0.41892695
65	0xbe998865	-0.29986873
66	0xbe530229	-0.20606293
67	0xbc8af0d1	-0.016960533
68	0x3d1dd05f	0.038528796
69	0xbeb75ad7	-0.35811493
70	0x3ed01f63	0.40648946
71	0x3f0a4f16	0.54026926
72	0x3e616ebe	0.22014901
73	0xbd1d1f50	-0.03835994
74	0xbe9a5572	-0.30143315
75	0xbe9decf8	-0.30844855
76	0x3e6d7cad	0.23192091
77	0x3f15bace	0.58488166
78	0x3ea8f351	0.32998136
79	0xbf144102	-0.57911694
80	0xbf02c69c	-0.51084304
81	0xbd9def57	-0.07711666
82	0x3e33655e	0.17519137
83	0x3eb6f4e1	0.35733703
84	0xbea940d0	-0.3305726
85	0xbdf13154	-0.11776987
86	0x3e5239c7	0.20529853
87	0xbe163e78	-0.14672267
88	0x3ef1f8fa	0.47260267
89	0xbdfe1756	-0.12406795
90	0xbe9eeaca	-0.31038505
91	0xbea952a5	-0.33070865
92	0x3e9e993b	0.3097628
93	0x3edb1e7c	0.42796695
94	0xbeda67be	-0.42657274
95	0x3ec1248b	0.37723193

encoder.cpu_model.net.network.0.bias f4 [32]
0	0x3eee750e	0.4657368
1	0xbe3a6ba6	-0.18205127
2	0xbec874ff	-0.3915176
3	0x3ceca120	0.028885424
4	0x3da8efd0	0.082488656
5	0xbe886789	-0.2664149
6	0xbda7d1d9	-0.08194322
7	0x3e378b25	0.17924173
8	0x3ebe52df	0.371726
9	0xbe2f2a00	-0.17105865
10	0xbd211ee0	-0.039336085
11	0xbece8424	-0.4033519
12	0xbd11969d	-0.035544027
13	0x3db17788	0.08665377
14	0x3e9d3e8f	0.3071179
15	0x3dc4476e	0.09583937
16	0x3dfccb2e	0.12343441
17	0x3ecc3ddd	0.39890948
18	0x3eab2b25	0.33431354
19	0x3ddd529b	0.10806771
20	0xbea04516	-0.31302708
21	0x3e1267ed	0.14297457
22	0x3e6884c6	0.22706899
23	0x3dfb2479	0.12262816
24	0x3daa2161	0.08307148
25	0xbeb270de	-0.34851736
26	0xbec08ce3	-0.37607488
27	0x3dbe5dfe	0.09295271
28	0xbee18e4e	-0.44053882
29	0x3edf78c1	0.43646815
30	0xbeb3460f	-0.35014388
31	0xbf0127a9	-0.5045114

encoder.cpu_model.net.network.1.weight f4 [32]
0	0x3f82124d	1.0161835
1	0x3f7ec121	0.9951344
2	0x3f7eb538	0.9949527
3	0x3f7e0403	0.9922487
4	0x3f7fd398	0.9993224
5	0x3f803d60	1.001873
6	0x3f7da65c	0.9908197
7	0x3f80d1e9	1.006406
8	0x3f818a66	1.0120361
9	0x3f7fdd60	0.99947166
10	0x3f8168a6	1.0110061
11	0x3f7f7118	0.9978194
12	0x3f819ec0	1.0126572
13	0x3f812db1	1.0092069
14	0x3f8009cd	1.0002991
15	0x3f7e6629	0.99374634
16	0x3f8075f4	1.0035996
17	0x3f81978b	1.0124372
18	0x3f805501	1.0025941
19	0x3f7f7ffd	0.9980467
20	0x3f7d4dd7	0.989469
21	0x3f7fbb10	0.9989481
22	0x3f7f3b34	0.9969971
23	0x3f7d2082	0.9887773
24	0x3f7fea31	0.9996672
25	0x3f818813	1.0119652
26	0x3f810516	1.0079677
27	0x3f805aaf	1.0027674
28	0x3f7e37e4	0.9930403
29	0x3f7d762b	0.99008435
30	0x3f7ce021	0.98779494
31	0x3f7efbab	0.99602765

encoder.cpu_model.net.network.1.bias f4 [32]
0	0xbc2ee46d	-0.010674578
1	0xbc421d06	-0.01184774
2	0xbc5172a7	-0.012783683
3	0x3ac02013	0.0014657996
4	0x3b4f2ed7	0.0031613612
5	0xbb86f0ed	-0.004118076
6	0x3b96346f	0.0045838873
7	0xbc537305	-0.012905841
8	0x3c52bbe6	0.012862181
9	0xbbaf7b68	-0.0053552873
10	0x3c31a86d	0.0108433785
11	0x393317fc	0.00017079705
12	0x3c4a020c	0.01232959
13	0xbbcdc907	-0.006280068
14	0xbc1b9c77	-0.009497753
15	0xbb815899	-0.0039473292
16	0xbb56c264	-0.0032769674
17	0x3ca29dee	0.019850697
18	0xba727682	-0.00092492264
19	0x3bf36015	0.0074272254
20	0xbc3fdb4e	-0.011710001
21	0xbc0590e7	-0.008152223
22	0xbc84a12b	-0.016190132
23	0x3b55a98e	0.0032602283
24	0x3c22a07f	0.009925961
25	0x3c429f7a	0.0118788425
26	0x3b662854	0.0035119252
27	0x3caee32b	0.021348557
28	0xbc12bcbd	-0.0089561315
29	0xbc7a8eca	-0.015292833
30	0xbb508c47	-0.0031821893
31	0xbb2206d4	-0.0024723308

encoder.cpu_model.net.network.1.running_mean f4 [32]
0	0x3e7f035b	0.24903624
1	0x4348c261	200.7593
2	0xc3c91726	-402.18085
3	0x426930ae	58.29754
4	0x429a2aec	77.08383
5	0xc27e485c	-63.570663
6	0x43191298	153.07263
7	0xc231a63e	-44.412346
8	0xc3b1eb18	-355.83667
9	0xc3100be3	-144.04643
10	0x429b2f91	77.5929
11	0xc3224bb7	-162.29576
12	0xc2445374	-49.081497
13	0xc3a47acb	-328.95932
14	0xc360626f	-224.3845
15	0x436cde01	236.8672
16	0xc3bb012c	-374.00916
17	0xc2e1cc90	-112.899536
18	0xc24196cf	-48.397274
19	0x417d8b4c	15.846508
20	0x41fb70e6	31.430126
21	0xc3411a3d	-193.1025
22	0xc276ffaf	-61.74969
23	0x4345d995	197.84993
24	0xc21f7b3e	-39.870354
25	0x432a521f	170.32079
26	0xc37f85d2	-255.52274
27	0x43190685	153.02547
28	0xc2a420fc	-82.06442
29	0x428882b9	68.25532
30	0xc2df2f3e	-111.59227
31	0x42fd76d6	126.7321

encoder.cpu_model.net.network.1.running_var f4 [32]
0	0x440dce15	567.22003
1	0x47a86011	86208.13
2	0x48a8788a	345028.3
3	0x45fe97d4	8146.9785
4	0x4650399f	13326.405
5	0x46189f62	9767.846
6	0x474455f4	50261.953
7	0x45a1c672	5176.8057
8	0x488474fe	271271.94
9	0x472e02b2	44546.695
10	0x464d6578	13145.367
11	0x476059cc	57433.797
12	0x45c57712	6318.884
13	0x4861c514	231188.31
14	0x47d5409f	109185.24
15	0x47ecc398	121223.19
16	0x48921539	299177.78
17	0x46d81763	27659.693
18	0x459ea673	5076.806
19	0x442951d9	677.2789
20	0x4529c46f	2716.277
21	0x479cdef6	80317.92
22	0x4601b08f	8300.14
23	0x47a640ea	85121.83
24	0x45732f9f	3890.9763
25	0x47789db4	63645.703
26	0x48096a6d	140713.7
27	0x474466e0	50278.875
28	0x46666987	14746.382
29	0x461f82d9	10208.712
30	0x46d513a3	27273.818
31	0x47082c50	34860.312

encoder.cpu_model.net.network.4.weight f4 [64, 32, 3]
0	0xbd73323d	-0.059374083
1	0xbdd6bfd4	-0.10485807
2	0x3d905840	0.07048082
3	0xbd7a8b0a	-0.061167754
4	0xbddf88e9	-0.109147854
5	0xbda407c5	-0.080092944
6	0xbd0507f0	-0.032478273
7	0x3db2f6b9	0.08738465
8	0xbc8dbfcf	-0.017303376
9	0x3c82f110	0.015984088
10	0x3d24205c	0.040069923
11	0x3ce96a7b	0.028493157
12	0xbcce143c	-0.025156133
13	0xbc48ecad	-0.012263459
14	0xbdb0d802	-0.0863495
15	0xbcdf7cd9	-0.027281212
16	0xbd82f9b2	-0.06395282
17	0x3c207841	0.009794296
18	0x3d9e3694	0.07725254
19	0x3d96391b	0.07335111
20	0xbda0a633	-0.078442
21	0x3d963a5f	0.07335352
22	0xbdeb12fe	-0.11478232
23	0xbdeb8412	-0.114998
24	0xbd8e13c8	-0.06937367
25	0xbd12c478	-0.0358319
26	0x3cdfd100	0.027321339
27	0x3d009aa5	0.03139748
28	0x3d2144e2	0.039372332
29	0xbd5f4901	-0.05451298
30	0xbda0b845	-0.078476466
31	0x3c80fa64	0.015744396
32	0x3d2cd39c	0.042193994
33	0x3bff4334	0.0077899937
34	0xbd8340ec	-0.06408867
35	0xbc1854c9	-0.009297558
36	0xbd03bf14	-0.03216465
37	0x3da46681	0.080273636
38	0x3d9b8949	0.075945444
39	0x3d7a4c1e	0.061107747
40	0xbd628998	-0.055307
41	0x3d14d620	0.036337018
42	0xbda6501a	-0.08120747
43	0xbd06b800	-0.03289032
44	0x3a05b703	0.0005100818
45	0x3b2cfd69	0.0026396161
46	0x3d08eb6a	0.033427633
47	0xbd73d10c	-0.059525535
48	0x3d9716dc	0.07377407
49	0x3c6c6a1d	0.014429596
50	0xbd60601d	-0.05477916
51	0x3bd2744c	0.006422555
52	0x3da608cc	0.081071466
53	0xbdd8da7c	-0.105885476
54	0x3d986843	0.07441761
55	0x3d891d08	0.066949904
56	0xbd22744c	-0.03966169
57	0xbdb477b6	-0.088118955
58	0xbdcd05c3	-0.100108646
59	0xbdeb54db	-0.11490794
60	0x3c07d55a	0.008290613
61	0xbd537f94	-0.05163534
62	0xbd6dc28c	-0.058046862
63	0xbdab483f	-0.08363389
64	0xbce2286e	-0.027607169
65	0x3d6ff8ab	0.058586758
66	0xbdb44c5e	-0.088036284
67	0x3c9c6cee	0.01909491
68	0x3c0baa92	0.008524554
69	0x3ceaa852	0.028644715
70	0x3bb65da9	0.0055653644
71	0xbd586499	-0.052830312
72	0x3cc6eda7	0.024283243
73	0x3d2ecd59	0.042676304
74	0x3db76646	0.08955054
75	0xbd9280b7	-0.07153457
76	0xbdc55e03	-0.09637072
77	0x3cfbe320	0.03074795
78	0x3cb70373	0.022340512
79	0xbdacb28f	-0.08432495
80	0xbd88546d	-0.06656728
81	0xbdcdec25	-0.100548066
82	0xbb91fa3d	-0.0044548796
83	0x3da3fba8	0.08006984
84	0xbd9943aa	-0.07483609
85	0xbda3ab80	-0.079916954
86	0xbbbb9391	-0.0057243784
87	0xbd9c48fa	-0.07631107
88	0x3d93a0d0	0.07208407
89	0xbd031e9e	-0.03201162
90	0xbd4ab304	-0.04948713
91	0x3d3aff90	0.04565388
92	0x3c372d60	0.011180252
93	0x3ca83f81	0.020538094
94	0xbc5d4af6	-0.013506642
95	0xbda12861	-0.0786903
96	0xbd14b3c7	-0.03630426
97	0xbd9665d3	-0.0734364
98	0x3d0cd053	0.03437836
99	0x3d848952	0.06471504
100	0x3d415238	0.04719755
101	0xbd4ba378	-0.049716443
102	0xbdba4fc5	-0.09097246
103	0x3ca9dc3a	0.020734895
104	0xbd1cb316	-0.038256727
105	0xbd0548f1	-0.032540265
106	0xbda8cd4c	-0.08242282
107	0x3d1325b7	0.03592464
108	0xbc9d33ba	-0.019189704
109	0xbc14f4f5	-0.009091605
110	0x3d3e8171	0.046510164
111	0x3cde603a	0.027145494
112	0xbcf60460	-0.030031383
113	0xbd1af19b	-0.03782807
114	0x3d8ed501	0.06974221
115	0x3cefabb6	0.029256683
116	0xbcdefe05	-0.027220735
117	0xbda7d766	-0.08195381
118	0xbd8c0804	-0.06837466
119	0x3cc89db3	0.02448926
120	0xbcb0f017	-0.021598859
121	0xbd0f703c	-0.035019144
122	0x3d554099	0.05206356
123	0x3dc4e57a	0.09614082
124	0xbbb944d8	-0.005653959
125	0xbcd3db34	-0.02586136
126	0x3d15dabe	0.036585562
127	0x3cc15420	0.023599684
128	0xbd077fbd	-0.033080805
129	0x3d5976a6	0.053091668
130	0x3d16d2b2	0.03682203
131	0xbd99780e	-0.07493602
132	0xbd7a6916	-0.061135374
133	0x3d1954e4	0.037434474
134	0x3d8c39f7	0.068469934
135	0xbdb64696	-0.08900182
136	0xbd1a1514	-0.037617758
137	0xbd56f6f0	-0.05248159
138	0xbcc68d7b	-0.024237385
139	0x3dcb321d	0.09921668
140	0x3c984e1f	0.018591939
141	0xbd09b834	-0.033622935
142	0xbd8e950f	-0.069620244
143	0xbc81a8e2	-0.0158276
144	0xbdc78ee9	-0.09744055
145	0x3d1eebbe	0.03879904
146	0x3ac3d7f2	0.0014941676
147	0xbd447b10	-0.047968924
148	0xbdcc5b47	-0.09978347
149	0x3daa56d0	0.083173394
150	0xbdb3fedb	-0.08788844
151	0x3c788f1f	0.0151708415
152	0xbdc5fc81	-0.09667302
153	0x3cb82516	0.022478621
154	0xbd8beba2	-0.06832053
155	0x3b4209a1	0.002960779
156	0x3ba60a73	0.0050671636
157	0x3dc30f05	0.09524349
158	0x3d38b4dd	0.04509436
159	0xbdc0cd4b	-0.094141565
160	0x3d483e7f	0.048887726
161	0x3dcbd3a3	0.09952476
162	0x3d866c93	0.06563678
163	0x3d541218	0.051775068
164	0x3d952752	0.072828904
165	0x3db49b80	0.08818722
166	0xbba4e679	-0.0050323573
167	0xbc07aa85	-0.008280401
168	0x3d5db161	0.05412424
169	0x3cb82a34	0.022481062
170	0x3d95990c	0.07304582
171	0x3dafc2a5	0.085820474
172	0x3da503ff	0.08057403
173	0x3d26a15b	0.040681224
174	0xbd64a6a2	-0.055822976
175	0xbdbd1694	-0.09232822
176	0xbd651ff0	-0.05593866
177	0xbc9e9318	-0.01935725
178	0x3c6e04d5	0.014527519
179	0x3dccf1f6	0.10007088
180	0xbd70a9f9	-0.05875585
181	0x3d230744	0.03980185
182	0x3bf7ecd9	0.0075660762
183	0x3d45363e	0.048147433
184	0xbd420954	-0.047372177
185	0xbd9e627c	-0.07733628
186	0x3afe623d	0.0019407939
187	0xbdc96d3e	-0.098352894
188	0xbc7e887e	-0.015535472
189	0x3d25fb93	0.040523123
190	0xbdb66548	-0.089060366
191	0x3d0922c4	0.03348042
192	0xbda09229	-0.07840378
193	0xbc46b634	-0.012128402
194	0xbd96d913	-0.07365622
195	0xbdaff7a0	-0.085921526
196	0x3d41bc0b	0.047298472
197	0x3d24901a	0.04017649
198	0xbdb1ceea	-0.08682044
199	0xbcd21b91	-0.02564791
200	0xbd9136da	-0.0709054
201	0x3d0a8208	0.033815414
202	0x3cb4e01c	0.02207952
203	0x3c8795f9	0.016551005
204	0xbd955878	-0.07292265
205	0x3d9ddc3e	0.077080235
206	0x3d8719c4	0.06596711
207	0xb969729d	-0.00022263308
208	0xbd245cf4	-0.04012771
209	0xbdaa463e	-0.08314179
210	0x3dd86683	0.105664276
211	0xbd9bd5cb	-0.07609137
212	0xbda87e8d	-0.08227263
213	0x3d7f2a45	0.06229617
214	0xbcbf101d	-0.023323113
215	0xbda2e411	-0.079536565
216	0x3d9a013a	0.07519765
217	0x3dc92fb0	0.09823549
218	0x3bd83d51	0.0065991064
219	0xbca5fc46	-0.020261895
220	0x3ca0bc52	0.019621048
221	0x3d244cd3	0.040112328
222	0xbd845e70	-0.06463325
223	0x3ae310ce	0.0017323734
224	0x3ccca643	0.024981624
225	0xbc4b41f7	-0.012405864
226	0xbd0fc3d6	-0.035098873
227	0x3bfc9f1c	0.007709397
228	0xbd92dc59	-0.07170934
229	0xbd90b330	-0.07065427
230	0xbbac8460	-0.005264804
231	0x3c70e39b	0.014702703
232	0xbc2808db	-0.010256018
233	0x3db3f895	0.08787648
234	0xbd9a3068	-0.07528764
235	0xbd66e138	-0.05636713
236	0x3d5f2594	0.054479197
237	0xbdbdab8d	-0.09261236
238	0xbb8ccf63	-0.0042971834
239	0x3ce1b901	0.027554037
240	0xbd85cdd7	-0.065334015
241	0x3c9e708d	0.019340778
242	0x3c285823	0.01027492
243	0xbbae21e0	-0.005314097
244	0xbdc3983b	-0.0955052
245	0x3ce50a95	0.027959147
246	0xbda467d7	-0.080276184
247	0x3c65dc20	0.014029533
248	0x3bcd121b	0.006258262
249	0x3d3b77d3	0.04576857
250	0x3c350947	0.011049575
251	0xbd5da3ef	-0.054111417
252	0xbcdda045	-0.027053962
253	0x3d7916bd	0.0608127
254	0xbbcbc6dd	-0.0062187747
255	0xbb470213	-0.0030366227

encoder.cpu_model.net.network.4.bias f4 [64]
0	0x3ca59ce3	0.020216411
1	0xbdad51fc	-0.08462903
2	0xbce1aff1	-0.027549716
3	0xbd5b91ab	-0.053605717
4	0x3d2dd4a6	0.042439125
5	0xbd3a7ff9	-0.0455322
6	0xbc867d18	-0.016417071
7	0x3ccbe183	0.024887806
8	0x3ccb02f2	0.024781678
9	0x3d6ed2fd	0.058306683
10	0x3dd2e2de	0.10297178
11	0xbd5164be	-0.051121466
12	0xbd8d5b30	-0.06902158
13	0xbccf2a74	-0.025288798
14	0xbb62f73b	-0.0034632224
15	0x3cc17f80	0.023620367
16	0xbd9cc4e9	-0.07654745
17	0xbd9145c8	-0.07093388
18	0x3d8bb435	0.06821481
19	0xbcf9b455	-0.030481497
20	0x3daa30e3	0.08310106
21	0xbd8ec0c1	-0.06970359
22	0x3d752922	0.05985368
23	0x3d7a4275	0.061098535
24	0x3c206178	0.009788863
25	0xbdc3a0d6	-0.095521614
26	0x3d41b715	0.04729374
27	0x3c1e9627	0.009679354
28	0x3cf38f07	0.029731287
29	0x3dde7a0a	0.10863121
30	0x3bec9253	0.0072195916
31	0x3dbe63ac	0.09296355
32	0xbdb57038	-0.08859295
33	0xbc4e9ce3	-0.012610647
34	0x3d935acd	0.07195053
35	0xbd85ed07	-0.0653935
36	0x3d6d0ec7	0.05787542
37	0x3db00c02	0.0859604
38	0x3dbe5a9b	0.09294625
39	0xbd46473c	-0.04840778
40	0x3d297ab8	0.0413768
41	0xbd9b1fc0	-0.07574415
42	0x3d42fde7	0.04760542
43	0x3d1c8729	0.038214836
44	0x3c53bc6d	0.012923342
45	0xbca7d6d2	-0.020488176
46	0xbdd35a65	-0.10319976
47	0x3cef6d08	0.029226795
48	0x3dae3cf2	0.08507718
49	0x3d163414	0.03667076
50	0xbddb512a	-0.1070884
51	0x3d86c5dc	0.065807074
52	0x3d8404c9	0.06446225
53	0xbb3877a2	-0.0028147479
54	0x3b707fd0	0.0036697276
55	0xbc187437	-0.0093050515
56	0xbd4ef486	-0.050526164
57	0xbd3f1fa2	-0.046661027
58	0xbc9f0aec	-0.019414388
59	0x3be3ff38	0.0069579147
60	0xbdb5da46	-0.08879523
61	0x3bf5dfd8	0.007503491
62	0x3dc21b68	0.094778836
63	0x3c1e0140	0.009643853

encoder.cpu_model.net.network.5.weight f4 [64]
0	0x3f7bc215	0.9834302
1	0x3f7dac96	0.9909147
2	0x3f805f41	1.0029069
3	0x3f7e7eb6	0.99412096
4	0x3f83f24e	1.030832
5	0x3f7e1b8f	0.992608
6	0x3f81ab0b	1.0130323
7	0x3f7f4bbe	0.9972495
8	0x3f7da5be	0.9908103
9	0x3f7d6809	0.9898687
10	0x3f80234b	1.001077
11	0x3f80a844	1.005135
12	0x3f8199e2	1.0125086
13	0x3f7c8a63	0.9864866
14	0x3f817caa	1.011617
15	0x3f800380	1.0001068
16	0x3f7d2043	0.9887735
17	0x3f807928	1.0036974
18	0x3f7e27de	0.9927958
19	0x3f7eaafe	0.99479663
20	0x3f81f00e	1.0151384
21	0x3f831e6e	1.0243661
22	0x3f80d8af	1.0066127
23	0x3f81c279	1.0137473
24	0x3f7f758c	0.9978874
25	0x3f81b6ae	1.0133874
26	0x3f7e96a7	0.9944863
27	0x3f7f02ac	0.9961345
28	0x3f800eb8	1.0004492
29	0x3f81eb95	1.0150019
30	0x3f7c0b5b	0.9845483
31	0x3f7ee49c	0.9956758
32	0x3f7f5f36	0.99754655
33	0x3f8014be	1.000633
34	0x3f810a9c	1.0081363
35	0x3f7ea148	0.99464846
36	0x3f7ce8fb	0.98793
37	0x3f80a02d	1.0048882
38	0x3f820804	1.0158696
39	0x3f80700d	1.0034195
40	0x3f810274	1.0078874
41	0x3f80d577	1.0065144
42	0x3f80f82a	1.0075734
43	0x3f7f9145	0.9983104
44	0x3f7f628b	0.9975974
45	0x3f800298	1.0000792
46	0x3f81cfdf	1.0141562
47	0x3f80cbac	1.0062156
48	0x3f7d5cb4	0.9896958
49	0x3f7e71d6	0.9939245
50	0x3f7e50df	0.9934215
51	0x3f7d67d2	0.9898654
52	0x3f77a957	0.9674277
53	0x3f7f9b45	0.998463
54	0x3f7f0f2a	0.99632514
55	0x3f7db59b	0.9910523
56	0x3f7f6bae	0.9977368
57	0x3f7e592d	0.9935482
58	0x3f7f3543	0.99690646
59	0x3f803b02	1.0018008
60	0x3f82095f	1.015911
61	0x3f811f76	1.0087726
62	0x3f7e6047	0.9936566
63	0x3f807c4b	1.0037931
